checkpoint_700.pth (torch, 450802 bytes, 8 tensors)

embedding.weight f4 [671, 100]
00000000: b1e9 d43e 882c 07bf f5a6 fb3d 5359 363f
00000010: e651 fdbe 9378 a33f 8a92 8cbe f6d2 293d
00000020: d8f6 3dbf 68f2 dc3d 51f9 9a3f d082 393e
00000030: 7801 41bf 4a9d 203f a0eb ebbf 04b7 58bd
00000040: 66c8 903f 3768 833f 4f36 7e3a b528 ca3f
00000050: 4d38 11c0 201f b7bf 8ee1 0abf 60e6 cfbe
00000060: b54f 5bbf 4a14 1340 f391 06bd 9db9 213f
00000070: 5add 1dbe 7656 52bf 0e26 643f 78e1 f7bf
00000080: cdb4 c23e 7985 97b9 7095 693d 08ff 8bbf
00000090: e7f3 14bf 91ca a2be 72df 613e 297d 843f
000000a0: f638 b8be 1470 a23f a052 31bf 120d eebe
000000b0: b7c5 2040 bce2 3f3f 6018 82be 6ac6 8cbf
000000c0: b1b5 0440 6513 233f 3cc8 9f3f d3d4 5ebf
000000d0: 7747 95be c91a 7f3e 481e 79be 827a 04bf
000000e0: e971 103e 9722 e03f 7c71 a7bf bf32 b03e
000000f0: ae13 cabe d4df 1abf cec3 523f 34ae 683f
00000100: 6ca7 70bf 3d46 68bd 1ba7 dc3e 8b16 a43e
00000110: 2f6a 14bf 2c6c d1bf 2688 16bf 049a c43f
00000120: 34a7 d4bf fc9f cabe d8f0 67bf fc57 a4be
00000130: d4fb 15bf ff42 15bf 6abe 9cbe 826f c7bd
00000140: 9328 663f c90e 4abf 64b3 113e d95d 65bd
00000150: d021 a43e 79f1 91bf c4cc 8c3f b05c e4bf
00000160: e283 863e 2ab8 643f de88 d13f c83c 123e
00000170: 0584 fd3e 1d5a 4e3f 2af0 4ebe 5e63 f43d
00000180: 3c4a 7a3f b922 d0be 1d30 80bf e7e9 28bf
00000190: 8692 383e 0cf8 3a3f ac69 a9bf 4bcf 8cbd
000001a0: 096a ca3e 419f bcbe aed2 cf3c acb8 253f
000001b0: f0a9 373e 8f09 f6bf bdf9 85be 40bd 3b3f
000001c0: 9241 d6be 61db b53f fc35 093f 7700 fdbe
000001d0: 3fe5 1ebf 735d 0cc0 2647 b23e 1761 a13f
000001e0: 785f c23e c7d1 443d a6ce ce3d 4db4 b7be
000001f0: a5c6 95be 0c9e 423f 1d98 1fc0 2361 dabf
00000200: 123a 10bf 5b88 d4bf 779c dabf 8216 ca3d
00000210: a0c6 81bf b4fb 29be 85cc 4bbf 33b0 a9be
00000220: 8f81 16bf 9c1f c6bd 7f8d a1bf 29e2 ee3f
00000230: ec64 8bbf 48c6 c0bf 765e 58bd b48a 50bf
00000240: 62ad 13bf 0249 82bf 4079 e8bf 755c 1ebf
00000250: 4217 ea3e d1a3 55bf d551 403e 8dba 64bf
00000260: b7b5 96be fcf9 38bf 5e9f 6ebf e3b4 da3f
00000270: 703f b7bd 84d0 3abf 3dfe 8ebf f580 0bbf
00000280: 2d62 263e beec 883e 6e49 143e 635a 163f
00000290: 85bf 1cbf 71cc f8bd b3a1 cc3f 7fba 103f
000002a0: 50cb 7b3e 775d 21bf 0bb4 dc3e 957b e4be
000002b0: c651 dcbf d5f9 f63e 49a9 4a3f 8e6f 933f
000002c0: 359b 613f 6d38 1b40 e71a 3b3e 93c9 aabe
000002d0: 8899 993f d8ec 123f f7bf 98bf 14d2 d2bf
000002e0: 7396 dc3f ffa2 e3be ac0f 4c3f 56c7 ae3f
000002f0: 848e aebf f067 cabf 5afc 9ebe 4032 fc3e
00000300: 4300 65bf 3847 bc3f 066f 83bf 2ae6 ab3e
00000310: 143e 7ebe 9f3b ee3e 9f13 87bf 9528 2c3f
00000320: c29d 01be cce7 223f fd0e e43c 5eef a13e
00000330: 20c4 053f 8bea eebf 2f81 0540 fc25 0ebf
00000340: 0bd1 b8bf be0e 5abf fcad 93bf e838 0540
00000350: 031d 96bf c8df 51bf d9d3 3a3f a27b 52bd
00000360: 571a 923e 552b 593e 365d ad3f 2d5a a03e
00000370: 5ce1 863f 1f09 37bf 6804 6bbf 2353 c93d
00000380: 91bd a13f 1305 ef3e 57b7 523f 5e06 bd3e
00000390: 4ae0 2bc0 5965 ce3f eb14 323f 26a3 a8be
000003a0: 7e90 353f 2424 733e f31b 2a3e e95e a53e
000003b0: 0c0c 6fbe 36c3 86bf 907a 443e 0fc7 9abe
000003c0: 0dbd 223f b1af 3ebf a87d 183f 4bb1 be3e
000003d0: 8109 0fc0 398f 2dbf f7d0 bfbf 93fc c0bf
000003e0: 6c06 123f e534 0ec0 0844 c43f c7df 6fbd
000003f0: 7db7 a13e 46e4 95bf d04c f1bf 73c9 5fbd
0.41584542 -0.52802324 0.12287704 0.7123005 -0.49476546 1.2771171 -0.2745555 0.041460954
-0.7420478 0.10788423 1.2107335 0.18116307 -0.75392866 0.62740004 -1.8431282 -0.052908912
1.1311157 1.0266179 0.00096974237 1.5793673 -2.2690613 -1.4306374 -0.5425042 -0.4060545
-0.856685 2.2981133 -0.03285403 0.6317385 -0.1541647 -0.8216318 0.89120567 -1.9365683
0.38028565 -0.0002890041 0.05702728 -1.0937204 -0.58184665 -0.3179517 0.22057894 1.0350696
-0.35980958 1.2690454 -0.692667 -0.46494347 2.5120676 0.74955344 -0.25409222 -1.0998051
2.0735896 0.6370147 1.2482982 -0.87043494 -0.29156086 0.24912561 -0.24327958 -0.5174943
0.14105953 1.7510556 -1.3081508 0.34413716 -0.3946814 -0.60497785 0.82330024 0.9089081
-0.94005466 -0.05670761 0.4309624 0.3204845 -0.57974523 -1.6361136 -0.58801496 1.5359502
-1.6613526 -0.39575183 -0.90601873 -0.32098377 -0.58587384 -0.5830535 -0.30614024 -0.09738065
0.8990566 -0.7892881 0.14228588 -0.055997703 0.32057047 -1.1401817 1.099999 -1.7840786
0.26272494 0.8934351 1.6369894 0.14280999 0.49514785 0.8060625 -0.20208803 0.11933015
0.9776952 -0.4065149 -1.0014683 -0.65981907 0.18024644 0.7303474 -1.3235373 -0.068754755
0.39534023 -0.3684025 0.025369015 0.6473491 0.1793592 -1.9221667 -0.26167098 0.7333565
-0.418469 1.4207574 0.53598 -0.49414417 -0.6206855 -2.1932037 0.34819907 1.2607754
0.37963462 0.04805162 0.10098009 -0.35879746 -0.29253116 0.7602241 -2.4936593 -1.7060894
-0.5633861 -1.6604112 -1.7078999 0.09867574 -1.013874 -0.16599923 -0.7960895 -0.33142242
-0.5879144 -0.09673998 -1.2621306 1.8662769 -1.0890174 -1.5060511 -0.05282446 -0.81461644
-0.57686436 -1.017853 -1.8162003 -0.6185983 0.4572087 -0.8345309 0.18781216 -0.89347154
-0.29435512 -0.72256446 -0.93211925 1.7086452 -0.089476466 -0.7297442 -1.1171337 -0.5449365
0.16248389 0.2674312 0.14481136 0.5873167 -0.61229736 -0.12148369 1.5986847 0.5653457
0.24589276 -0.6303324 0.43106112 -0.44625536 -1.7212455 0.48237482 0.7916456 1.1518419
0.8812745 2.425319 0.18271981 -0.33356914 1.1999979 0.57392645 -1.1933583 -1.6470361
1.7233413 -0.44460294 0.79711413 1.3654583 -1.3637242 -1.5812969 -0.31051904 0.49257088
-0.89453524 1.4709234 -1.0268257 0.3357404 -0.24828368 0.46529862 -1.0552863 0.67249423
-0.12657836 0.63634944 0.027839178 0.31627935 0.5225239 -1.8665327 2.0860097 -0.5552671
-1.4438795 -0.85178745 -1.1537471 2.0815983 -1.1727604 -0.8198209 0.72979504 -0.051387437
0.2853572 0.21207936 1.3544071 0.313188 1.0537524 -0.7149829 -0.918036 0.0983031
1.2635976 0.4668356 0.82311004 0.3691892 -2.6855645 1.6124679 0.6956317 -0.32936972
0.709236 0.23744255 0.16612224 0.32298973 -0.2334444 -1.0528324 0.19187379 -0.30229995
0.6356972 -0.74486834 0.59566736 0.3724464 -2.234955 -0.67796665 -1.4985646 -1.507708
0.5704105 -2.2219784 1.5333261 -0.05856302 0.31585303 -1.1710289 -1.8851566 -0.054635476

lstm.weight_ih_l0 f4 [256, 100]
00000000: b2bc 3fbc c28a 20bd 9427 eebd a1cc b23d
00000010: 19c0 3e3d fbef 3b3e d0f8 b8bc 5ccc 0bbc
00000020: a00a 983d 9fe5 d1bd f54f a0bd 2546 503d
00000030: c3ad 7d3d fe26 dbbd dc9d 493d 6a9e ce3d
00000040: 5547 a43d 0d07 17be fac4 473d e7fc 91bd
00000050: 7817 1fbe ca98 9fbd a007 bfbd a323 5bbd
00000060: 9876 84bd f253 0dbe 2ae7 9e3d 9a21 0bbe
00000070: b265 b73d 4cbd a53d c7e7 403d 0b90 acbd
00000080: 4236 bdbc ed0d 7a3d fdf2 16be 7c7f 2ebd
00000090: 0fd9 9cbd 681a 9cbd adde aebd 5150 b6bc
000000a0: 32ce 72bd 83e3 27be 48bd ffbd f4b4 673d
000000b0: c355 0b3d 9824 cb3d cb7b 26bc 3006 9ebd
000000c0: f0df be3d acff 7abc 67f8 6c3d ff09 0bbe
000000d0: b50f 083e 6724 873d df99 1abd eaa1 883d
000000e0: 53a9 80bd 6370 713d 87ff 503d a249 bdbd
000000f0: d995 77bd ab64 f03d 7a28 1ebd d348 0ebc
00000100: c0ef 8c3d 24af 8abb 8f4a b3bd 1688 19be
00000110: 2259 53bd 2291 81bd fe94 873d 02e0 e83c
00000120: 5c4f f73c f697 c8bd 0d24 fa3d c27b d83d
00000130: a3b3 d0bb d04a b83d 8406 86bc 7ea2 cc3d
00000140: 88fc ce3d 9f14 cabc 8f3c 693d 1ff8 6a3d
00000150: 0d00 3e3d ebfa cc3d 5b2a 783d b19c 63bd
00000160: 3a1d 0cbe ce6b 02be 8cb8 6bbc 5e68 e13d
00000170: cebb ab3d de5c 94bd afa9 08bd 5074 353d
00000180: c8da 5a3d 9cdf b03c dd07 b0bd fe59 df3d
00000190: 2ef8 2bbd a484 a2bd 616f 573d d5ee ebbd
000001a0: f314 fb3d 7ec9 62bb 1ee3 0fbd 5b58 34be
000001b0: efb6 69bd cb27 f9bd 350a 4c3d b890 c53b
000001c0: e92c 90bd b942 963d eb96 16ba 70ad 08bc
000001d0: 6e58 2d3e c09f b5bd 66ed ec3c d39a 26bd
000001e0: 8963 033d fc87 353d d59a adbd 2377 2b3e
000001f0: dbb9 633d 45b3 babd efba 653d ec7c a33d
00000200: e408 813d ce62 48bd 3921 5fbc f739 873d
00000210: c44f 0dbe 2fed 14bd c98d 5d3c 62ca 2dbd
00000220: d3fd ce3b b440 d53d 892a 1abe c2ff 09be
00000230: 1d28 c3bd d2a8 da3c 5f91 90ba 517a 803d
00000240: 041c d33d 5145 50bd 8d01 093e 0dd1 f23c
00000250: 0af5 ad3d 0e30 e5bb 2226 3fbd 1291 c2bc
00000260: 4833 e43b b243 a3bd 0b44 e83c 1b29 72bd
00000270: 05f1 9f3c 0326 da3d 96d3 f5bc e738 04be
00000280: 64c9 78bd 4271 d03d e88d 02bd d579 903d
00000290: f0e4 dd3d 41d2 5dbc c733 d4bc e699 78bc
000002a0: d5c3 96bd 0d71 18be d3d7 fb3d c2af e8bd
000002b0: 919a 983d bb96 72bd bbdb 59bd f186 1c3c
000002c0: 1062 213d 2324 9ebd 5fd1 7cbd 7063 9e3d
000002d0: b491 6b3d 2150 c43c 6d9a 883c b7da 0ebd
000002e0: cd07 de3d 7bfb 6cbd 29c7 a03d b981 47bd
000002f0: ce0b 0f3d 7377 553c b56e 65bd d33d 77bd
00000300: 04b6 97bd 28cd 4ebd 3512 b3bd ea1f 0f3d
00000310: f95a 813d d3d5 dbbd ed9f 233d 00af 773d
00000320: 07a0 dcbc 77fe 52bd e735 b53d ff1d 8abd
00000330: c963 113e 937c d63d ee5f b53d 9230 553d
00000340: 9734 a5bd 3f8f bb3d 6a11 b83c 5ef7 6cbd
00000350: 94f6 98bc 0c18 303c ca5a b8bc 2fa6 d73c
00000360: ccfe ae3d 9d13 f03d 7e97 c7bc 2f20 c2bd
00000370: 54c3 c5bd c043 8b3d 07ac 9e3d cb43 a43c
00000380: 2e32 863c 7691 8e3d 3a10 3c3d 7342 9a3d
00000390: 311a 4a3c 4829 7a3d 25d6 20bd 0d3c ff3c
000003a0: 0853 803d 7c50 8c3d b79d 493e 82cf 573d
000003b0: e4e6 253e 9948 a93d 3e17 543d 01ad 153d
000003c0: 7d9f cc3d c51b 403d 5620 d83d c79e a8bc
000003d0: 0ed6 29bd bb18 9cbb b5c4 eb3d 45d4 1a3d
000003e0: 86d3 ecbd 57a4 4bbd c52f a3bd c439 0ebd
000003f0: 1308 20bd 0bbd 96bd f948 803d 069a 963d
-0.011702703 -0.03919483 -0.11628643 0.08730436 0.046569917 0.18353264 -0.02257958 -0.00853261
0.074239016 -0.10248875 -0.078277506 0.050848145 0.06193329 -0.107007965 0.049222812 0.10088809
0.08021418 -0.14748783 0.048771836 -0.071283154 -0.15536296 -0.07792814 -0.09327626 -0.053500783
-0.064679325 -0.13801554 0.07758935 -0.13587037 0.08954944 0.08092746 0.04709604 -0.084259115
-0.023097161 0.061048437 -0.1474113 -0.042602047 -0.07658588 -0.07622224 -0.08538566 -0.022255095
-0.059278674 -0.16395383 -0.124872744 0.056569055 0.034017336 0.09919089 -0.0101613505 -0.07716024
0.093200564 -0.015319746 0.057854082 -0.13578032 0.13287242 0.0659874 -0.0377444 0.06671508
-0.06282296 0.05894507 0.05102494 -0.0924256 -0.06044564 0.11737951 -0.03861282 -0.008684355
0.06881666 -0.004232304 -0.08754455 -0.14993319 -0.051598676 -0.0632651 0.06620215 0.028427128
0.030189209 -0.09794609 0.122139074 0.1057048 -0.0063690706 0.08998644 -0.016360529 0.099919304
0.1010676 -0.024668036 0.05694252 0.057365533 0.046386767 0.10008796 0.06058727 -0.055569354
-0.13683024 -0.12736437 -0.014387261 0.110062346 0.0838543 -0.072442755 -0.033364948 0.044300377
0.053431302 0.021591 -0.0859525 0.109058365 -0.04198473 -0.079354554 0.052596454 -0.11520163
0.12259855 -0.0034604962 -0.035128705 -0.1761183 -0.057059225 -0.12165793 0.04981442 0.0060292147
-0.07039816 0.07336945 -0.00057445344 -0.008342132 0.16928264 -0.088683605 0.028921794 -0.040674996
0.032077346 0.044319138 -0.084767975 0.16744666 0.055597167 -0.09116224 0.056086477 0.07982811
0.06300524 -0.048922352 -0.013618761 0.06602853 -0.1379996 -0.03635901 0.013522574 -0.042429335
0.0063168793 0.10412732 -0.15055288 -0.1347647 -0.095291354 0.026691828 -0.0011029652 0.0627333
0.10308078 -0.050847355 0.13379498 0.029640699 0.08494003 -0.006994254 -0.046667226 -0.023750816
0.006964121 -0.07971896 0.028352758 -0.059121232 0.019524107 0.106517814 -0.030008119 -0.12912332
-0.060738936 0.10177852 -0.031873614 0.070544876 0.10834682 -0.013538898 -0.025903596 -0.015173411
-0.07361571 -0.14886875 0.122970246 -0.11361648 0.07451356 -0.05922578 -0.053188067 0.009553657
0.03940016 -0.07721736 -0.06172311 0.0773381 0.057512 0.02396399 0.016675198 -0.03487655
0.10841332 -0.057857018 0.07850487 -0.048707698 0.034923367 0.013028967 -0.05601378 -0.060361695
-0.074077636 -0.05048862 -0.08743707 0.034942545 0.0631618 -0.10734143 0.03994744 0.060469627
-0.026931776 -0.051512208 0.08848172 -0.067440026 0.14198221 0.104729794 0.08856188 0.052048273
-0.08066671 0.091581814 0.022469241 -0.057853095 -0.018672265 0.010747921 -0.02250423 0.02632436
0.085446924 0.11722491 -0.02436423 -0.09478795 -0.096563965 0.06800032 0.07747655 0.020051857
0.01638135 0.06961338 0.045913912 0.075322054 0.012335346 0.061074525 -0.039266724 0.031156564
0.06265837 0.06851289 0.1968907 0.05268813 0.16201359 0.082658 0.051779978 0.036541943
0.099913575 0.046901483 0.105530426 -0.020583523 -0.041463904 -0.0047636903 0.11512128 0.037800092
-0.115637824 -0.049717274 -0.07968096 -0.03472306 -0.0390702 -0.07360276 0.062639184 0.073535964

lstm.weight_hh_l0 f4 [256, 64]
00000000: 8864 8abd ba7d 9f3c fef8 0ebb e376 693d
00000010: 1d07 b1bd 1531 463e ba18 1c3e 09da 623d
00000020: b322 993d 3f1d afbd 1a02 8e3d b7cc 913a
00000030: 3e89 69bd f84d f73d 2d50 44bd 9ef7 073d
00000040: 7e46 c63b cf40 d63d f51b 253d fecf ee3c
00000050: 69f0 c9bd 1e9f ae3d 865b 0c3e fafe d7bd
00000060: ecfc 6dbd 5593 a2bc 4747 c6bc 72bf 8e3d
00000070: 4260 2e3e f955 cb3c 0b51 593d 8b2b e53d
00000080: cc2a c7bd befc 283e 4fed 8c3d fc83 c3bd
00000090: a84d 45bd 8d3c eb3c eb7d 39ba 0bd2 f53d
000000a0: 7864 11bd a1d5 07bd 733c eebd 9a50 373e
000000b0: fe2d 6bbd 07e1 813c 757d 8abd 60c9 883d
000000c0: 87fa 9abd d7e2 ef3c 64a4 95bd e755 05bd
000000d0: 905b 3abd e9f5 fb3d 98d7 f03c 6b29 713d
000000e0: 0816 5fbc b709 50bd c580 253e 38bf c6bd
000000f0: 3554 783d 531c 083e 5deb 9f3d f486 093e
00000100: 39da 793d 4bd3 8c3d b529 663d 1f1f 243d
00000110: f1f8 ecbd 5d78 5b3c ceb1 a53d 0df9 0b3e
00000120: fabd ae3d 7282 343d dde9 443d 8bc3 e03d
00000130: f05b 62bd 7418 083e bbb0 de3d 47f1 15be
00000140: b6d8 7e3d 0282 debd 024b d4bc b2d3 f2bd
00000150: f9f6 83bd 6e58 cdbc 2168 0e3e fd20 193d
00000160: 3526 9ebd f1f0 de3d ab0a 2a3e 4132 4f3d
00000170: 2422 6ebd 5679 603d 78c6 033d 9ab9 a3bd
00000180: 56b4 573d e394 b63d 5116 b6bd 0381 f7bd
00000190: a907 6d3d f28a 87bd e089 303d b70a f33c
000001a0: 4c6a 2c3d c275 123d ec6f a63d aa4c 133e
000001b0: 6085 893d 7ef3 233e b577 923b 86f2 c1bd
000001c0: 6284 963d 5e24 f93c 881a 0b3e 830e 44bd
000001d0: dad7 cfbd 28a6 fe3c e04c d43d afda 193d
000001e0: 38f1 34bb 057d 663d 11d7 10be 98f1 4ebd
000001f0: 08f4 abbd 2188 0a3e 9e05 8b3d 2b30 d53c
00000200: 9796 603d 25a5 9dbd a691 a5bd f8a8 6ebd
00000210: 36f2 0abe 1b8c 12bb f0f0 033c 1397 c63c
00000220: 05f9 a8bd 672b 363d 4df8 aebd 1397 c43d
00000230: e265 9c3d eff0 043d d34e 5c3d f374 e33c
00000240: 669d 2eba 0579 30be 9df7 1ebe 0aad 5d3d
00000250: a51b 5fbd 2ad0 553d 751a 09bc 1186 983d
00000260: 4e8b 8fbd 287c 983d 0880 b23d b8b0 a53c
00000270: 1fdb c9bd 14d3 b53d 6803 db3c 0af9 653d
00000280: f884 123d 9ad8 30bd c7e5 323e 7beb 11bc
00000290: d6b9 2abd 9749 a4bd 1029 3c3c c93e ee3d
000002a0: 3c20 0a3d 1a03 193e 1f3f a5bd 7974 f63d
000002b0: 5e43 0b3e 5138 12be 77df ed3d 123d 9f3d
000002c0: 8e44 d6bd d8f3 09bd 3b8b 94bd d43a 793d
000002d0: a125 023e e508 2c3c fdd2 e0bd 28ac c4bd
000002e0: 7c12 963d 0e20 80bd 5e19 d6bd 5b97 1cbc
000002f0: 4649 99bd 147b 2e3d f251 e1bd b7a6 01be
00000300: 5636 8d3d 8ab5 093e 594b b33d 9d78 9bbd
00000310: 81b3 1e3d 579f 7a3d 6d2a 0dbd 2ddd d1bd
00000320: 0c08 ebbd e032 c53d 3587 c8bd ab60 90bd
00000330: cd1f 9d3d 68e1 87bd d591 17bc bc1b fdbc
00000340: 3bf7 f43d 6c5c dd3d b4d0 873d 8ab5 fdbd
00000350: c429 613d 2db3 6dbd 174c c53a 6b47 dabc
00000360: e9a1 2b3d 5d78 093e 7ddb 60bd f676 8cbd
00000370: 4d92 893d 895d 893d 5eca e53d 6333 643c
00000380: 6a2a a1bd 8720 bbba c132 0e3e 5a54 023d
00000390: b0b5 5f3a 80a0 e13c d703 02be 9330 6b3d
000003a0: 97be cb3d 700e 79bd 9cc1 bdbb cee8 3c3e
000003b0: 978f ea3b cfe1 933d 6087 673c fc60 1c3e
000003c0: 5424 5d3d 05da c13d 0c3b 8b3d aadb 26be
000003d0: 759a d33d 8d45 a03d a1ce 8dbd 45d3 883d
000003e0: 4fe7 d03b 38e2 f2bd c3fb a6bd 02eb 86bd
000003f0: 6ff4 f4bb 98fc 963d cfe1 2a3d 2ce2 25bc
-0.06757456 0.01946913 -0.0021815891 0.056998145 -0.08643935 0.19354661 0.15243807 0.055383716
0.074773215 -0.085505 0.069339946 0.0011123632 -0.05701565 0.12075418 -0.047928024 0.03319513
0.006050884 0.1046158 0.040309865 0.029151913 -0.09860308 0.08526443 0.13706788 -0.1054668
-0.058102533 -0.019845644 -0.02420391 0.06970109 0.17028907 0.024821268 0.053055804 0.11189946
-0.0972496 0.16502663 0.068812005 -0.095466584 -0.048169762 0.028715396 -0.0007075953 0.12002953
-0.035496205 -0.033162717 -0.116326235 0.17901841 -0.05741691 0.015854372 -0.0676221 0.06679034
-0.075673155 0.02928297 -0.07306746 -0.032552626 -0.045497477 0.12302763 0.029399678 0.05887739
-0.0136160925 -0.050790515 0.16162403 -0.09704441 0.06062718 0.13292055 0.07808564 0.13430387
0.06099913 0.068762384 0.05619212 0.040068742 -0.11570919 0.013395396 0.08090554 0.13669224
0.08532329 0.044069715 0.048074592 0.10974797 -0.05526346 0.13290578 0.108735524 -0.14642821
0.06221839 -0.10864641 -0.025914673 -0.11856784 -0.06443591 -0.02506658 0.1390691 0.037384976
-0.07722131 0.108858 0.16605632 0.050585035 -0.058138028 0.054803215 0.032171696 -0.07994385
0.052662216 0.08915117 -0.08890975 -0.12085154 0.057868633 -0.066182986 0.043100238 0.029668195
0.04209356 0.035756834 0.08126816 0.14384714 0.067148924 0.16010854 0.0044698366 -0.09470086
0.07349469 0.030412849 0.1358434 -0.047865402 -0.10148592 0.031085089 0.10366225 0.03756207
-0.0027609598 0.05627157 -0.14144541 -0.05052337 -0.08396155 0.13528492 0.06788181 0.026023945
0.054831114 -0.076975144 -0.08084421 -0.05826661 -0.13568959 -0.0022361341 0.008053049 0.02424196
-0.08250622 0.044474985 -0.08543453 0.095991276 0.0763662 0.032456335 0.05378611 0.027765727
-0.00066610274 -0.17233665 -0.15524144 0.0541201 -0.054469723 0.052200474 -0.008368124 0.07447446
-0.07008992 0.07445556 0.08715826 0.020225868 -0.09856247 0.088781506 0.026735023 0.056145705
0.03577134 -0.043175317 0.17470466 -0.008906241 -0.041681133 -0.08021849 0.011484399 0.11633069
0.033722147 0.1494259 -0.0806868 0.12033934 0.13599917 -0.14279296 0.11614888 0.0777532
-0.104622945 -0.033679813 -0.072531186 0.06084712 0.12709667 0.0105001675 -0.10977743 -0.09603149
0.07327744 -0.06256114 -0.10454057 -0.00955757 -0.07484679 0.042597845 -0.11001958 -0.12661253
0.068951294 0.13448158 0.08754606 -0.075913645 0.038745407 0.061187115 -0.03446429 -0.10247264
-0.11476144 0.09628844 -0.09791414 -0.07049688 0.07672081 -0.0663479 -0.009251078 -0.030897014
0.11961218 0.10808644 0.06631604 -0.123881415 0.05497147 -0.058032203 0.0015052584 -0.026645383
0.041902456 0.13424821 -0.05489682 -0.068586275 0.06717358 0.067072935 0.11220239 0.013928267
-0.07869418 -0.0014276662 0.13886549 0.031818725 0.00085338484 0.027542353 -0.12696777 0.05741937
0.099484615 -0.060804784 -0.0057909023 0.18448183 0.0071582305 0.07220804 0.014131397 0.15271372
0.053989723 0.09465412 0.06798372 -0.16294733 0.10332195 0.07825766 -0.06924177 0.066809215
0.0063752304 -0.11859554 -0.081534885 -0.06587793 -0.007475428 0.07372397 0.041719254 -0.010124724

lstm.bias_ih_l0 f4 [256]
00000000: d5f6 ce3d 364e 963d 9cd9 313e 3ac4 b33c
00000010: 3f39 45bd fbfc 373e bc6a 053d 867a 433b
00000020: a599 0d3d 1252 5e3d 365a b53d db5d 86bd
00000030: f6a0 003e 2475 fa3d 4c2e f0bc de58 8a3c
00000040: ba57 19bc 42e3 023e 7dfc 183d 5dc7 0f3d
00000050: 9d81 bd3d f81a 203e b615 023d 6daa 2e3e
00000060: 9016 8d3c c606 443b 0272 563d 9331 063e
00000070: 2469 443d 4922 fe3d e0b5 8c3d afec 263d
00000080: 867f e53d 093e 243e 6998 1f3e 9b0e b63d
00000090: 8b2e 963c dfaa 2bbb ede7 73bd f6eb ab3d
000000a0: 0bf9 583d e90d c53d 23db 373e 9d01 7bbd
000000b0: e963 bb3d 50af f43d acac d63d e9fa 673d
000000c0: 72e3 f53d d40d b8bc 825a 7a3c abb7 2bbd
000000d0: 6710 063e 2ed1 96bc a625 b13d c2d6 103e
000000e0: 6002 34bd 637c 1f3e cb02 bb3c 103c 6b3d
000000f0: 8521 253e da26 0bbb 9fc3 0cbd 9771 f63d
00000100: 966d 41bd 9767 e5bd 339c 483d e11f 94bb
00000110: a73f 353e 3b61 eb3d e826 e53d 0c81 c43c
00000120: e69b 913d f8ce 94bd 147b 033e cbc3 3bbd
00000130: cc3b 33bd b195 303e 95f7 8ebc 365c 103e
00000140: e358 083c b6bd 1a3e 872b 3dbd 1231 36bd
00000150: 54ab 653d 7c86 f83d c130 dfbd 834d 73bd
00000160: 60f4 2c3d 2607 5abc 10fc 493d 164e bcbd
00000170: dcdc 16bd aec3 023e fa80 1ebd 8e82 873d
00000180: f543 1a3e 9077 5f3d 4d18 c93b 1b5f c7bc
00000190: e998 43bc 4d48 9c3d 25c1 e6bd 6a96 953b
000001a0: df4e d53d 2ce0 cf3d 54f6 063c 2154 02bb
000001b0: 8194 803c 7ceb 013d 7dbd b4bc bf6b a73c
000001c0: d529 173e ed54 d83d 7b04 113d a7ee 613d
000001d0: 0abd 393c fe9d 99bd 3601 403d 3442 593d
000001e0: 32ec 1abd 25dc 99bd 3904 66bd 2178 f63d
000001f0: ebfe 22bd 4885 cbbc 4ee8 86bd d536 293e
00000200: 146a a33b cf67 6f3d 1fd9 253e 86e5 f83a
00000210: 5a09 4ebe 7ff4 4a3e b56a 943d 0501 71bd
00000220: 79a9 843d 0244 efbb c5af f4bd 6d3c b6bd
00000230: 5a11 23bd 44ac 8cbd f645 4f3e 1e37 613d
00000240: de6c 033d d597 2fbc 30d3 91bd a389 6ebc
00000250: 0cc3 19be fbc2 a5bc 3798 2f3e f90d f23d
00000260: bd9b dabc c998 fa3d 86b4 123e e36f 2bbd
00000270: 2e6f f1bd 9af1 2a3c 48b0 eb3c cff4 68bc
00000280: f89e 0cbe 2225 4c3e 1890 8f3d b4f2 023e
00000290: 081f af3c fd80 10bd 567e 9f3d 9ca4 6cbd
000002a0: 32de 743b d312 213d a0ce aabc c548 3d3e
000002b0: 3f15 25bd dd04 88bd cc28 b33c d248 1bbe
000002c0: a6a2 11bd a150 013e 3b98 c5bd cf7a 7abd
000002d0: c1c8 1d3e 9e8b 2d3e dc5a 1bbe bfc8 6ebd
000002e0: 88c8 00be 067d 41be 6a54 ac3c aa1e 203e
000002f0: 16da f13d f2f6 afbd 7497 09be 283b ccbd
00000300: 2c37 cd3b 43d0 b5bd 76f1 0dbd c938 97bd
00000310: f887 443e 3f2f d9bc 1d48 873d c615 f73d
00000320: 0b37 f93d f254 a53d 5c6b 553e 4944 193e
00000330: ca20 a43c 4c5c 2f3e 97bc 553d 95bb 163e
00000340: 4022 3c3d a49e 4c3d be91 b83d 2239 0c3a
00000350: ac01 d5bb e9a6 da3c de5e 853d 371e 113d
00000360: e03f 423d 7580 153e 11dc 64bd 489e 1d3e
00000370: ddce 083e bb91 543e 94a8 6a3d 9c4b 4abd
00000380: 7404 fa3d 5b5a 823c e019 003e 6a39 a93c
00000390: 50fd ea3d ed85 903c 8e97 dc3d 003a 103e
000003a0: 5a1d b63d 9103 663d 1c2f d93d a370 363e
000003b0: 7c0e 45bd cd4c 63bd 9c15 df3d 15db 3c3e
000003c0: 90e1 503d 9389 ec3c 7636 a53d bde1 343e
000003d0: 0fec bb3d 2a5b 3f3c ebae a63c a8e0 4a3c
000003e0: 3903 373e 9c18 373e e4ec 883d 42b8 cabc
000003f0: e5c0 f6bc 3c67 233e 01f3 ae3d f2f2 f13d
0.10105673 0.07339136 0.17368168 0.021944154 -0.048150297 0.17967598 0.032572493 0.0029827668
0.034570355 0.054277487 0.08855097 -0.0656087 0.12561402 0.12229374 -0.029318951 0.016888078
-0.009359295 0.12782004 0.037350167 0.035102237 0.092532374 0.15635288 0.031758986 0.170572
0.017222673 0.0029911264 0.05235482 0.13104849 0.047951832 0.12408883 0.068706274 0.040753063
0.11205964 0.1603929 0.15585484 0.088895045 0.01833274 -0.0026194376 -0.059547354 0.08394615
0.05297188 0.09621794 0.17954688 -0.061280835 0.09149916 0.11947501 0.10482153 0.05663577
0.120062724 -0.022467531 0.015280368 -0.041923206 0.13092194 -0.018410292 0.08649759 0.14144424
-0.043947577 0.15574794 0.02282848 0.057430327 0.16126068 -0.0021232874 -0.034366246 0.12033384
-0.04722365 -0.11201399 0.04897709 -0.004520402 0.17700063 0.114931546 0.111890614 0.023987316
0.071098134 -0.07266039 0.1283992 -0.04584102 -0.0437582 0.17244603 -0.01745204 0.14097676
0.0083219735 0.15111431 -0.04618409 -0.04448039 0.056071594 0.12135026 -0.10897971 -0.059400093
0.04222524 -0.013307368 0.04931265 -0.09194581 -0.03683172 0.12769958 -0.03869722 0.06616698
0.15064986 0.054557383 0.00613693 -0.024337342 -0.011938312 0.07630978 -0.11267308 0.00456505
0.10415434 0.10150179 0.00823744 -0.001988657 0.015695812 0.031718716 -0.022063011 0.02043712
0.14762051 0.10563073 0.035404664 0.055159237 0.011336574 -0.07500838 0.046876155 0.05304165
-0.03782291 -0.07512692 -0.05615637 0.120346315 -0.03979389 -0.024843827 -0.06587277 0.16524823
0.0049870107 0.05844861 0.16196106 0.0018989302 -0.20120755 0.1981983 0.07246915 -0.058838863
0.06477637 -0.0073018083 -0.11947588 -0.08898244 -0.03981147 -0.068687946 0.20241532 0.054984204
0.032086246 -0.010717352 -0.07120359 -0.014559182 -0.1501581 -0.020234575 0.17147909 0.11819071
-0.02668559 0.12236173 0.14326677 -0.04185475 -0.11788784 0.010433579 0.02877058 -0.014218523
-0.13732517 0.1993604 0.070099056 0.12787896 0.021377102 -0.035279263 0.077877685 -0.05777417
0.0037363884 0.039324593 -0.02085048 0.1848479 -0.040303465 -0.066415526 0.02187004 -0.15164497
-0.035555504 0.12628414 -0.09648176 -0.061152276 0.15408613 0.16947791 -0.15171379 -0.058296915
-0.12576497 -0.18895349 0.021036346 0.15636697 0.11809175 -0.08592023 -0.13436681 -0.09972221
0.0062626805 -0.088776134 -0.034654103 -0.07383878 0.19192493 -0.026511787 0.066055514 0.120647
0.12168702 0.08072843 0.20841736 0.14967455 0.020035166 0.17125052 0.052181806 0.14719994
0.0459311 0.04995598 0.09012173 0.00053490896 -0.0065004434 0.026690917 0.06512235 0.035429206
0.047424197 0.14599784 -0.055873934 0.15392411 0.13360162 0.20758717 0.057289675 -0.049388513
0.122078806 0.015912225 0.1250987 0.02065726 0.11474097 0.017641986 0.10771094 0.14084625
0.08892317 0.056155745 0.106046885 0.17816405 -0.048109517 -0.055493165 0.108927935 0.18442948
0.050996363 0.028874194 0.08067028 0.17664237 0.09175884 0.01167945 0.02034708 0.012382664
0.17872323 0.17880481 0.06685808 -0.024746064 -0.030121276 0.1595735 0.08542443 0.11813916

lstm.bias_hh_l0 f4 [256]
00000000: 8f85 32bd b5b8 dabc 5d43 263e 50b1 753c
00000010: e2f7 3bbd 5c82 ad3d 213b 183d 97e5 e13d
00000020: 4dec 5dbd 0c41 8e3d 7268 8e3d 87b8 333e
00000030: a172 0b3e f60c eb3d 13f0 b9bc 5859 e7bc
00000040: ece8 dd3d 292b aabd e453 3cbc 99ae 053d
00000050: d4fa 7dbd ec50 103e e8f6 a13d fd98 743d
00000060: 16c7 60bc 9645 003e 50a2 dc3d b045 513d
00000070: cdb1 4f3d f98b 353e c935 70bc d8d7 d9bd
00000080: bc0a 183e f287 e43c 3f67 763e 2f78 7b3d
00000090: aaf3 5abd 1246 92bc 7c76 c63c 2552 193b
000000a0: 6d30 583d 162c 9a3c 4db3 b13d 3a25 34bd
000000b0: 4ad4 0a3e 0fa3 e73d bb63 24bd 83ff 77bc
000000c0: 803b c43d 70e4 12bd 5637 323e aae5 5e3d
000000d0: 33c1 8e3d 73f3 753d 352d 0c3d b7d8 9d3d
000000e0: 8ce0 7dbd d4c3 c53d 7d86 af3c 763e 923d
000000f0: 69f6 37bd 4ea8 273e 62c6 ca3b a9de c93d
00000100: c267 543c a182 d23d cb15 a63d 5c9b 8abd
00000110: 96ef 1e3d 2949 8dbd 78a8 a63b fc36 b73d
00000120: 4014 753d c7d1 33bd b3b4 013e e0c6 8dbc
00000130: 5b95 f7bc bfa4 a73c d7de 34bd 1ecc 4ebc
00000140: 5580 38bd 43a6 073d 8572 d13d f526 253c
00000150: 06b6 1c3e f7e4 aabc 3f24 50bd 9784 70bc
00000160: 3d44 a3bd 53c8 153d 95ba 5c3d 8c05 7abd
00000170: ff24 6fbd 8947 6fbd e8de 063c 368c 4fbd
00000180: 9c15 1cbd 1c45 553c 7801 0b3e df84 923c
00000190: 5dd0 8d3d 2acc 153e 8051 ca3c bebf 3cbd
000001a0: 3c5d 14bd 2930 49bd 34ed 203e 7204 87bd
000001b0: c2af 32bc f0c2 e23b 5586 e43d 621f 843d
000001c0: d795 96bc f9d6 a43a be39 48bc 4378 f93d
000001d0: 4dee f13d 9778 043d b89b 0f3e 82fe 613d
000001e0: cdab 063e 39b2 ee3d e4ef ce3c 04a5 50bc
000001f0: f381 7b3d 7e96 73bd fef4 703d ede0 0c3e
00000200: 9d0e bdbc f698 623d ab8c 2bbc 5227 b8bd
00000210: a9f9 47be fb7a 383d 0038 08be e68a d83d
00000220: 1b9a e43d c0dd 5a3d 81c8 60be 9e0f c93d
00000230: 1034 183e ffe9 f2bd 7e27 b8bb 746f 79bd
00000240: 8a7e 193e cb44 d03d 14ec ccbd 5af2 38be
00000250: 2bdc 4bbe 9619 ca3d 8baa 383e c59f 893d
00000260: 1548 0ebe 768e 6cbc 7e1f 3a3e 14cf f73c
00000270: 0282 53bd f1f0 933c dfca 15bd a99e 273d
00000280: 58d9 01be 6bdd 273e f14e 1bbd 6794 c53d
00000290: 8c18 3e3c 56bd 323c 9981 99bd 255c 033e
000002a0: 7ed4 493d f1f7 5d3e 85eb 0d3e 2b66 cb3d
000002b0: 7e3e 383e 6304 f4bd a5b3 33be d76e 083c
000002c0: 23dc 2ebe 2c47 9abd ab0b d7bd 7ed7 043a
000002d0: 03e3 003e f1b1 e23d d35f 26be 40b2 3bbc
000002e0: 6fe2 8b3d c712 763c bd75 903d fc42 793d
000002f0: 6c47 233e f662 4abe 48ba 0dbe f9b8 13be
00000300: ddd1 3a3e 0843 023e 8263 213e dabf 41bd
00000310: 3311 39bb dc6f 4a3c 14fe 11bd 0eb7 733e
00000320: 12a5 c73d ef8a 2a3e 98dd 143e d722 afbd
00000330: f4fb 8e3d 3dad ecbc 879a 183e e2ff 16bd
00000340: 2537 f23d 66e5 82bd efbd 823d edf4 c4bc
00000350: 0e51 9b3d 48c2 9b3d 061c 023e 3c95 ce3d
00000360: 3289 a93d c560 273e 1855 853d f34e cb3d
00000370: 97f8 5ebc ac8a 11bd ec14 683d fa20 763c
00000380: eed3 933c f4b2 9d3d 51a9 843e 1e34 b83c
00000390: cc2b 523d 45c0 3b3e aa99 c6bd e2ba 773a
000003a0: 0e8c 7cbd f7ce 6b3c 660d ef3d 0242 a43d
000003b0: f3bf b53d 2353 b83d 8151 e0bc 5502 523e
000003c0: 2308 1d3d 8afe 60bd 8138 1e3e 0ca3 303e
000003d0: 49ed 573e 43dc bc3c 85ee 083e 7c70 57bd
000003e0: 8af8 463d b707 0d3e a39e 893c 7e8e d13a
000003f0: 9106 403e a036 e5b9 b878 c4bd 29ca 043e
-0.043584403 -0.026699403 0.16236635 0.014995888 -0.045890696 0.0847213 0.037165765 0.11030119
-0.054180432 0.069460005 0.06953515 0.1755086 0.13617946 0.114770815 -0.022697484 -0.028240845
0.10835442 -0.083090134 -0.01149461 0.032637212 -0.062006786 0.14093369 0.07908422 0.059716213
-0.013719341 0.12526545 0.10773146 0.05109185 0.050706673 0.17729177 -0.014661261 -0.10636872
0.14847845 0.027896855 0.24062823 0.061393913 -0.053455032 -0.017855678 0.02422642 0.002339491
0.052780557 0.01881985 0.08676777 -0.043980815 0.13557544 0.11310398 -0.040134173 -0.015136602
0.09581661 -0.035862386 0.17403921 0.054418243 0.069704436 0.060046624 0.0342228 0.07707351
-0.061981723 0.09656492 0.021426434 0.0714082 -0.04491273 0.16372797 0.0061882 0.09856922
0.012964191 0.10278822 0.081096254 -0.06767914 0.038802706 -0.0689872 0.005086001 0.08946034
0.059833765 -0.04390123 0.12666588 -0.017306745 -0.030222585 0.0204643 -0.04415783 -0.0126219075
-0.045044262 0.033117544 0.10226921 0.010080089 0.15303811 -0.020861132 -0.050815817 -0.014680049
-0.07972 0.036567997 0.053888876 -0.061040446 -0.05838489 -0.05841783 0.008231856 -0.050670825
-0.038106546 0.013016965 0.13574779 0.017885623 0.06924508 0.14628664 0.024697065 -0.046081297
-0.036221728 -0.049118195 0.15715486 -0.06592645 -0.010906162 0.006920211 0.11158434 0.06451298
-0.018381996 0.0012576274 -0.012220798 0.12181141 0.118130304 0.032341566 0.14024246 0.05517436
0.13151474 0.11655087 0.025260873 -0.012734655 0.061403226 -0.059469692 0.058827393 0.13757677
-0.023078257 0.055321656 -0.01047055 -0.08991875 -0.19528832 0.04503916 -0.13302612 0.10573368
0.11162206 0.053434134 -0.21951486 0.09817432 0.1486361 -0.118610375 -0.005619942 -0.060897306
0.14989677 0.10169371 -0.10005966 -0.180612 -0.19908206 0.098681614 0.18033807 0.06719927
-0.13894685 -0.014438262 0.18176076 0.03025011 -0.051637657 0.018059226 -0.036570426 0.040922794
-0.12680566 0.16393058 -0.03791708 0.09647446 0.011602532 0.010909399 -0.07495422 0.12828119
0.049274914 0.21676613 0.13859375 0.09931596 0.17992589 -0.11914899 -0.17548998 0.0083272075
-0.17076163 -0.07533106 -0.10500272 0.0005067511 0.12586598 0.11069096 -0.16247492 -0.011456072
0.06830298 0.015019125 0.07053707 0.060854897 0.15945214 -0.19764313 -0.13840592 -0.1442603
0.18244119 0.12720883 0.15760615 -0.047302105 -0.0028239011 0.012355771 -0.0356427 0.23800299
0.097482815 0.16654561 0.14537656 -0.08551567 0.0698165 -0.0288912 0.14902698 -0.036865123
0.11826924 -0.063914105 0.06383883 -0.024042571 0.07583819 0.076054156 0.12706003 0.10087058
0.08278121 0.16345508 0.06510371 0.09927168 -0.013609073 -0.03553264 0.056660578 0.015022511
0.018045392 0.07700148 0.25910428 0.022485789 0.0513113 0.18335064 -0.09697278 0.000945015
-0.061657004 0.014392606 0.116724774 0.080204025 0.08874502 0.09000232 -0.027382614 0.20508702
0.038337838 -0.054930247 0.15451242 0.17249697 0.21086611 0.023054248 0.13372238 -0.052597508
0.04857687 0.13772474 0.016799277 0.00159879 0.18752505 -0.00043718982 -0.09593338 0.12967743

fc1.weight f4 [32, 64]
00000000: 1241 86bc 705a c73d a67d 02bc cd7f 2ebe
00000010: fa8a 10be 5ba1 c43c bf1f 6abd 0120 f2bd
00000020: fd57 883d a3b9 29bd 05fe 63bd cdec 7dbd
00000030: f021 a13d 7d4d 73bd af84 e83c ec2b 263e
00000040: d717 0a3d 60ed e83d ced9 35be 86bc 12be
00000050: 0b87 09bd 2725 01be f874 833c 2013 c6bd
00000060: 247b 5bbe 7caf a53d a1d1 64bb fa30 843d
00000070: 6c80 7cbd 256d 9d3d 7d20 243d f4c6 05be
00000080: 805b 3ebe 554c 4d3e a361 ec3d 9fb4 313d
00000090: 6a16 013e 8f84 c9bd 3138 30be 8a04 9fbd
000000a0: 45cf c43d b215 5a3e f6eb 093c f0a6 973d
000000b0: 23b8 fd3d bd50 883d 906f 83bd f078 68be
000000c0: 931b d2bd f894 21bc 5acb b8bc 9fb3 19be
000000d0: a00f 7a3e d871 323e 55da 25be 5ff0 debd
000000e0: 1871 28bd 7ecc 3abe ab17 183e b6ef cb39
000000f0: c0a3 463d 8a1c 32be 06b6 e9bb 8ee7 17bd
00000100: 5596 b2bd 0247 04be 0445 883d d111 e1bd
00000110: f942 3a3d d1b7 893b fc3d 8ebd 04ba 983c
00000120: 533b 14bd defd be3d 8de4 173e 1348 9c3d
00000130: d0ca 9c3d 691d f13d 9d23 c4ba f0d2 babd
00000140: e1c4 403d 86d7 063d e286 a2bd fb48 9dbc
00000150: 81f2 ab3d 81b4 8ebd c501 8c3d 018b 753d
00000160: 0ae2 2ebd 348a a83c 9d54 e03d 7711 e1bd
00000170: 609d 9f3d f647 f4bd 5887 263d 1e98 5f3d
00000180: d91a 9bbd d0b1 3fbd a5c9 e63b a764 3b3b
00000190: f4fd bd3d 3da5 813d 5fb7 053d 1a1a 74bd
000001a0: 7e0f b1bd 4ad8 c1bd 5dfc bebb a068 9dbd
000001b0: 9249 9939 a0bd dd3d 958a ce3c a880 87bd
000001c0: 0f92 cdbd beea d93d 2345 c7bd 0299 e73d
000001d0: d3c4 97bc 6151 d33d c81d 38bd d565 b43d
000001e0: 9c11 1cbd 8274 043e 07b9 9cbd 2925 82bd
000001f0: c323 6f3d 9f31 04be 2498 103e da5e 8ebd
00000200: 56aa 10be 63e5 d4bd 9dc4 5cbd 38d6 0c3d
00000210: a539 32bd 1330 aebd a6d4 d13d a716 003e
00000220: aa52 bdbc d615 f0ba 3f4e 5f3d 186f e63c
00000230: 2cd1 133c 02d7 223e 3be4 74bd 7084 e6bd
00000240: 8830 083d 350e 92bd 2792 93bd 8f2f 3c3d
00000250: 071f 89bd 0ec3 21bd bf9e b4bd 61d5 633d
00000260: 6d5e 27bd 5685 adbd a219 683c 3a21 a53d
00000270: c287 123d 5e06 223d c9de 853d 1887 97bd
00000280: 8dd8 c6bd e2ad 333d c23b 0dbe 6f62 603d
00000290: 26c8 30bd 9c62 f93c adf7 d6bd db1d 3fbb
000002a0: 04df 6dbd cc2d 933d 846f 88bd 005a 5dbc
000002b0: 1ec1 413d 2c2a c1bc ce50 013e c88c 7ebd
000002c0: dbae a0bc bff5 bebd cfb5 f7bb 7a5e 203e
000002d0: ddfe c2bc 9019 c4bd cbdb 84bb 8d2d 553d
000002e0: a637 cb3d 83fc 463e 2881 65bd aa19 27bd
000002f0: 3fd0 693d 854e 56bd d0a8 2abd 3791 e63d
00000300: a088 0a3e 89e5 5cb8 93a2 033e 24e8 1bbd
00000310: 3a72 543d ff3b babc 6c83 923d 6719 4ebd
00000320: ae1d 0fbe 9bf7 17bd 0f9c c7b9 9aab 0dbe
00000330: c5be 91bc 51ca 55be df97 a63c 5de2 043e
00000340: 387f 793c de89 143e faa6 85bc f490 82bc
00000350: a003 2ebe a187 1abe a519 513e ae26 163d
00000360: 1af6 f0bd e218 d83d 6f22 1c3d 66f8 a7bd
00000370: 5c00 62bc 9728 debc 6649 cc3d c80b c9bc
00000380: c4a6 863c 6c83 393e 0d61 f83d 4c57 0c3c
00000390: c06a ddbd 92a0 dfbd 9302 97bd d058 0c3c
000003a0: d986 3bbd f711 c43d 4c55 973d 63f2 623d
000003b0: e3b4 263e 4f5e e5bd 0ae2 d23d eca0 47be
000003c0: f069 f5bd 38a1 e13d 5661 b13b 4952 1cbd
000003d0: 8a4e 25bc 61ab 463e 9fe9 51bc aeca 2b3d
000003e0: 9ebf 5bbe 0536 06be c178 21bd b27a 1d3d
000003f0: 6ac5 9a3d fcb5 06be 9879 21be a7bc 3dbe
-0.01638845 0.097340465 -0.007964527 -0.1704094 -0.14115515 0.024002722 -0.05715918 -0.118225105
0.066574074 -0.041436803 -0.055662174 -0.06199341 0.07867801 -0.05940007 0.028383581 0.16227692
0.03371414 0.11373401 -0.17758867 -0.14329728 -0.033576053 -0.12611829 0.016046986 -0.096716166
-0.21433693 0.080901116 -0.0034914988 0.06454654 -0.06164591 0.07686833 0.040070046 -0.13064176
-0.18589592 0.2004865 0.1154206 0.043385144 0.12606207 -0.09839737 -0.17208935 -0.07764538
0.09609846 0.21297339 0.008418074 0.07404888 0.12388637 0.066560246 -0.06417763 -0.22702384
-0.102591656 -0.009862177 -0.022557903 -0.15009926 0.24420023 0.1742624 -0.16196568 -0.10885691
-0.04112348 -0.1824207 0.14852779 0.00038897776 0.048496008 -0.173937 -0.0071322946 -0.037086062
-0.0872008 -0.12917712 0.06653789 -0.10989726 0.045474026 0.004202821 -0.06945416 0.018643387
-0.03618939 0.09325765 0.14833279 0.076309346 0.07655871 0.11773188 -0.0014964227 -0.091222644
0.04706276 0.032920383 -0.07935883 -0.019199839 0.08395863 -0.06968022 0.06836275 0.059947018
-0.042696036 0.020573713 0.10953639 -0.10989659 0.07793689 -0.11927788 0.040656418 0.05458843
-0.0757348 -0.046800435 0.007043081 0.002859393 0.09276953 0.06330345 0.03264558 -0.059595205
-0.08645533 -0.09465082 -0.005828424 -0.07685971 0.00029237248 0.10827184 0.025212565 -0.06616336
-0.10037624 0.10640477 -0.09729984 0.11308481 -0.01852647 0.10318256 -0.044950277 0.088084854
-0.03810273 0.12935069 -0.07652479 -0.06354744 0.058383714 -0.12909554 0.14120537 -0.06951685
-0.14127478 -0.103953145 -0.053898443 0.034383982 -0.043512005 -0.08505263 0.102456376 0.12508641
-0.023110706 -0.0018317054 0.05451798 0.028129146 0.009022038 0.15902331 -0.05978797 -0.11255729
0.033249408 -0.07131616 -0.07205611 0.045943793 -0.06695371 -0.03949266 -0.08819341 0.055623416
-0.040861536 -0.084726974 0.014166268 0.08062978 0.035774 0.039556853 0.065366335 -0.07398814
-0.097092725 0.043867 -0.13792327 0.054781374 -0.043159626 0.030442528 -0.10496459 -0.0029162082
-0.058074012 0.071864694 -0.06661895 -0.013510227 0.04730331 -0.02357968 0.12628481 -0.06214598
-0.019614628 -0.09324216 -0.007559515 0.1566104 -0.023803169 -0.09575188 -0.0040545217 0.052045394
0.099227235 0.19432263 -0.056031376 -0.04079596 0.057083365 -0.052320976 -0.0416649 0.11258166
0.13528681 -5.266586e-05 0.12854986 -0.038063183 0.051866747 -0.022733686 0.07153973 -0.050317194
-0.13976166 -0.03710137 -0.0003807251 -0.13834992 -0.017791161 -0.20877959 0.02033609 0.12976976
0.015228085 0.14505717 -0.016314972 -0.01593826 -0.1699357 -0.15090801 0.20419939 0.03665798
-0.1176569 0.10551621 0.038118776 -0.08201675 -0.013794031 -0.027118964 0.09974937 -0.02454175
0.016436942 0.1811654 0.12127886 0.008565735 -0.108113766 -0.10919298 -0.07373538 0.008566096
-0.045782898 0.09573739 0.07389316 0.05540694 0.1627994 -0.111996286 0.1029702 -0.1949498
-0.119830966 0.11017078 0.0054132147 -0.03816441 -0.010089526 0.19401313 -0.012812047 0.041941337
-0.21459815 -0.13106544 -0.0394218 0.03844709 0.07557185 -0.13155359 -0.1576904 -0.18528996

fc1.bias f4 [32]
00000000: f975 04bc 4619 9dbd 5d5f b53d 57b1 383e
00000010: f769 f8bd 352b 223e ae4b 3f3e d8eb c4bd
00000020: 2e3f ba3d f445 2e3e 28d4 3b3c 81ec bc3c
00000030: d7af 493d 7052 423d 148b 3c3c d8d8 4d3c
00000040: 3a8a 753d 45fb 413e ac92 22bd 765e 2a3e
00000050: 4a23 06be 8ae4 3a3e eb75 023e 4cda 55bd
00000060: a44c 493c 098c 263e 3838 1dbd 9536 18bd
00000070: f84f b33d 9847 953d df06 cd3d 9b90 053e
-0.0080847675 -0.07670836 0.0885608 0.180364 -0.12129586 0.15836795 0.18681213 -0.09615296
0.09094082 0.17018872 0.011464156 0.023061993 0.04923996 0.0474419 0.011507768 0.012563907
0.059946276 0.18943508 -0.03969066 0.16637596 -0.13099399 0.18251243 0.12740295 -0.052210137
0.012286339 0.16264357 -0.038383693 -0.03716143 0.08755487 0.07289046 0.10011076 0.13043444

fc2.weight f4 [1, 32]
00000000: 73b9 a7be 6a4b cb3d 6633 493d 939d 1fbe
00000010: 6612 893d 0960 7dbe f081 abbe d7f8 c63d
00000020: 2800 22be 1511 6abe b25a 41be 81e7 9c3e
00000030: 2029 ff3d ef83 453e 7a97 09be bcc5 7fbe
00000040: 5e49 473e c255 5ebe 11cc 9a3e 90b0 55be
00000050: 3a98 97bd 0d6c 1dbe ffb2 10be 3682 5abe
00000060: f38b 18be 2cbe 7abe 0b3e 603d 87a1 743e
00000070: 38f0 f83d 8e5e 2dbe e9f4 64be f8e7 903e
-0.32758674 0.099264935 0.049121283 -0.15587454 0.06692962 -0.24743666 -0.33497572 0.09715431
-0.15820372 -0.22858079 -0.18882254 0.30645373 0.12459016 0.1928861 -0.1343669 -0.24977773
0.19461581 -0.21712402 0.30233815 -0.20868134 -0.07402082 -0.1537325 -0.14130782 -0.21338734
-0.14897136 -0.24486607 0.05474667 0.23889743 0.12155193 -0.16930601 -0.22359051 0.28301978
