checkpoint_0.pth (torch, 451988 bytes, 8 tensors)

embedding.weight f4 [674, 100]
-0.44984356 -0.5995905 -0.059863374 1.0606604 0.24202415 2.07298 0.7377726 1.2558233
0.34615162 0.022050736 -0.012982657 -1.6659 1.0510798 -0.8905046 0.20237008 0.29826534
0.09509183 -0.7767584 2.1116524 -0.13708472 0.7752213 0.60636365 0.61300683 -0.6645034
0.50853544 -0.7586552 0.92841476 -0.40366173 0.120502725 -1.5423203 0.12921025 0.45325315
0.4544194 -0.86647254 -0.014538654 -1.9459597 0.34058142 1.1198152 0.21680304 0.8557359
-0.03500074 -0.76891416 -0.807354 -1.02432 0.10677799 -0.040298782 2.656 -1.5074091
-0.114297815 -0.8738324 1.0785804 -0.3414283 -0.4213102 1.3166351 -0.032198302 2.3826983
-0.038018167 -0.27136716 -0.4327344 -1.8992391 -0.17344373 -0.06379727 -0.030279886 -0.65640175
0.11104892 -0.0728911 1.0308851 0.3829272 1.2765894 -0.767247 -0.2138914 0.84537166
-1.3661838 1.284341 -0.33425555 0.66640717 -0.14507982 -0.41981006 0.5318085 -1.2791272
-1.0410883 0.74976796 -0.22549969 1.0531275 0.7912513 1.3046782 -0.9532951 -0.3666635
0.5231489 0.353517 1.7008884 -2.0708334 -0.75971895 0.5595003 0.48373935 -1.0198531
-0.02343602 0.11972801 0.84961146 0.6105948 1.4415478 0.4097348 0.31077975 0.3378713
0.017524194 1.030807 -1.1242219 1.2474719 -0.14385091 1.1251335 -0.5014938 -0.31366357
-1.3615828 0.27636608 0.35082972 -0.16083567 -0.93875456 -0.375641 0.56514704 0.8200883
1.27042 -0.015029413 0.23106427 0.31018233 0.3485885 -0.3776456 -0.44156632 0.8369373
-0.28853494 0.75323284 0.593026 -0.14399895 -0.3035055 0.8593442 -0.6310626 0.16735832
-0.31083846 -0.5726091 -0.68800956 -0.93306774 0.99123263 0.5536388 0.64096504 1.1749407
-0.37205487 -1.0110233 -0.3834032 1.7123348 -0.69621706 2.2667468 -1.3723232 -0.539741
-1.1724056 0.3331124 -1.340947 0.5431899 0.35684678 0.9940826 0.8494657 -1.8337219
-0.5762216 -1.1507732 -2.8399148 -0.70816404 -1.9276412 -1.232576 0.7143824 -0.59501946
-0.12094301 0.69896704 0.31206214 0.45155916 0.59818643 0.85454106 -0.6452582 -0.8730855
-1.0943149 -0.38506708 -0.36149284 0.4257092 0.62332875 -0.45241538 -0.8222447 -0.8248568
-0.46227524 -1.1746554 -0.86142695 1.0550472 2.080276 -0.34033942 0.31607288 -1.8687466
1.578844 -0.6885709 -0.19963908 -2.6544538 -0.50006175 0.17702927 0.033034384 0.3522681
1.1054839 -0.7550855 -0.92296666 0.6822596 -1.7558367 2.0091786 0.37390536 -0.41298074
0.18853343 -2.1378958 -1.1479552 -0.2059522 0.72624564 1.6271875 -1.5760682 0.8658678
-2.342651 0.74534345 0.5963082 -0.07077898 0.23497276 -0.7423661 1.3326342 -0.1321294
-0.48690632 0.50997984 0.875543 0.23931551 0.8986671 0.6329654 0.8611117 -0.16315995
0.3423734 1.7128209 1.1070812 -0.17884023 0.3949329 0.74373096 0.3691148 -0.3033627
-0.6461034 -1.0879587 -1.2076147 0.58661467 1.2419697 -0.14677043 -0.36228997 1.9078082
-1.2249844 0.6237965 0.16560955 0.41927367 -1.5721062 0.637284 0.70918703 2.212338
00000000: e551 e6be c37e 19bf 4c33 75bd b8c3 873f
00000010: 2ed5 773e b4ab 0440 aade 3c3f d1be a03f
00000020: c93a b13e bfa3 b43c 36b5 54bc 363c d5bf
00000030: c889 863f 1cf8 63bf 1a3a 4f3e 3cb6 983e
00000040: 81bf c23d a3d9 46bf 5025 0740 f05f 0cbe
00000050: e774 463f a63a 1b3f 04ee 1c3f e51c 2abf
00000060: 612f 023f 3a37 42bf 97ac 6d3f c0ac cebe
00000070: 22ca f63d c06a c5bf b14f 043e cc10 e83e
00000080: a9a9 e83e 25d1 5dbf 8933 6ebc 3515 f9bf
00000090: b060 ae3e 1b56 8f3f 9e01 5e3e 8211 5b3f
000000a0: f05c 0fbd 8fd7 44bf c0ae 4ebf eb1c 83bf
000000b0: 6bae da3d 5610 25bd e7fb 2940 c8f2 c0bf
000000c0: f914 eabd 7bb3 5fbf ec0e 8a3f b1cf aebe
000000d0: f8b5 d7be 8087 a83f 5ee2 03bd 217e 1840
000000e0: f0b8 1bbd a3f0 8abe 5d8f ddbe 441a f3bf
000000f0: 3c9b 31be 25a8 82bd 860d f8bc f209 28bf
00000100: 9e6d e33d ee47 95bd 0bf4 833f 090f c43e
00000110: 4867 a33f 4d6a 44bf 5906 5bbe 476a 583f
00000120: 1cdf aebf 4965 a43f 8b23 abbe a999 2a3f
00000130: ce8f 14be 58f1 d6be 9a24 083f 71ba a3bf
00000140: 6242 85bf cbf0 3f3f 64e9 66be e2cc 863f
00000150: 728f 4a3f b2ff a63f 260b 74bf 51bb bbbe
00000160: 16ed 053f 2e00 b53e b6b6 d93f 8988 04c0
00000170: f17c 42bf 693b 0f3f afac f73e 8c8a 82bf
00000180: e5fc bfbc f533 f53d 2380 593f f14f 1c3f
00000190: a384 b83f c2c8 d13e 861e 9f3e 78fd ac3e
000001a0: e68e 8f3c 7cf1 833f 81e6 8fbf 29ad 9f3f
000001b0: a74d 13be 6004 903f e661 00bf 8398 a0be
000001c0: 5848 aebf db7f 8d3e f49f b33e 1bb2 24be
000001d0: 3852 70bf 0454 c0be 7aad 103f 4ff1 513f
000001e0: 1f9d a23f ed3d 76bc 1d9c 6c3e 38d0 9e3e
000001f0: 317a b23e c45a c1be fb14 e2be 8641 563f
00000200: daba 93be ded3 403f 8dd0 173f 7674 13be
00000210: 1365 9bbe fbfd 5b3f 528d 21bf fb5f 2b3e
00000220: 3826 9fbe 8396 12bf 6521 30bf 87dd 6ebf
00000230: 6cc1 7d3f 46bb 0d3f 4916 243f 7564 963f
00000240: fa7d bebe 3669 81bf 6d4d c4be c92d db3f
00000250: 483b 32bf 6112 1140 49a8 afbf 772c 0abf
00000260: 6311 96bf b58d aa3e 27a4 abbf 7e0e 0b3f
00000270: 9fb4 b63e 337c 7e3f 9676 593f 66b7 eabf
00000280: 4283 13bf 894c 93bf 2ac1 35c0 3d4a 35bf
00000290: f2bc f6bf 0dc5 9dbf c4e1 363f 3253 18bf
000002a0: f8b0 f7bd 81ef 323f 9cc6 9f3e c332 e73e
000002b0: bf22 193f 34c3 5a3f a42f 25bf 8882 5fbf
000002c0: 8312 8cbf 8327 c5be 9715 b9be 8ef6 d93e
000002d0: 7992 1f3f fda2 e7be a17e 52bf d129 53bf
000002e0: 57af ecbe 1c5b 96bf 7a86 5cbf c90b 873f
000002f0: 3e23 0540 f840 aebe 4ed4 a13e 1733 efbf
00000300: 8f17 ca3f 2f46 30bf 306e 4cbe 92e2 29c0
00000310: 0c04 00bf 2947 353e 104f 073d 7c5c b43e
00000320: 7f80 8d3f 494d 41bf 8b47 6cbf 91a8 2e3f
00000330: 42bf e0bf 6296 0040 8670 bf3e 3672 d3be
00000340: e80e 413e 49d3 08c0 32f0 92bf 22e5 52be
00000350: 3ceb 393f ae47 d03f 9abc c9bf 83a9 5d3f
00000360: feed 15c0 d4ce 3e3f a7a7 183f 92f4 90bd
00000370: b39c 703e b40b 3ebf c293 aa3f ee4c 07be
00000380: c94b f9be 0a8e 023f 9623 603f 200f 753e
00000390: 0c0f 663f 050a 223f d171 5c3f 6713 27be
000003a0: 914b af3e b73d db3f d6b4 8d3f e521 37be
000003b0: a534 ca3e 2765 3e3f 9dfc bc3e 5b52 9bbe
000003c0: 0867 25bf 3b42 8bbf 1e93 9abf 612c 163f
000003d0: ddf8 9e3f fd4a 16be 127e b9be 0f33 f43f
000003e0: 4acc 9cbf 21b1 1f3f 8d95 293e 0aab d63e
000003f0: c73a c9bf 0b25 233f 488d 353f f296 0d40

lstm.weight_ih_l0 f4 [256, 100]
0.05399238 -0.017575344 -0.09249913 0.12298714 -0.033069916 0.022525597 0.05878417 0.12195578
0.007943906 0.07127158 0.09147586 -0.1043454 -0.06105138 -0.10496086 0.038817156 -0.043160904
-0.006960676 -0.023115352 -0.019505622 -0.087358095 0.033189695 -0.11381093 -0.034637075 0.019082868
-0.028607465 0.06445714 -0.055720743 0.035305314 0.11275188 -0.09359324 -0.01516319 -0.017097317
0.067382865 0.11682555 -0.02762739 0.04839887 -0.021511475 0.041001808 -0.019932436 0.0074091507
0.036132045 0.005083977 0.040438153 -0.08051257 0.051463533 -0.11870961 -0.11865371 0.07039733
0.100413926 -0.07254425 -0.028032098 -0.12058106 -0.017145276 -0.09351538 -0.107275955 -0.10040891
0.00027118844 -0.03517289 0.056039505 0.03421602 0.032141585 0.08308495 -0.11918865 0.008170665
-0.033036176 -0.059627164 -0.005413609 0.11349156 0.104176804 0.11933164 -0.11634125 -0.116422854
0.07098242 0.11738304 -0.027630769 0.082966946 0.07319771 0.078451745 0.12093938 0.026446773
0.10131271 -0.023732202 0.10876941 0.1000563 -0.032560423 -0.05043592 0.06883683 0.020000286
0.09813752 0.075728245 0.05655887 0.06715047 -0.0070182653 0.0100466525 -0.0044652764 -0.0479213
0.020279223 -0.069327295 -0.08886352 -0.047154848 -0.007854756 0.10639787 0.019007819 0.016930114
-0.10288198 -0.029070226 0.024096668 -0.025533538 -0.10662141 0.08014624 -0.07973341 0.11006812
0.008177362 0.08740252 0.1166846 0.10980238 0.02323773 0.07668646 -0.07847006 -0.110862926
-0.07181744 0.016196812 -0.06929882 0.002179021 -0.022093264 0.067464866 -0.058240578 0.0427837
-0.1063133 0.047827043 0.0016484482 -0.016116615 0.059908845 0.025495559 0.031402357 0.043807056
0.027386965 0.02865337 0.053827755 0.07493012 0.102906205 0.07677286 0.0120212585 0.09908777
0.08961414 0.11945433 0.09005971 0.066784166 -0.00434886 0.114821225 -0.06797535 0.07318368
0.028705116 -0.10887828 0.09828668 -0.060214996 -0.050025083 0.00682119 0.08196939 -0.10964505
-0.024006642 -0.040021285 0.03175885 0.07251897 -0.04969806 -0.05910762 0.11033504 0.027113829
-0.04125489 -0.016655486 -0.10404239 0.061015744 -0.120549224 -0.006428401 0.10207713 -0.004474719
0.007447685 -0.05954736 0.095241 0.103197895 -0.11949557 0.052454185 -0.103226244 0.032230023
0.09234806 -0.081258975 -0.044212546 -0.10499019 0.0099776555 -0.060094748 -0.047527574 0.12424913
0.107527025 -0.12334731 0.01563416 -0.09730957 -0.098661184 0.078538224 0.073587745 -0.035542708
-0.031211315 0.019853255 -0.07481568 -0.041005332 0.024044942 0.0017247463 0.07190703 -0.026336633
-0.011205471 0.08390302 -0.06065322 0.06471446 0.111016035 0.08935932 0.048683986 -0.041363962
0.06456945 -0.02503424 -0.091610655 0.10722701 -0.11531127 0.11628116 0.11730545 0.068797596
-0.048814956 0.07501938 -0.063101485 -0.11245457 -0.004222571 0.034043252 -0.0040349057 -0.027470114
-0.011207744 -0.058101192 -0.021134889 0.06994703 -0.05242828 -0.121182576 0.015354682 0.099999934
0.087043546 -0.09104218 -0.10849106 -0.011832293 0.023133175 -0.12475406 -0.019866504 0.0424281
0.015447467 0.005927904 0.059160765 -0.044417728 -0.104213454 -0.077847496 0.09982518 0.06830545
00000000: 1d27 5d3d 2bfa 8fbc 2f70 bdbd afe0 fb3d
00000010: 5274 07bd 9a87 b83c abc7 703d f4c3 f93d
00000020: 2827 023c d6f6 913d b257 bb3d 0bb3 d5bd
00000030: 0311 7abd b8f5 d6bd bdfe 1e3d 7dc9 30bd
00000040: 6216 e4bb 685c bdbc 41ca 9fbc cde8 b2bd
00000050: ebf1 073d b415 e9bd 9bdf 0dbd ad53 9c3c
00000060: 345a eabc 1b02 843d 6f3b 64bd 4e9c 103d
00000070: 75ea e63d d0ad bfbd 076f 78bc ac0f 8cbc
00000080: 0700 8a3d 3c42 ef3d d652 e2bc e53d 463d
00000090: d538 b0bc 83f1 273d 5949 a3bc 76c8 f23b
000000a0: 32ff 133d 7d97 a63b 7aa2 253d c6e3 a4bd
000000b0: 6dcb 523d 061e f3bd b700 f3bd 7a2c 903d
000000c0: d1a5 cd3d 1492 94bd 92a3 e5bc 34f3 f6bd
000000d0: 4074 8cbc fe84 bfbd 7fb3 dbbd 30a3 cdbd
000000e0: 4c2e 8e39 7311 10bd ae89 653d 1926 0c3d
000000f0: e5a6 033d 7128 aa3d 2e19 f4bd 41de 053c
00000100: f150 07bd 9d3b 74bd a564 b1bb 436e e83d
00000110: a65a d53d 2664 f43d 5244 eebd 1b6f eebd
00000120: 3b5f 913d 8566 f03d ec59 e2bc 93ea a93d
00000130: aee8 953d 4fab a03d 11af f73d e7a6 d83c
00000140: 0a7d cf3d 096a c2bc 7fc2 de3d 51ea cc3d
00000150: 145e 05bd e595 4ebd 53fa 8c3d a4d7 a33c
00000160: 53fc c83d 6917 9b3d 46aa 673d 3086 893d
00000170: 7af9 e5bb b79a 243c 7451 92bb 2049 44bd
00000180: 9d20 a63c 78fb 8dbd 14fe b5bd 7125 41bd
00000190: 3cb1 00bc 20e7 d93d 49b6 9b3c 06b1 8a3c
000001a0: cab3 d2bd af24 eebc 6066 c53c b62b d1bc
000001b0: 535c dabd b623 a43d 454b a3bd 656b e13d
000001c0: 58fa 053c 1800 b33d 56f8 ee3d 12e0 e03d
000001d0: 0d5d be3c ca0d 9d3d e9b4 a0bd 1a0c e3bd
000001e0: 0615 93bd 2daf 843c 8aec 8dbd e8cd 0e3b
000001f0: effc b4bc 052b 8a3d ac8d 6ebd f63d 2f3d
00000200: caba d9bd 4ae6 433d be10 d83a fe06 84bc
00000210: fa62 753d 10dc d03c c29f 003d 076f 333d
00000220: a15a e03c 79ba ea3c 7e7a 5c3d f674 993d
00000230: 7dc0 d23d 173b 9d3d d0f4 443c 87ee ca3d
00000240: 9e87 b73d 79a4 f43d 3a71 b83d 23c6 883d
00000250: e280 8ebb 6427 eb3d a936 8bbd 53e1 953d
00000260: fe26 eb3c 93fb debd 874a c93d 00a4 76bd
00000270: 1ae7 4cbd 4a84 df3b 91df a73d 958d e0bd
00000280: 94a9 c4bc 5ced 23bd 9115 023d d384 943d
00000290: 3190 4bbd d51a 72bd 56f7 e13d d21d de3c
000002a0: e3fa 28bd 1671 88bc 2d14 d5bd a5eb 793d
000002b0: 83e2 f6bd 56a5 d2bb d00d d13d aaa0 92bb
000002c0: b60b f43b efe7 73bd b70d c33d 6b59 d33d
000002d0: 18ba f4bd 33da 563d 4868 d3bd a103 043d
000002e0: fb20 bd3d 1b6b a6bd 3718 35bd 1905 d7bd
000002f0: 5279 233c e925 76bd 46ac 42bd 5476 fe3d
00000300: 2137 dc3d 849d fcbd 3613 803c 3d4a c7bd
00000310: e00e cabd a6d8 a03d 2cb5 963d 3b95 11bd
00000320: dfae ffbc 4ba3 a23c f738 99bd 35f5 27bd
00000330: e6f9 c43c e210 e23a fe43 933d ecbf d7bc
00000340: 2797 37bc 59d5 ab3d 836f 78bd 0489 843d
00000350: 605c e33d 0502 b73d dc68 473d 426d 29bd
00000360: fd3c 843d 9b14 cdbc 5e9e bbbd d699 db3d
00000370: 5128 ecbd d124 ee3d d73d f03d c1e5 8c3d
00000380: 31f2 47bd c3a3 993d 5a3b 81bd 954e e6bd
00000390: 7e5d 8abb f070 0b3d 3e37 84bb 0109 e1bc
000003a0: afa0 37bc 84fb 6dbd 1323 adbc 6340 8f3d
000003b0: 09bf 56bd 922e f8bd 3492 7b3c c4cc cc3d
000003c0: e343 b23d 5374 babd 9030 debd 3cdc 41bc
000003d0: c981 bd3c 0e7f ffbd 14bf a2bc 16c9 2d3d
000003e0: 5f17 7d3c dd3e c23b 8f52 723d 5def 35bd
000003f0: dd6d d5bd 826e 9fbd 2571 cc3d bae3 8b3d

lstm.weight_hh_l0 f4 [256, 64]
-0.1049006 0.11876551 0.039766423 0.11451866 -0.012406813 0.024950601 0.073716305 -0.081114225
-0.11015279 0.062722795 0.02923977 -0.0425884 -0.095073506 -0.11382378 -0.024115555 0.114977464
-0.072853856 -0.10125853 -0.02728097 -0.047640502 -0.013284254 0.11495424 0.0028745194 -0.117939994
0.09760239 0.046470024 0.054162085 0.12250865 -0.10531338 0.09407528 0.056760643 -0.026771603
0.086757235 -0.06728922 -0.017744279 0.0017126112 -0.06136198 -0.00993512 -0.054973926 -0.008013946
-0.097080216 0.08794463 -0.029530402 -0.104044616 0.039457668 0.04406325 -0.015591804 -0.0705768
0.05712103 0.031396307 3.5591656e-05 0.11060257 -0.10153774 -0.04948234 -0.08380379 -0.10833542
0.061275944 -0.030167624 0.04808265 -0.08382815 -0.01432223 0.029586578 -0.057435777 -0.085312
-0.10298442 -0.010830827 -0.009084129 0.051261533 -0.08910572 0.012519975 -0.10003909 -0.03951958
0.069359526 0.005536115 0.09681709 0.016971035 -0.08836132 -0.0012287111 -0.094165616 0.059973348
-0.02786738 0.084265105 -0.06804562 0.0022591376 -0.08587787 -0.08015604 -0.009194837 0.021815658
0.08952172 0.07884744 3.993511e-06 0.031455424 0.098882236 -0.101009 0.028842721 0.054191325
-0.08136155 0.06758383 0.0082005365 -0.0055753556 0.08989343 -0.025947684 0.102240264 -0.11828562
0.009241277 -0.07278854 0.0930896 -0.053761505 -0.028253065 -0.08072856 -0.081019625 0.018889697
-0.037052404 -0.12177568 -0.09170377 0.02454191 0.10128185 0.047359005 0.11840358 -0.11371493
-0.113049105 -0.07154841 -0.000816458 -0.09505459 0.0697709 0.017404921 0.04438402 -0.08857338
0.048529226 -0.12010143 -0.0017084691 -0.02906025 0.028500365 0.12004538 0.091664635 0.109015286
0.056560792 0.10234697 0.03732928 0.047430675 0.024422877 0.023831256 -0.07847185 -0.06589329
0.06662334 0.10478111 0.0499096 -0.010167744 0.12055357 -0.06201736 -0.05935209 0.02390725
-0.06807552 0.055678837 0.11576724 0.024458796 0.035679694 0.118597604 0.11053087 -0.048721723
0.052079752 -0.011246455 -0.035637222 -0.061821863 0.113936245 0.029225277 -0.051572703 0.0064248005
0.011912268 0.0447365 -0.09043888 0.076121666 0.02793742 -0.048378125 0.10013778 0.008598303
-0.117291175 0.039260473 -0.075288035 -0.11966185 0.007597721 -0.088239856 0.11362231 0.1141385
-0.10964732 0.0982843 -0.07720276 -0.093347766 0.073468305 0.0074442266 0.09355497 -0.10953663
0.057083342 -0.057135697 0.06612507 -0.116971076 0.003983689 -0.044545937 -0.062378056 0.08798501
0.04557687 0.075792134 -0.10997366 -0.05203246 0.101333976 -0.11222412 0.075261235 0.0063300543
0.05503355 0.09218706 -0.02557366 -0.070517905 -0.12395894 0.10217405 -0.11694388 -0.02916227
0.104965955 0.0701531 -0.076579385 0.046919137 0.065449074 0.04857022 -0.037878916 0.009393793
0.057098843 0.013563819 -0.06713646 0.09571726 0.10276939 0.08745293 -0.10246442 -0.034582086
-0.03888267 0.004155691 -0.039257187 -0.059187412 0.12349293 0.04617417 0.021857297 -0.08522433
0.027184252 -0.05436764 -0.03826677 0.06713309 -0.005145605 0.09999998 -0.061262704 -0.101722695
0.10139105 0.07835597 -0.088622466 0.0175503 -0.061948545 -0.101215445 -0.01928713 -0.074237145
00000000: 20d6 d6bd 553b f33d 1ee2 223d c288 ea3d
00000010: f245 4bbc 3465 cc3c 93f8 963d 371f a6bd
00000020: c997 e1bd cf74 803d 3e88 ef3c 2d71 2ebd
00000030: e6b5 c2bd 711c e9bd fc8d c5bc 4e79 eb3d
00000040: 6734 95bd a260 cfbd 577c dfbc b022 43bd
00000050: 33a6 59bc 216d eb3d 6f62 3c3b 868a f1bd
00000060: c3e3 c73d 5a57 3e3d 10d9 5d3d d1e5 fa3d
00000070: 8bae d7bd 8aaa c03d d97d 683d 1f50 dbbc
00000080: c7ad b13d eece 89bd 735c 91bc b279 e03a
00000090: b356 7bbd eac6 22bc 572c 61bd ed4c 03bc
000000a0: fed1 c6bd 501c b43d bee9 f1bc 5815 d5bd
000000b0: 5d9e 213d ab7b 343d c474 7fbc 928a 90bd
000000c0: bef7 693d 6a99 003d 4048 1538 9a83 e23d
000000d0: 05f3 cfbd ffad 4abd 52a1 abbd f6de ddbd
000000e0: 7cfc 7a3d 1822 f7bc 50f2 443d 18ae abbd
000000f0: c9a7 6abc 8d5f f23c c741 6bbd 0fb8 aebd
00000100: 7fe9 d2bd c873 31bc 99d5 14bc 9df7 513d
00000110: 0f7d b6bd 9520 4d3c 4be1 ccbd 48df 21bd
00000120: 5e0c 8e3d 4c68 b53b 0a48 c63d d706 8b3c
00000130: c8f6 b4bd b40c a1ba e7d9 c0bd 9da6 753d
00000140: 224a e4bc 2f93 ac3d 815b 8bbd 0a0e 143b
00000150: bde0 afbd da28 a4bd f1a5 16bc c0b6 b23c
00000160: 2a57 b73d c47a a13d 0000 8636 67d7 003d
00000170: c582 ca3d cedd cebd 9247 ec3c b9f7 5d3d
00000180: e2a0 a6bd 6469 8a3d 8b5b 063c 79b1 b6bb
00000190: 0c1a b83d 3d90 d4bc 5863 d13d bb3f f2bd
000001a0: ba68 173c 2812 95bd c3a5 be3d 0635 5cbd
000001b0: f972 e7bc 0455 a5bd 9eed a5bd 91be 9a3c
000001c0: 43c4 17bd 8765 f9bd 30cf bbbd 1e0c c93c
000001d0: dc6c cf3d 84fb 413d 937d f23d 60e3 e8bd
000001e0: 4a86 e7bd f987 92bd 9207 56ba fbab c2bd
000001f0: 0ce4 8e3d c494 8e3c 05cc 353d f665 b5bd
00000200: 95c6 463d bdf7 f5bd b6ee dfba c30f eebc
00000210: 9979 e93c 5ada f53d abba bb3d 6843 df3d
00000220: 4aac 673d 4a9b d13d 96e6 183d ab46 423d
00000230: 7c12 c83c c439 c33c d9b5 a0bd 10f3 86bd
00000240: d171 883d 7b97 d63d 026e 4c3d 9c96 26bc
00000250: cae4 f63d ea05 7ebd 2d1b 73bd 23d9 c33c
00000260: 2e6b 8bbd 7e0f 643d 6017 ed3d d05d c83c
00000270: df24 123d 4de3 f23d 025e e23d 6e90 47bd
00000280: 9451 553d 0d43 38bc 56f8 11bd ec38 7dbd
00000290: 6857 e93d d969 ef3c e63d 53bd 2287 d23b
000002a0: ac2b 433c 9f3d 373d 0538 b9bd ade5 9b3d
000002b0: 04dd e43c 2428 46bd 0915 cd3d e6df 0c3c
000002c0: 5b36 f0bd 97cf 203d 9d30 9abd 4611 f5bd
000002d0: 4ef6 f83b 19b7 b4bd d0b2 e83d 72c1 e93d
000002e0: c68e e0bd 4749 c93d 7b1c 9ebd 1d2d bfbd
000002f0: 8d76 963d b3ee f33b c099 bf3d be54 e0bd
00000300: 39d0 693d 1f07 6abd 956c 873d 888e efbd
00000310: 9b89 823b cd75 36bd 2280 7fbd 7c31 b43d
00000320: d0ae 3a3d e838 9b3d df39 e1bd fd1f 55bd
00000330: 3088 cf3d c2d5 e5bd 9022 9a3d 586c cf3b
00000340: dc6a 613d 92cc bc3d da7f d1bc b16b 90bd
00000350: 2fde fdbd a140 d13d 4680 efbd b6e5 eebc
00000360: 64f8 d63d 6eac 8f3d a7d5 9cbd 482e 403d
00000370: 2a0a 863d 91f1 463d ec26 1bbd 6ce8 193c
00000380: 7ae0 693d c83a 5e3c d77e 89bd 6907 c43d
00000390: c278 d23d 861a b33d ded8 d1bd f2a5 0dbd
000003a0: 6f43 1fbd 762c 883b 25cc 20bd 806e 72bd
000003b0: dce9 fc3d 2021 3d3d 130e b33c 188a aebd
000003c0: 82b1 de3c 9ab0 5ebd 9ebd 1cbd 137d 893d
000003d0: 779c a8bb cacc cc3d 9aee 7abd fd53 d0bd
000003e0: 1ca6 cf3d 1879 a03d b27f b5bd a6c5 8f3c
000003f0: c2bd 7dbd 0b4a cfbd 0b00 9ebc a509 98bd

lstm.bias_ih_l0 f4 [256]
-0.026797574 0.05906865 0.05362645 0.011155536 0.11854155 -0.064256474 -0.106727995 -0.12392143
0.0046324763 -0.01681032 0.07855227 0.11573729 -0.10031182 0.037413243 0.01603954 0.016845241
0.027348319 0.08697317 -0.019773023 0.06437729 -0.021340527 -0.12235022 -0.097481005 0.056848392
-0.029855238 -0.10970665 0.08583447 0.07615723 0.065701045 0.016488522 -0.053909842 0.052340634
0.124524266 0.11522093 0.08764166 -0.05079067 -0.10471585 0.10608376 0.022187963 -0.049201827
-0.022935456 -0.06368553 -0.022465557 0.09767321 -0.035250865 0.079213135 0.08308636 -0.05833961
-0.0371421 0.09666124 -0.006350495 0.06652225 -0.0049227797 0.11320846 0.043164276 0.0745161
-0.07952208 -0.0033206674 0.10060749 -0.0062916046 0.07498299 0.1076592 -0.014447482 0.033289254
-0.10830116 0.023355855 -0.001127781 -0.11517781 0.01220779 0.05394289 0.042034984 -0.012556784
0.081277914 -0.081038594 -0.11842523 0.12056356 -0.05245641 -0.008385751 0.03732047 -0.12130269
-0.11110145 0.043015413 0.07507509 0.067763366 -0.0016974469 -0.022633195 -0.10823741 0.053208377
-0.07076749 0.110385306 -0.092929535 0.03318225 -0.09416896 -0.019246843 -0.046202336 0.068797894
0.036072988 0.09697866 -0.065310195 0.0911072 -0.117107615 0.013378748 -0.054017823 0.07533596
-0.034908894 0.007786222 0.12331035 0.09914959 -0.078992106 -0.090463266 0.02074579 0.03358738
0.00898035 0.053016167 0.011699664 -0.028952528 -0.078424804 -0.081808716 0.12378735 -0.12233499
0.0634951 -0.054394074 0.025726732 0.10370083 0.09693509 0.09200726 -0.09417541 0.03576687
0.08057608 -0.082380615 -0.038019206 -0.00959037 0.029566836 -0.118431106 -0.016971935 0.0022516446
-0.0583376 0.10452587 0.09707714 0.088155866 -0.066730775 -0.052015696 0.020099211 0.08288952
-0.10008768 -0.017604912 -0.052550487 -0.032702174 -0.07637764 0.048042517 -0.11037231 0.065736905
0.1010529 0.117412 -0.02192154 -0.10275703 0.009241487 -0.0064662625 -0.073421866 -0.09044412
-0.044851057 -0.08639406 0.04532077 -0.023693005 0.121662505 0.11644686 0.06752378 0.1235527
-0.084594294 -0.0987447 0.08546191 0.004359166 0.110062644 -0.05902167 -0.043939434 0.091066755
-0.05158292 0.07153978 0.091356 -0.065236054 -0.08522113 -0.12301602 -0.090764925 0.014727829
-0.09281922 -0.052710515 0.042906526 0.07164064 -0.0023768658 0.0745886 0.01698084 -0.114773326
-0.079637915 0.037864223 0.062560536 0.054677915 0.055073883 -0.04271508 -0.102985725 0.07673098
-0.08095112 -0.011739566 0.08482429 -0.002960917 -0.074003264 -0.08775832 0.08665555 -0.04883808
0.083795264 -0.09351848 -0.10294979 -0.050134607 -0.03491989 -0.07152251 0.063706435 0.015200066
-0.12435257 -0.06912551 0.038566783 -0.067231886 0.10065097 -0.011934473 -0.00812894 -0.021116542
-0.07978397 0.010490519 -0.01603953 0.029182648 -0.052501503 0.089627944 -0.113917276 -0.11116499
-0.011222278 0.11721709 -0.005907273 -0.03201149 0.031928085 0.034462556 0.111726366 -0.016547391
0.028617362 0.011766259 -0.041479502 -0.05344928 0.033299237 -0.09598107 0.011644326 -0.10692014
-0.057300236 0.024071412 -0.026912948 0.087292165 0.11437635 -0.012425629 -0.090775035 -0.008490644
00000000: 9686 dbbc f8f1 713d 69a7 5b3d b6c5 363c
00000010: eac5 f23d e698 83bd 3594 dabd 85ca fdbd
00000020: 07cc 973b ccb5 89bc 03e0 a03d ac07 ed3d
00000030: 4970 cdbd a13e 193d 5a65 833c 08ff 893c
00000040: 9509 e03c fd1e b23d 09fb a1bc 3ed8 833d
00000050: 54d2 aebc c192 fabd 1fa4 c7bd dcd9 683d
00000060: f992 f4bc e1ad e0bd fcc9 af3d 52f8 9b3d
00000070: 458e 863d f012 873c 91d0 5cbd 2263 563d
00000080: 9406 ff3d f3f8 eb3d 787d b33d e109 50bd
00000090: 4375 d6bd 7142 d93d 88c3 b53c db87 49bd
000000a0: 23e3 bbbc 8f6d 82bd b009 b8bc e408 c83d
000000b0: 3663 10bd 7f3a a23d 2e29 aa3d 84f5 6ebd
000000c0: 5122 18bd 54f6 c53d d017 d0bb d13c 883d
000000d0: 454f a1bb d6d9 e73d 06cd 303d e69b 983d
000000e0: 79dc a2bd 8e9f 59bb 4d0b ce3d ce29 cebb
000000f0: af90 993d 6d7c dc3d 22b5 6cbc 505a 083d
00000100: 00cd ddbd c754 bf3c 0dd2 93ba 58e2 ebbd
00000110: 2f03 483c 38f3 5c3d e02c 2c3d f8ba 4dbc
00000120: 0975 a63d 90f7 a5bd ed88 f2bd 07ea f63d
00000130: 88dc 56bd 6464 09bc 59dd 183d 8b6d f8bd
00000140: 2889 e3bd ee30 303d f8c0 993d 85c7 8a3d
00000150: de7c deba 4069 b9bc 93ab ddbd 07f1 593d
00000160: 8cee 90bd b111 e23d d751 bebd 1cea 073d
00000170: a8db c0bd 8eab 9dbc a93e 3dbd e9e5 8c3d
00000180: 45c1 133d bf9c c63d 5ac1 85bd 6996 ba3d
00000190: 1ed6 efbd 8932 5b3c cb41 5dbd bd49 9a3d
000001a0: a1fc 0ebd 9023 ff3b 238a fc3d f10e cb3d
000001b0: 9dc6 a1bd ce44 b9bd 13f3 a93c ec92 093d
000001c0: 5122 133c 7b27 593d f3af 3f3c da2d edbc
000001d0: 2f9d a0bd 548b a7bd 3984 fd3d c48a fabd
000001e0: b809 823d 52cc 5ebd dec0 d23c 1a61 d43d
000001f0: e885 c63d 4d6e bc3d 0adf c0bd 4880 123d
00000200: 1205 a53d 2bb7 a8bd 07ba 1bbd ed20 1dbc
00000210: 2636 f23c 028c f2bd ba08 8bbc 5490 133b
00000220: 68f3 6ebd a911 d63d 61d0 c63d 108b b43d
00000230: 25aa 88bd 690e 55bd 1aa7 a43c fbc1 a93d
00000240: c5fa ccbd 2d38 90bc 2e3f 57bd b7f2 05bd
00000250: e16b 9cbd 3bc8 443d e10a e2bd 12a1 863d
00000260: d3f4 ce3d b475 f03d cd94 b3bc 4772 d2bd
00000270: 9b69 173c f1e2 d3bb 345e 96bd c43a b9bd
00000280: beb5 37bd 5eef b0bd 46a2 393d d517 c2bc
00000290: 312a f93d b17b ee3d e849 8a3d 3309 fd3d
000002a0: c63f adbd a93a cabd a706 af3d 56d7 8e3b
000002b0: 8668 e13d b5c0 71bd d6f9 33bd 3581 ba3d
000002c0: 9d48 53bd 7383 923d db18 bb3d 7b9a 85bd
000002d0: 6a88 aebd d3ef fbbd f6e2 b9bd fe4c 713c
000002e0: 0118 bebd fbe6 57bd c1be 2f3d 54b8 923d
000002f0: 31c5 1bbb e8c1 983d 671b 8b3c 470e ebbd
00000300: 3419 a3bd 8417 1b3d bd1f 803d f3f5 5f3d
00000310: 2795 613d 02f6 2ebd 2eea d2bd 2225 9d3d
00000320: b3c9 a5bd 4f57 40bc 5bb8 ad3d f20b 42bb
00000330: 068f 97bd a2ba b3bd 7778 b13d 700a 48bd
00000340: da9c ab3d 9e86 bfbd 57d7 d2bd f259 4dbd
00000350: 2908 0fbd 657a 92bd 8578 823d b309 793c
00000360: 8fac febd ad91 8dbd 34f8 1d3d dfb0 89bd
00000370: 1922 ce3d cf88 43bc 3f2f 05bc 99fc acbc
00000380: c765 a3bd 6de0 2b3c 5565 83bc 7310 ef3c
00000390: d10b 57bd db8e b73d 764d e9bd 78aa e3bd
000003a0: a5dd 37bc 840f f03d cc91 c1bb 7b1e 03bd
000003b0: 06c7 023d 9c28 0d3d cbd0 e43d 658e 87bc
000003c0: f56e ea3c 44c7 403c 69e6 29bd a2ed 5abd
000003d0: c864 083d b991 c4bd d8c7 3e3c f2f8 dabd
000003e0: a7b3 6abd 6931 c53c 8b78 dcbc 3cc6 b23d
000003f0: 263e ea3d de94 4bbc 43e8 b9bd 581c 0bbc

lstm.bias_hh_l0 f4 [256]
0.060780305 -0.10605177 -0.09001971 0.021921938 -0.021169053 -0.05116542 0.09840881 0.1116985
0.03569195 -0.026547424 -0.055943035 -0.10142964 0.008750949 -0.016630424 0.10070771 0.080036655
0.10460173 0.048934575 -0.03286757 -0.059351817 -0.008318118 -0.10073506 -0.10954594 -0.083414346
-0.038616106 -0.076786034 -0.10601051 0.027727932 0.11985188 0.12210809 0.11011154 0.031261615
0.11116706 0.06663316 -0.022260264 0.0666253 0.06106638 -0.03684445 -0.10292858 -0.033237543
-0.014400757 -0.07632249 -0.051226974 0.120471574 -0.025162986 0.096226804 0.061496526 0.108685255
-0.11968518 0.08134106 -0.10888537 -0.10771812 0.08908878 -0.017775163 0.08359072 -0.082255155
0.05346165 0.05766749 -0.06481036 -0.07989179 -0.08637179 -0.1234872 0.044896156 -0.010008394
0.09899692 -0.067047566 0.0909518 -0.0038261078 0.081413075 0.09166305 -0.046633646 -0.025463857
0.10754626 0.005549509 -0.11791039 -0.12329345 -0.04530269 -0.06900577 0.11698343 -0.108717956
0.056009483 0.10507379 0.10309434 -0.050475884 -0.09244206 0.101140425 0.111110546 -0.115589894
-0.055558924 0.02087774 -0.058036093 0.1060013 0.10765886 0.114049986 -0.10579333 -0.10662321
0.0740182 -0.052259274 0.052771565 -0.022987997 -0.0352519 0.06944985 0.036585737 -0.12236377
0.006935681 -0.06623752 0.101415776 0.01646049 -0.03484199 0.11025651 0.07731932 0.10389824
0.016096624 0.07854832 0.09845857 -0.08846246 -0.053105824 -0.031209152 -0.032846563 0.041144114
0.0065838373 -0.115680344 0.074712195 0.029372212 0.023482336 -0.08830207 0.039271202 0.017126294
-0.07926661 -0.10258212 -0.039583173 -0.0121977 -0.077099465 -0.060768515 0.045955088 0.028327186
0.055528626 0.040699366 -0.03132261 -0.0646994 -0.1130336 0.11107828 0.05298828 0.039542925
-0.01306882 0.07088993 -0.12357106 -0.07483422 -0.07189853 -0.046933863 0.07414814 -0.011247473
0.084949054 -0.03839768 0.044677217 0.0006682355 -0.09686636 -0.049260058 -0.07648675 -0.08118901
-0.038451888 0.06498414 0.0010592713 -0.038306452 -0.0135209905 0.0026365756 0.004090739 0.057488564
0.07132293 -0.010502886 0.022221705 0.04962715 -0.075908765 -0.10405435 0.053004064 0.10993803
-0.008201513 -0.029379915 0.0644327 0.07021048 0.107311115 0.01848999 -0.03525384 -0.09274989
0.007753334 0.049950067 -0.019855926 -0.12595367 -0.07594861 -0.116123766 0.047820237 0.103025146
-0.09830721 -0.009920956 0.0046519004 0.07104159 0.07123738 -0.10255345 -0.10781473 -0.015450777
0.031116163 0.08737695 0.105922975 -0.10276322 0.035080235 0.03995174 -0.0007997388 0.10366814
-0.089420214 -0.021162974 -0.08925951 0.10670156 0.09896236 0.0703925 0.011507829 -0.059477445
-0.016744234 0.05727506 0.058909446 0.0071243877 -0.11452801 -0.01287794 0.09086296 -0.10115112
-0.120050095 -0.04769178 -0.00040465116 -0.12083917 -0.058183108 0.079038076 0.10353705 0.08419402
0.021904642 0.09810807 -0.063552536 -0.011604453 -0.10325088 0.009012489 -0.026881348 -0.05952653
0.023552606 -0.0038023554 -0.11355414 0.0036435805 0.048637286 -0.06831112 -0.045408793 0.056601226
0.014439782 0.023079963 -0.054862134 -0.018814098 -0.10130373 -0.059686687 -0.02498198 0.043608718
00000000: c5f4 783d ac31 d9bd 415c b8bd a395 b33c
00000010: b96a adbc d592 51bd 8f8a c93d 2fc2 e43d
00000020: b931 123d fc79 d9bc 8624 65bd 58ba cfbd
00000030: 2460 0f3c 873c 88bc d83f ce3d 42ea a33d
00000040: 6f39 d63d 9f6f 483d 25a0 06bd e41a 73bd
00000050: b748 08bc 2f4e cebd 9f59 e0bd 24d5 aabd
00000060: ec2b 1ebd ff41 9dbd 0a1c d9bd b025 e33c
00000070: e774 f53d ce13 fa3d 2982 e13d 2e0c 003d
00000080: 8eab e33d f776 883d 285b b6bc d872 883d
00000090: be20 7a3d 35ea 16bd 38cc d2bd 1724 08bd
000000a0: 27f1 6bbc f74e 9cbd 60d3 51bd cdb9 f63d
000000b0: 9b22 cebc 8f12 c53d c8e3 7b3d 6096 de3d
000000c0: 811d f5bd 2496 a63d 4bff debd 519b dcbd
000000d0: 2e74 b63d 389d 91bc 9d31 ab3d 6475 a8bd
000000e0: 9afa 5a3d bf34 6c3d 4bbb 84bd 4f9e a3bd
000000f0: b1e3 b0bd dbe6 fcbd 08e5 373d 3ffa 23bc
00000100: e6be ca3d 3c50 89bd f044 ba3d 70bf 7abb
00000110: e6bb a63d d6b9 bb3d ec02 3fbd 9499 d0bc
00000120: 3741 dc3d a8d8 b53b 017b f1bd 4781 fcbd
00000130: 508f 39bd e652 8dbd 0295 ef3d 85a7 debd
00000140: 336a 653d ed30 d73d 2023 d33d cdbf 4ebd
00000150: 4352 bdbd b622 cf3d ed8d e33d 65ba ecbd
00000160: c191 63bd cb07 ab3c 41b7 6dbd 3617 d93d
00000170: 407c dc3d 0a93 e93d 2caa d8bd 455d dabd
00000180: db96 973d d20d 56bd ff26 583d 5351 bcbc
00000190: 4c64 10bd b93b 8e3d edda 153d db99 fabd
000001a0: b644 e33b 89a7 87bd 13b3 cf3d 26d8 863c
000001b0: 79b6 0ebd 2ace e13d 9759 9e3d 9ac8 d43d
000001c0: 11dd 833c f1dd a03d a6a4 c93d ce2b b5bd
000001d0: 7e85 59bd 56aa ffbc 1e8a 06bd bb86 283d
000001e0: 3bbd d73b d1e9 ecbd b502 993d fe9d f03c
000001f0: 075e c03c b7d7 b4bd d7da 203d 714c 8c3c
00000200: 8856 a2bd 9316 d2bd f721 22bd ddd8 47bc
00000210: 53e6 9dbd 68e8 78bd 673b 3c3d 6a0e e83c
00000220: fc71 633d 61b4 263d 234c 00bd 1e81 84bd
00000230: 297e e7bd 027d e33d 3d0a 593d c3f7 213d
00000240: 9b1e 56bc bd2e 913d d312 fdbd af42 99bd
00000250: 893f 93bd b93d 40bd fbda 973d 5247 38bc
00000260: c5f9 ad3d e346 1dbd 75ff 363d 862c 2f3a
00000270: df61 c6bd eac4 49bd 16a5 9cbd 6c46 a6bd
00000280: ba7f 1dbd 6816 853d 3fd7 8a3a 3ae7 1cbd
00000290: 2587 5dbc 66ca 2c3b 9b0b 863b 2179 6b3d
000002a0: c211 923d 4c14 2cbc 4b0a b63c d745 4b3d
000002b0: 0e76 9bbd 721a d5bd ca1a 593d 3127 e13d
000002c0: a45f 06bc 26ae f0bc 4bf5 833d 83ca 8f3d
000002d0: eec5 db3d 5278 973c 5566 10bd a8f3 bdbd
000002e0: ae0f fe3b 7198 4c3d e5a8 a2bc 00fa 00be
000002f0: f28a 9bbd 4cd2 edbd 27df 433d d9fe d23d
00000300: 4a55 c9bd 818b 22bc f86e 983b 417e 913d
00000310: e7e4 913d 8b07 d2bd f8cd dcbd 4125 7dbc
00000320: 53e7 fe3c b0f2 b23d 25ee d83d 8675 d2bd
00000330: 4bb0 0f3d 70a4 233d 90a5 51ba f64f d43d
00000340: f221 b7bd f95d adbc b1cd b6bd 5986 da3d
00000350: c7ac ca3d f129 903d 558b 3c3c 9f9e 73bd
00000360: 342b 89bc 4199 6a3d 084b 713d b273 e93b
00000370: a98d eabd fffd 52bc 5c16 ba3d 5228 cfbd
00000380: d3dc f5bd 7558 43bd 5c27 d4b9 877a f7bd
00000390: 6951 6ebd b7de a13d 3c0b d43d ea6d ac3d
000003a0: 5d71 b33c e2ec c83d d527 82bd 9b20 3ebc
000003b0: 3375 d3bd 1ea9 133c 4636 dcbc 17d2 73bd
000003c0: 65f1 c03c f030 79bb 138f e8bd 23c9 6e3b
000003d0: e437 473d b3e6 8bbd 92fe 39bd b0d6 673d
000003e0: d694 6c3c 3112 bd3c 1eb7 60bd 0620 9abc
000003f0: 5478 cfbd 077a 74bd 02a7 ccbc 0e9f 323d

fc1.weight f4 [32, 64]
-0.08726533 0.100879565 -0.1034994 -0.067471266 -0.098078385 -0.056990862 -0.020817876 0.039308876
0.025040507 -0.017699435 -0.05255322 -0.07174201 0.07216704 -0.086666256 0.06633508 0.09454939
-0.0552541 -0.11355269 -0.04380162 0.04719241 -0.052616015 -0.008483365 -0.062345445 0.08820008
-0.04076737 0.041727215 0.0619798 -0.008090332 -0.063732326 0.039930105 0.07108487 -0.09119032
0.09101339 0.08418669 -0.0070021152 -0.071501374 -0.06997402 0.077614605 -0.119000405 0.080668405
0.02763319 0.109913886 -0.112443 -0.01423265 0.025890708 0.060874164 -0.077922955 0.078201324
-0.0018574297 0.049406916 0.06459206 0.078375146 -0.022085398 -0.060720965 -0.07687688 -0.0842125
0.11704001 -0.017946735 -0.012668833 -0.12006122 -0.00023776293 0.1062666 -0.07866983 -0.037329137
-0.03348896 0.05089657 -0.059629366 -0.049554273 0.10909851 -0.11678481 0.08023338 0.03413433
-0.06544794 0.077502936 -0.028138906 -0.124182224 0.010890469 -0.04870248 -0.013431355 0.056217805
0.009104401 0.0067202896 0.08648771 -0.099891186 0.12379059 0.03907007 0.0434514 -0.043924928
-0.026094288 -0.07995452 0.035132065 -0.0289907 -0.12201296 0.11768 0.06499091 -0.092529505
0.013793573 -0.099367455 0.05483277 -0.083183244 -0.053308845 -0.042988002 -0.08449799 -0.1115613
-0.055366635 0.05249019 -0.09257515 0.015652671 -0.08566184 0.069242075 0.054365486 0.031511635
0.030933231 -0.07648575 -0.05980459 -0.0064404607 0.0480102 0.028762728 -0.07889135 -0.07949352
0.07197417 0.07232839 -0.051033795 0.08466771 -0.11679199 0.085745916 -0.030407026 0.11407666
-0.055945277 0.0131420195 0.09579639 -0.06056653 0.115866646 -0.057550505 0.060184866 -0.06703174
0.04676576 0.09179525 -0.09447278 -0.04626152 -0.0015377402 0.05244054 -0.052225843 0.0299315
0.051161274 -0.11670843 -0.0641523 -0.07257308 -0.017445266 0.08989112 -0.05476235 0.0061601102
0.0067281723 -0.008581325 0.08858052 0.0004516393 -0.013829514 -7.463992e-05 -0.028539032 -0.04720895
-0.07594566 0.095343456 0.049476385 0.054744244 0.057385936 -0.11618456 0.05981411 -0.0005995184
-0.10525884 0.0034946203 -0.10557376 -0.022112325 0.0023234785 0.02481921 0.05593197 -0.09505446
0.046932593 0.027156785 0.052172765 -0.041695923 -0.09384656 -0.07274173 0.1052506 0.05928512
0.050954834 -0.096431985 -0.06099397 -0.014230207 -0.06812197 -0.018596664 -0.122488335 0.04754667
-0.11922096 -0.06680255 -0.08874039 -0.10010862 0.037422165 -0.08406705 -0.097591534 -0.053017586
0.026444599 0.047568187 -0.09421444 0.05935967 0.009579122 0.075014055 0.05364108 0.05678849
-0.04959248 0.07752812 -0.08844808 -0.10383488 -0.105489835 -0.017388046 -0.03375742 -0.06615105
-0.006145537 -0.11170283 -0.08183052 -0.009396568 0.10278244 0.12211208 0.08849265 0.08123855
-0.1142938 0.011786491 -0.080147415 0.005909741 0.09673093 -0.09968136 -0.100801244 0.12361641
0.0862426 0.0074029565 0.03839715 0.1050213 0.016223356 0.04024279 0.056925014 0.050310895
0.014271066 0.10604651 -0.10288288 0.07324016 0.11681984 0.02439341 -0.11781952 0.054247662
-0.016017303 -0.098632276 0.09965068 0.11625698 -0.05429943 -0.022438884 -0.06325175 0.08801071
00000000: 2ab8 b2bd f299 ce3d 7ef7 d3bd 602e 8abd
00000010: 52dd c8bd 406f 69bd 408a aabc 5802 213d
00000020: c021 cd3c 68fe 90bc 0c42 57bd 7aed 92bd
00000030: 50cc 933d 147e b1bd b0da 873d 1ca3 c13d
00000040: 2052 62bd 508e e8bd 5469 33bd d44c 413d
00000050: e483 57bd d0fd 0abc f05d 7fbd 3ea2 b43d
00000060: b0fb 26bd 28ea 2a3d 88de 7d3d 508d 04bc
00000070: 1886 82bd c08d 233d f294 913d fec1 babd
00000080: 3a65 ba3d 126a ac3d 0072 e5bb 506f 92bd
00000090: 8a4e 8fbd 68f4 9e3d 7cb6 f3bd 7a35 a53d
000000a0: 005f e23c 881a e13d 8448 e6bd 1030 69bc
000000b0: c018 d43c 3057 793d 1296 9fbd 0428 a03d
000000c0: 0075 f3ba e85e 4a3d d848 843d 2683 a03d
000000d0: 70ec b4bc 8cb6 78bd a071 9dbd 9a77 acbd
000000e0: acb2 ef3d 0805 93bc f090 4fbc a8e2 f5bd
000000f0: 0050 79b9 4ea2 d93d a61d a1bd 70e6 18bd
00000100: b82b 09bd ec78 503d ec3d 74bd 6cf9 4abd
00000110: 0a6f df3d e02c efbd 6651 a43d 70d0 0b3d
00000120: 9209 86bd dcb9 9e3d 9083 e6bc 4053 febd
00000130: f06d 323c 407c 47bd 300f 5cbc a444 663d
00000140: a02a 153c e035 dc3b 7820 b13d c093 ccbd
00000150: ec85 fd3d f007 203d 18fa 313d a0ea 33bd
00000160: b0c3 d5bc 32bf a3bd a4e6 0f3d e87d edbc
00000170: eee1 f9bd 3602 f13d f419 853d 1c80 bdbd
00000180: 70fe 613c 2a81 cbbd 5498 603d fa5b aabd
00000190: 605a 5abd 3014 30bd 480d adbd 407a e4bd
000001a0: 20c8 62bd f4ff 563d 0a98 bdbd 083a 803c
000001b0: 7a6f afbd cace 8d3d 58ae 5e3d 5812 013d
000001c0: b067 fd3c 90a4 9cbd a8f5 74bd 800a d3bb
000001d0: 58a6 443d d09f eb3c ca91 a1bd 80cd a2bd
000001e0: 3267 933d e820 943d d008 51bd 4466 ad3d
000001f0: a430 efbd 8e9b af3d 2818 f9bc 06a1 e93d
00000200: e026 65bd a051 573c e630 c43d 9c14 78bd
00000210: 7e4b ed3d 14ba 6bbd 6884 763d f047 89bd
00000220: 748d 3f3d 26ff bb3d f27a c1bd b87c 3dbd
00000230: 008e c9ba e4cb 563d c4ea 55bd e832 f53c
00000240: 7c8e 513d d404 efbd 4862 83bd 32a1 94bd
00000250: 60e9 8ebc d618 b83d 7c4e 60bd c0da c93b
00000260: 0078 dc3b b098 0cbc b469 b53d 00ca ec39
00000270: 3095 62bc 0088 9cb8 b0ca e9bc 2c5e 41bd
00000280: 6689 9bbd 6e43 c33d c0a7 4a3d 803b 603d
00000290: 840d 6b3d 2cf2 edbd a4ff 743d 0029 1dba
000002a0: f291 d7bd 0006 653b 0e37 d8bd e824 b5bc
000002b0: 8045 183b a851 cb3c ec18 653d eaab c2bd
000002c0: 643c 403d e877 de3c 1cb3 553d 58c9 2abd
000002d0: a032 c0bd 9ef9 94bd a08d d73d f4d4 723d
000002e0: 04b6 503d 227e c5bd d0d4 79bd d025 69bc
000002f0: 8883 8bbd 0858 98bc 2adb fabd 4cc0 423d
00000300: 1e2a f4bd c6cf 88bd 86bd b5bd c005 cdbd
00000310: fc47 193d 582b acbd 12de c7bd f828 59bd
00000320: 58a2 d83c dcd6 423d 80f3 c0bd 2023 733d
00000330: c0f1 1c3c f8a0 993d c0b6 5b3d 0c9b 683d
00000340: 7c21 4bbd 10c7 9e3d 4424 b5bd 62a7 d4bd
00000350: 0e0b d8bd 6071 8ebc 3845 0abd 347a 87bd
00000360: 8060 c9bb 74c4 e4bd c296 a7bd 10f4 19bc
00000370: 9a7f d23d e615 fa3d a23b b53d 6660 a63d
00000380: de12 eabd 201c 413c 5424 a4bd 80a6 c13b
00000390: de1a c63d be25 ccbd e270 cebd 9a2a fd3d
000003a0: f69f b03d 8094 f23b 5446 1d3d 6815 d73d
000003b0: d8e6 843c a0d5 243d 342a 693d cc12 4e3d
000003c0: 30d1 693c ea2e d93d 42b4 d2bd f0fe 953d
000003d0: 3e3f ef3d b0d4 c73c 5c4b f1bd cc32 5e3d
000003e0: b836 83bc b8ff c9bd a815 cc3d 2418 ee3d
000003f0: 1469 5ebd c0d1 b7bc 228a 81bd f63e b43d

fc1.bias f4 [32]
-0.122361034 -0.06988579 0.052887693 -0.02993907 0.04713863 0.06589796 0.08065598 -0.09653905
0.010008085 -0.116230085 -0.051064044 0.09775582 0.051807385 0.047515884 0.09279485 0.10110536
-0.06253265 0.035330847 0.10312021 0.029753178 -0.05855353 0.082631126 0.050124973 0.0081361085
-0.10009128 0.07273859 0.07169725 -0.030067474 -0.04142694 0.0623122 0.07325442 -0.09904188
00000000: 6c98 fabd 4820 8fbd c4a0 583d c842 f5bc
00000010: 7014 413d 82f5 863d f62e a53d 44b6 c5bd
00000020: f3f8 233c 0a0a eebd 8828 51bd 3434 c83d
00000030: fb33 543d 04a0 423d 3a0b be3d 5410 cf3d
00000040: 1e11 80bd 14b7 103d b030 d33d f0bc f33c
00000050: d4d5 6fbd 823a a93d d84f 4d3d 504d 053c
00000060: a8fc ccbd f8f7 943d 02d6 923d 1050 f6bc
00000070: 4caf 29bd 143b 7f3d 6a06 963d 78d6 cabd

fc2.weight f4 [1, 32]
0.080884546 0.05879186 -0.17531279 -0.062477496 -0.019383883 0.12825431 -0.07190278 0.07645185
0.023438388 -0.058069147 -0.003530241 -0.14364162 -0.16837469 0.1381364 -0.13617872 -0.1528803
0.059595305 -0.04020474 -0.15164605 -0.06644172 -0.016605457 -0.1423404 -0.130476 0.03590781
-0.059720818 0.105782785 0.12257622 0.028913012 -0.113773584 0.08598754 0.03523959 -0.09896299
00000000: cca6 a53d bccf 703d 3285 33be 67e8 7fbd
00000010: f3ca 9ebc 1955 033e c441 93bd ca92 9c3d
00000020: dd01 c03c ead9 6dbd 9e5b 67bb ca16 13be
00000030: 6a6a 2cbe a173 0d3e 6f72 0bbe a78c 1cbe
00000040: 351a 743d baad 24bd 1a49 1bbe 9912 88bd
00000050: 2b08 88bc afc1 11be 809b 05be 1114 133d
00000060: d19d 74bd a5a4 d83d 3e09 fb3d fbda ec3c
00000070: 2002 e9bd 3c1a b03d 6357 103d 1cad cabd
