checkpoint_100.pth (torch, 450802 bytes, 8 tensors)

embedding.weight f4 [671, 100]
0	0x3ed4e9b1	0.41584542
1	0xbf072c88	-0.52802324
2	0x3dfba6f5	0.12287704
3	0x3f365953	0.7123005
4	0xbefd51e6	-0.49476546
5	0x3fa37893	1.2771171
6	0xbe8c928a	-0.2745555
7	0x3d29d2f6	0.041460954
8	0xbf3df6d8	-0.7420478
9	0x3ddcf268	0.10788423
10	0x3f9af951	1.2107335
11	0x3e3982d0	0.18116307
12	0xbf410178	-0.75392866
13	0x3f209d4a	0.62740004
14	0xbfebeba0	-1.8431282
15	0xbd58b704	-0.052908912
16	0x3f90c866	1.1311157
17	0x3f836837	1.0266179
18	0x3a7e364f	0.00096974237
19	0x3fca28b5	1.5793673
20	0xc011384d	-2.2690613
21	0xbfb71f20	-1.4306374
22	0xbf0ae18e	-0.5425042
23	0xbecfe660	-0.4060545
24	0xbf5b4fb5	-0.856685
25	0x4013144a	2.2981133
26	0xbd0691f3	-0.03285403
27	0x3f21b99d	0.6317385
28	0xbe1ddd5a	-0.1541647
29	0xbf525676	-0.8216318
30	0x3f64260e	0.89120567
31	0xbff7e178	-1.9365683
32	0x3ec2b4cd	0.38028565
33	0xb9978579	-0.0002890041
34	0x3d699570	0.05702728
35	0xbf8bff08	-1.0937204
36	0xbf14f3e7	-0.58184665
37	0xbea2ca91	-0.3179517
38	0x3e61df72	0.22057894
39	0x3f847d29	1.0350696
40	0xbeb838f6	-0.35980958
41	0x3fa27014	1.2690454
42	0xbf3152a0	-0.692667
43	0xbeee0d12	-0.46494347
44	0x4020c5b7	2.5120676
45	0x3f3fe2bc	0.74955344
46	0xbe821860	-0.25409222
47	0xbf8cc66a	-1.0998051
48	0x4004b5b1	2.0735896
49	0x3f231365	0.6370147
50	0x3f9fc83c	1.2482982
51	0xbf5ed4d3	-0.87043494
52	0xbe954777	-0.29156086
53	0x3e7f1ac9	0.24912561
54	0xbe791e48	-0.24327958
55	0xbf047a82	-0.5174943
56	0x3e1071e9	0.14105953
57	0x3fe02297	1.7510556
58	0xbfa7717c	-1.3081508
59	0x3eb032bf	0.34413716
60	0xbeca13ae	-0.3946814
61	0xbf1adfd4	-0.60497785
62	0x3f52c3ce	0.82330024
63	0x3f68ae34	0.9089081
64	0xbf70a76c	-0.94005466
65	0xbd68463d	-0.05670761
66	0x3edca71b	0.4309624
67	0x3ea4168b	0.3204845
68	0xbf146a2f	-0.57974523
69	0xbfd16c2c	-1.6361136
70	0xbf168826	-0.58801496
71	0x3fc49a04	1.5359502
72	0xbfd4a734	-1.6613526
73	0xbeca9ffc	-0.39575183
74	0xbf67f0d8	-0.90601873
75	0xbea457fc	-0.32098377
76	0xbf15fbd4	-0.58587384
77	0xbf1542ff	-0.5830535
78	0xbe9cbe6a	-0.30614024
79	0xbdc76f82	-0.09738065
80	0x3f662893	0.8990566
81	0xbf4a0ec9	-0.7892881
82	0x3e11b364	0.14228588
83	0xbd655dd9	-0.055997703
84	0x3ea421d0	0.32057047
85	0xbf91f179	-1.1401817
86	0x3f8cccc4	1.099999
87	0xbfe45cb0	-1.7840786
88	0x3e8683e2	0.26272494
89	0x3f64b82a	0.8934351
90	0x3fd188de	1.6369894
91	0x3e123cc8	0.14280999
92	0x3efd8405	0.49514785
93	0x3f4e5a1d	0.8060625
94	0xbe4ef02a	-0.20208803
95	0x3df4635e	0.11933015
96	0x3f7a4a3c	0.9776952
97	0xbed022b9	-0.4065149
98	0xbf80301d	-1.0014683
99	0xbf28e9e7	-0.65981907
100	0x3e389286	0.18024644
101	0x3f3af80c	0.7303474
102	0xbfa969ac	-1.3235373
103	0xbd8ccf4b	-0.068754755
104	0x3eca6a09	0.39534023
105	0xbebc9f41	-0.3684025
106	0x3ccfd2ae	0.025369015
107	0x3f25b8ac	0.6473491
108	0x3e37a9f0	0.1793592
109	0xbff6098f	-1.9221667
110	0xbe85f9bd	-0.26167098
111	0x3f3bbd40	0.7333565
112	0xbed64192	-0.418469
113	0x3fb5db61	1.4207574
114	0x3f0935fc	0.53598
115	0xbefd0077	-0.49414417
116	0xbf1ee53f	-0.6206855
117	0xc00c5d73	-2.1932037
118	0x3eb24726	0.34819907
119	0x3fa16117	1.2607754
120	0x3ec25f78	0.37963462
121	0x3d44d1c7	0.04805162
122	0x3dcecea6	0.10098009
123	0xbeb7b44d	-0.35879746
124	0xbe95c6a5	-0.29253116
125	0x3f429e0c	0.7602241
126	0xc01f981d	-2.4936593
127	0xbfda6123	-1.7060894
128	0xbf103a12	-0.5633861
129	0xbfd4885b	-1.6604112
130	0xbfda9c77	-1.7078999
131	0x3dca1682	0.09867574
132	0xbf81c6a0	-1.013874
133	0xbe29fbb4	-0.16599923
134	0xbf4bcc85	-0.7960895
135	0xbea9b033	-0.33142242
136	0xbf16818f	-0.5879144
137	0xbdc61f9c	-0.09673998
138	0xbfa18d7f	-1.2621306
139	0x3feee229	1.8662769
140	0xbf8b64ec	-1.0890174
141	0xbfc0c648	-1.5060511
142	0xbd585e76	-0.05282446
143	0xbf508ab4	-0.81461644
144	0xbf13ad62	-0.57686436
145	0xbf824902	-1.017853
146	0xbfe87940	-1.8162003
147	0xbf1e5c75	-0.6185983
148	0x3eea1742	0.4572087
149	0xbf55a3d1	-0.8345309
150	0x3e4051d5	0.18781216
151	0xbf64ba8d	-0.89347154
152	0xbe96b5b7	-0.29435512
153	0xbf38f9fc	-0.72256446
154	0xbf6e9f5e	-0.93211925
155	0x3fdab4e3	1.7086452
156	0xbdb73f70	-0.089476466
157	0xbf3ad084	-0.7297442
158	0xbf8efe3d	-1.1171337
159	0xbf0b80f5	-0.5449365
160	0x3e26622d	0.16248389
161	0x3e88ecbe	0.2674312
162	0x3e14496e	0.14481136
163	0x3f165a63	0.5873167
164	0xbf1cbf85	-0.61229736
165	0xbdf8cc71	-0.12148369
166	0x3fcca1b3	1.5986847
167	0x3f10ba7f	0.5653457
168	0x3e7bcb50	0.24589276
169	0xbf215d77	-0.6303324
170	0x3edcb40b	0.43106112
171	0xbee47b95	-0.44625536
172	0xbfdc51c6	-1.7212455
173	0x3ef6f9d5	0.48237482
174	0x3f4aa949	0.7916456
175	0x3f936f8e	1.1518419
176	0x3f619b35	0.8812745
177	0x401b386d	2.425319
178	0x3e3b1ae7	0.18271981
179	0xbeaac993	-0.33356914
180	0x3f999988	1.1999979
181	0x3f12ecd8	0.57392645
182	0xbf98bff7	-1.1933583
183	0xbfd2d214	-1.6470361
184	0x3fdc9673	1.7233413
185	0xbee3a2ff	-0.44460294
186	0x3f4c0fac	0.79711413
187	0x3faec756	1.3654583
188	0xbfae8e84	-1.3637242
189	0xbfca67f0	-1.5812969
190	0xbe9efc5a	-0.31051904
191	0x3efc3240	0.49257088
192	0xbf650043	-0.89453524
193	0x3fbc4738	1.4709234
194	0xbf836f06	-1.0268257
195	0x3eabe62a	0.3357404
196	0xbe7e3e14	-0.24828368
197	0x3eee3b9f	0.46529862
198	0xbf87139f	-1.0552863
199	0x3f2c2895	0.67249423
200	0xbe019dc2	-0.12657836
201	0x3f22e7cc	0.63634944
202	0x3ce40efd	0.027839178
203	0x3ea1ef5e	0.31627935
204	0x3f05c420	0.5225239
205	0xbfeeea8b	-1.8665327
206	0x4005812f	2.0860097
207	0xbf0e25fc	-0.5552671
208	0xbfb8d10b	-1.4438795
209	0xbf5a0ebe	-0.85178745
210	0xbf93adfc	-1.1537471
211	0x400538e8	2.0815983
212	0xbf961d03	-1.1727604
213	0xbf51dfc8	-0.8198209
214	0x3f3ad3d9	0.72979504
215	0xbd527ba2	-0.051387437
216	0x3e921a57	0.2853572
217	0x3e592b55	0.21207936
218	0x3fad5d36	1.3544071
219	0x3ea05a2d	0.313188
220	0x3f86e15c	1.0537524
221	0xbf37091f	-0.7149829
222	0xbf6b0468	-0.918036
223	0x3dc95323	0.0983031
224	0x3fa1bd91	1.2635976
225	0x3eef0513	0.4668356
226	0x3f52b757	0.82311004
227	0x3ebd065e	0.3691892
228	0xc02be04a	-2.6855645
229	0x3fce6559	1.6124679
230	0x3f3214eb	0.6956317
231	0xbea8a326	-0.32936972
232	0x3f35907e	0.709236
233	0x3e732424	0.23744255
234	0x3e2a1bf3	0.16612224
235	0x3ea55ee9	0.32298973
236	0xbe6f0c0c	-0.2334444
237	0xbf86c336	-1.0528324
238	0x3e447a90	0.19187379
239	0xbe9ac70f	-0.30229995
240	0x3f22bd0d	0.6356972
241	0xbf3eafb1	-0.74486834
242	0x3f187da8	0.59566736
243	0x3ebeb14b	0.3724464
244	0xc00f0981	-2.234955
245	0xbf2d8f39	-0.67796665
246	0xbfbfd0f7	-1.4985646
247	0xbfc0fc93	-1.507708
248	0x3f12066c	0.5704105
249	0xc00e34e5	-2.2219784
250	0x3fc44408	1.5333261
251	0xbd6fdfc7	-0.05856302
252	0x3ea1b77d	0.31585303
253	0xbf95e446	-1.1710289
254	0xbff14cd0	-1.8851566
255	0xbd5fc973	-0.054635476

lstm.weight_ih_l0 f4 [256, 100]
0	0xbc27a566	-0.010232305
1	0xbd4302d6	-0.047610126
2	0xbdcefd6f	-0.10106932
3	0x3db6dada	0.089284614
4	0x3d34bbed	0.044124532
5	0x3e159a68	0.14609683
6	0xbb3c5026	-0.0028734296
7	0xbccfc8e3	-0.025364345
8	0x3dab4dac	0.08364424
9	0xbd71ee3b	-0.059065085
10	0xbd47fa78	-0.04882285
11	0x3cac09d5	0.021000782
12	0x3d4845e6	0.048894785
13	0xbe01db75	-0.12681372
14	0xbb0c59d5	-0.0021415849
15	0x3db0332c	0.0860351
16	0x3d9d79ba	0.07689233
17	0xbdd7c7a3	-0.105361246
18	0x3d6c53ca	0.057697095
19	0xbdf35651	-0.11881698
20	0xbdda54f2	-0.10660733
21	0xbdce824a	-0.100834444
22	0xbdb45743	-0.08805706
23	0xbcf5670f	-0.029956369
24	0xbd9d0d08	-0.07668501
25	0xbdbc1614	-0.091838986
26	0x3dd580ff	0.10424995
27	0xbdb65147	-0.08902221
28	0x3d88b78b	0.06675633
29	0x3d2e9266	0.042620085
30	0x3d9845b8	0.07435173
31	0xbdcc381c	-0.099716395
32	0xbcfb9760	-0.03071183
33	0x3d4a857a	0.0494437
34	0xbdd9d055	-0.10635439
35	0xbcfec460	-0.031099498
36	0xbd9c9b4d	-0.07646809
37	0xbdbb3938	-0.09141773
38	0xbd8266fb	-0.06367298
39	0xbd302b7d	-0.043010224
40	0xbce653de	-0.028116163
41	0xbdd88bb1	-0.10573519
42	0xbdaf90a5	-0.08572511
43	0x3d89a615	0.06721131
44	0x3cd43a61	0.025906743
45	0x3dbaaaf0	0.09114635
46	0xbc7185e2	-0.014741393
47	0xbd81e5c1	-0.0634265
48	0x3d76933b	0.060199004
49	0x3b9ce85f	0.004788443
50	0x3d7959b0	0.06087655
51	0xbde833c2	-0.11337997
52	0x3d92530c	0.07144746
53	0x3da4c090	0.08044541
54	0xbc967b04	-0.018369205
55	0x3d872d89	0.06600482
56	0xbd97c67b	-0.07410904
57	0x3d43b913	0.047783922
58	0x3dc83790	0.09776223
59	0xbd442af0	-0.04789251
60	0xbd33faec	-0.04394047
61	0x3dd855b6	0.10563223
62	0xbd4193c5	-0.047260065
63	0xbd4b8f52	-0.049697228
64	0x3ddb1f3e	0.10699318
65	0x3bdc30dd	0.006719692
66	0xbda7a696	-0.081860706
67	0xbdf696a5	-0.12040452
68	0xbca5f816	-0.020259898
69	0xbda39ec5	-0.07989267
70	0x3dac6118	0.08416957
71	0x3bc35233	0.0059607266
72	0x3d24df4a	0.040252008
73	0xbdcf0c64	-0.10109785
74	0x3db63a62	0.088978544
75	0x3d5a3b1b	0.053279024
76	0x3b82f644	0.0039966423
77	0x3d3ba718	0.04581365
78	0xbb0e39af	-0.0021701863
79	0x3dae7255	0.08517901
80	0x3e05c1f4	0.13062268
81	0xbce23c35	-0.0276166
82	0x3d8e1fcb	0.06939658
83	0x3d13ef96	0.03611716
84	0x3d82b101	0.06381417
85	0x3de5c0f7	0.11218446
86	0x3d29fff8	0.041503876
87	0xbdc50be0	-0.096214056
88	0xbdd617a1	-0.104537256
89	0xbde8bc01	-0.11363984
90	0xbc6fc4dc	-0.014634337
91	0x3dae14a2	0.08500029
92	0x3dafa6cf	0.08576738
93	0xbda71473	-0.08158197
94	0xbd4b9bb2	-0.04970903
95	0x3cab0aa5	0.0208791
96	0x3db6c277	0.0892381
97	0x3cf9ca81	0.03049207
98	0xbdb4980b	-0.088180624
99	0x3d85345c	0.065041274
100	0xbcb5bc02	-0.022184376
101	0xbd67160b	-0.056417506
102	0x3d6998c4	0.057030454
103	0xbde20f16	-0.11038034
104	0x3def11cb	0.116733156
105	0x3d045a68	0.03231278
106	0xbcd2e824	-0.025745459
107	0xbe072b2e	-0.13200065
108	0xbcbbb3df	-0.022912918
109	0xbdce40f9	-0.10070986
110	0x3d746bfa	0.059673287
111	0xbd14e7d6	-0.03635391
112	0xbd28ce41	-0.041212324
113	0x3dfa41df	0.12219595
114	0xbd200166	-0.039063834
115	0x3c9894ba	0.018625606
116	0x3e04c922	0.12967351
117	0xbde7b985	-0.11314682
118	0x3d6f1530	0.058369815
119	0xbd3b23b4	-0.045688346
120	0x3d37de42	0.044889696
121	0x3ce3f136	0.02782498
122	0xbdc82ad3	-0.09773793
123	0x3dfa15c3	0.12211182
124	0x3dc01271	0.093785174
125	0xbd5e7491	-0.054310385
126	0x3d2150f9	0.039383862
127	0x3dd72f81	0.105071075
128	0x3d1d8a24	0.03846182
129	0xbd9b33df	-0.07578253
130	0xbc17f8f5	-0.009275665
131	0x3d1b63ab	0.037936848
132	0xbdc3b1d1	-0.095554
133	0xbce662d4	-0.028123297
134	0x3c7d91cb	0.015476654
135	0xbd42559a	-0.047444917
136	0x3d1b30d9	0.03788838
137	0x3de68b94	0.11257091
138	0xbe0fd9af	-0.14047883
139	0xbdb78b8c	-0.08962163
140	0xbdb3b0f7	-0.08773988
141	0xbbfaa01d	-0.0076484815
142	0xbca3d249	-0.019997733
143	0x3d49a7c1	0.04923225
144	0x3da19da3	0.07891395
145	0xbda51b41	-0.08061839
146	0x3dd7d4ad	0.105386116
147	0x3d85b1fc	0.065280885
148	0x3dd72542	0.10505153
149	0x3cb3b815	0.021938363
150	0xbdc2b8f7	-0.095079355
151	0xbcdf1bdd	-0.027234966
152	0x3c88e4a8	0.016710594
153	0xbdc6491c	-0.09681913
154	0x3d1987f9	0.03748319
155	0xbc7b9725	-0.01535586
156	0x3d07418a	0.033021487
157	0x3dc79071	0.09744347
158	0xbd8159c4	-0.063159496
159	0xbdd6072d	-0.104505874
160	0xbd3e4d03	-0.046460163
161	0x3d86b806	0.065780684
162	0xbd2c08d3	-0.042000603
163	0x3d8aefaa	0.067839935
164	0x3df75bef	0.12078082
165	0xbcd7ea93	-0.02635697
166	0x3b989b99	0.0046572206
167	0xbd41ffbd	-0.04736303
168	0xbdb767b0	-0.08955324
169	0xbe1b58d0	-0.15170598
170	0x3dd8b6ac	0.10581717
171	0xbdeedd4c	-0.11663303
172	0x3dc16be7	0.09444409
173	0xbd5fd0e9	-0.05464259
174	0xbd36f0ee	-0.044663362
175	0xbced27d0	-0.028949648
176	0x3c9c4b8a	0.019078989
177	0xbd939b70	-0.07207382
178	0xbd6f7cc4	-0.058468595
179	0x3db28282	0.08716299
180	0x3d66b58d	0.056325484
181	0xbce2e9aa	-0.02769931
182	0x3d0b8993	0.034066748
183	0xbd0c2494	-0.03421457
184	0x3db85d8a	0.09002216
185	0xbc47f856	-0.012205204
186	0x3daac46f	0.08338248
187	0xbd621198	-0.05519256
188	0x3c5d3aaa	0.013502756
189	0x3bc6422b	0.0060503683
190	0xbdf9a856	-0.12190311
191	0xbd41698e	-0.047219805
192	0xbdd1adc2	-0.1023822
193	0xbd0d807a	-0.034546353
194	0xbd38a14c	-0.0450757
195	0x3d10ff3c	0.03539966
196	0x3924814a	0.00015688423
197	0xbdb62a8f	-0.08894836
198	0x3d3d4286	0.04620602
199	0x3dab83ff	0.08374786
200	0xbd2dc8b7	-0.042427745
201	0xbdaca6b6	-0.08430235
202	0x3d924973	0.071429156
203	0xbdb5f1ee	-0.08884035
204	0x3dbac596	0.09119718
205	0x3d2b1bd2	0.04177458
206	0x3d9f3b6c	0.07775006
207	0x3d367086	0.044540904
208	0xbdcbd68a	-0.099530295
209	0x3d9dc92d	0.07704387
210	0x3ccd7645	0.02508081
211	0xbca6ba35	-0.020352462
212	0xbd539bc0	-0.051662207
213	0x3d9380c9	0.07202298
214	0x3b6d4f55	0.0036210616
215	0xbc32c248	-0.010910578
216	0x3da6851b	0.081308566
217	0x3dba0a78	0.09084028
218	0xbd46f318	-0.048571676
219	0xbdc9f6c7	-0.09861522
220	0xbd9ea0a2	-0.07745482
221	0x3d92aa48	0.07161385
222	0x3d9a1074	0.075226694
223	0x3c584f89	0.013202556
224	0xbd2dc414	-0.042423323
225	0x3da0113a	0.07815786
226	0x3d8d5968	0.069018185
227	0x3db205ee	0.08692537
228	0x3c977bf1	0.018491717
229	0x3d5f980d	0.054588366
230	0xbd8f657f	-0.07001781
231	0x3d7cebce	0.06174832
232	0x3ddb7cb6	0.10717146
233	0x3d8171e5	0.06320552
234	0x3e076780	0.13223076
235	0x3d7e4e0a	0.062086143
236	0x3dbe3a74	0.09288493
237	0x3d658fc6	0.056045316
238	0x3dbc2f6c	0.091887325
239	0x3d0cee88	0.03440717
240	0x3dc95366	0.0983036
241	0x3d32ef5c	0.043685302
242	0x3dbb853b	0.09156271
243	0x3b8de9fa	0.0043308707
244	0xbd6e9eea	-0.05825702
245	0xbd14e778	-0.03635356
246	0x3db18165	0.08667258
247	0x3d4edaf8	0.050501794
248	0xbd9b254a	-0.07575472
249	0xbd25ee76	-0.040510617
250	0xbd995699	-0.0748722
251	0xbdbc357d	-0.091898896
252	0x3c8ff042	0.017570619
253	0xbdaad086	-0.08340554
254	0x3d860786	0.06544404
255	0x3db63c0e	0.08898173

lstm.weight_hh_l0 f4 [256, 64]
0	0xbdc75fb2	-0.09735049
1	0x3cb8cb0f	0.022557763
2	0xbd416604	-0.04721643
3	0x3d6a9a55	0.05727609
4	0xbc95dd1d	-0.018293912
5	0x3decdf8e	0.11566077
6	0x3ddf81f2	0.10913457
7	0x3dbe9323	0.09305408
8	0x3d82bf49	0.06384141
9	0xbdb9a9bc	-0.090655774
10	0x3df455ba	0.119304135
11	0xbd2718d8	-0.040795177
12	0xbd6ab520	-0.05730164
13	0x3e08cc86	0.1335927
14	0xbd4e1d3e	-0.050320856
15	0x3d3719a0	0.044702172
16	0x3d365b1f	0.044520494
17	0x3da1c46b	0.07898792
18	0x3d2f418b	0.042787116
19	0x3d8027ab	0.06257566
20	0xbd5fa6e8	-0.054602534
21	0x3d2503bf	0.040286776
22	0x3decae17	0.115566425
23	0xbdf8b024	-0.12142971
24	0xbd44fa33	-0.04809017
25	0xbd36f59e	-0.044667833
26	0xbd4d9ab9	-0.050196383
27	0x3d8dc963	0.06923177
28	0x3e0a8e8c	0.1353094
29	0xbb10e74f	-0.0022110527
30	0x3d99b83c	0.07505843
31	0x3d95a64e	0.07307111
32	0xbdb4fb07	-0.08836942
33	0x3dc31883	0.095261596
34	0x3da1a1c8	0.078921854
35	0xbdb3945b	-0.08768531
36	0xbd279e43	-0.040922415
37	0x3c765ecc	0.01503725
38	0x3a820f09	0.0009922694
39	0x3d9ec678	0.07752699
40	0x3c8ac6e1	0.016940536
41	0xbd9a7ac4	-0.07542947
42	0xbdad110c	-0.08450517
43	0x3df2d7c6	0.11857562
44	0xbd935b19	-0.0719511
45	0x3d498330	0.049197376
46	0xbdac6d64	-0.08419302
47	0x3d9fe439	0.07807202
48	0xbd7704bd	-0.060307253
49	0xbb2cf001	-0.002638817
50	0xbd10da63	-0.03536452
51	0xbd45865f	-0.04822385
52	0xbdbd3cf0	-0.092401385
53	0x3dd08bc9	0.10182912
54	0x3d21a5e2	0.03946484
55	0x3dda18dd	0.106492735
56	0xbd00f79b	-0.031486135
57	0xbd95726d	-0.072972156
58	0x3dc33d46	0.09533171
59	0xbda178e5	-0.07884387
60	0x3cd1f096	0.025627416
61	0x3df777df	0.120834105
62	0x3db070e3	0.086152814
63	0x3dd70c33	0.10500374
64	0x3da93ba5	0.082633294
65	0x3d90b485	0.07065681
66	0x3dbf18a4	0.09330872
67	0x3d5671bc	0.05235456
68	0xbdd7815a	-0.10522719
69	0x3cc5c006	0.024139415
70	0x3d7ca1f7	0.0616779
71	0x3dd9be25	0.1063197
72	0x3d6b8a5b	0.057504993
73	0x3c34800e	0.011016859
74	0x3d347c51	0.04406387
75	0x3de65b16	0.11247842
76	0xbd3c5009	-0.045974765
77	0x3df07d58	0.117426574
78	0x3dfc1f74	0.12310687
79	0xbe01b90d	-0.12668248
80	0x3d8d30bc	0.06894061
81	0xbdceca90	-0.100972295
82	0xbd5445ab	-0.051824253
83	0xbdd7a447	-0.1052938
84	0xbd85e22f	-0.06537282
85	0xbd92f7c7	-0.07176166
86	0x3e059047	0.13043319
87	0x3c62641e	0.013817815
88	0xbdc353d3	-0.095374726
89	0x3d4eb964	0.05046977
90	0x3e06c268	0.13160098
91	0x3d84632b	0.06464227
92	0xbd95cad9	-0.07314081
93	0x3dc18fb8	0.0945124
94	0x3d5db80d	0.054130603
95	0xbd912272	-0.07086648
96	0x3c9d0d97	0.01917152
97	0x3dd8a496	0.10578267
98	0xbdb293fb	-0.08719631
99	0xbdbc536f	-0.09195601
100	0x3dbbf78e	0.09178077
101	0xbd897b5d	-0.06712983
102	0x3c95a428	0.018266752
103	0x3c44295a	0.01197275
104	0x3d7e4e9c	0.062086686
105	0x3d706e3a	0.05869887
106	0x3d45ffc4	0.04833962
107	0x3dd2cbea	0.102928
108	0x3d6e649c	0.058201417
109	0x3df3c6b3	0.11903133
110	0xbc72f806	-0.014829641
111	0xbe09d39e	-0.13459632
112	0x3d320d26	0.04346957
113	0x3d9380b2	0.07202281
114	0x3ddc0d40	0.10744715
115	0xbd50425f	-0.050844546
116	0xbd631648	-0.05544117
117	0x3d425daa	0.047452606
118	0x3dd40efd	0.10354421
119	0x3b76802e	0.0037613022
120	0xbd1008d0	-0.035164654
121	0x3d2c2468	0.042026907
122	0xbde79c4a	-0.11309107
123	0xbce056df	-0.027385173
124	0xbd99c430	-0.07508123
125	0x3dcb7645	0.099346675
126	0x3d225121	0.03962815
127	0x3ce8cf24	0.028419085
128	0x3d340866	0.043953322
129	0xbd96aca1	-0.07357145
130	0xbdb8976e	-0.09013258
131	0x3c02d053	0.007984239
132	0xbde5253d	-0.11188743
133	0xbc562ff8	-0.01307296
134	0x3c8a2107	0.016861452
135	0x3c86fa90	0.0164769
136	0xbdad81cc	-0.084720224
137	0x3d627f39	0.05529711
138	0xbd25de4f	-0.040495213
139	0x3dd54d90	0.104151845
140	0x3db43e6e	0.0880097
141	0x3d7726e4	0.060339823
142	0x3cd38a9a	0.025822926
143	0x3bca153f	0.0061670835
144	0xbcefdf65	-0.029281328
145	0xbe0b0894	-0.13577491
146	0xbde5cad1	-0.11220325
147	0x3d95a7e0	0.0730741
148	0xbcd58290	-0.026063234
149	0x3d13a54d	0.036046315
150	0xbc5a3c0a	-0.0133199785
151	0x3d8191c6	0.06326632
152	0xbd8d8cf8	-0.06911653
153	0x3d62ebbd	0.0554006
154	0x3d416c19	0.04722223
155	0x3ccf1b5c	0.0252816
156	0xbd967bc7	-0.073478274
157	0x3dc96624	0.09833935
158	0x3c51183a	0.012762124
159	0x3d9457fd	0.07243345
160	0x3c6eae42	0.0145679135
161	0xbd6600dc	-0.056153163
162	0x3df74693	0.12074008
163	0xbc381fa5	-0.011238013
164	0xbd13a928	-0.03604999
165	0xbd55da10	-0.052209914
166	0x3c8e2a12	0.017354045
167	0x3dfebae9	0.12437994
168	0x3ca842bd	0.020539636
169	0x3e064b57	0.13114677
170	0xbddcc7b1	-0.107802756
171	0x3da7faba	0.08202119
172	0x3dcbad78	0.09945196
173	0xbe033b58	-0.12815607
174	0x3dd6efed	0.10494981
175	0x3db25172	0.08706941
176	0xbd46d26b	-0.048540514
177	0xbd34d136	-0.04414483
178	0xbdb5d7fa	-0.08879085
179	0x3d7dfc35	0.0620081
180	0x3ddfac05	0.10921482
181	0xb93a179b	-0.00017747136
182	0xbdd7b85f	-0.10533213
183	0xbd926dc2	-0.07149841
184	0x3dc635aa	0.09678204
185	0xbc5fc1e2	-0.013657065
186	0xbdbf5bae	-0.093436584
187	0xbc4b8fa4	-0.012424383
188	0xbdead6b1	-0.114667304
189	0x3d3d9406	0.046283744
190	0xbdafbd17	-0.08580988
191	0xbdf04f8e	-0.11733924
192	0x3c660a87	0.014040596
193	0x3dccf602	0.1000786
194	0x3d8b833b	0.068121396
195	0xbd271574	-0.040791944
196	0x3da4a0af	0.080384605
197	0x3d93072e	0.07179104
198	0xbc7669bc	-0.0150398575
199	0xbdfd33e9	-0.12363417
200	0xbda89603	-0.082317375
201	0x3ddee60e	0.10883723
202	0xbd3fc4ab	-0.046818417
203	0xbd7d7981	-0.061883453
204	0x3c1e2946	0.009653395
205	0xbd1ae38c	-0.03781466
206	0xbdac558d	-0.08414755
207	0xbd5c9fb0	-0.053863227
208	0x3da33bd7	0.07970398
209	0x3d9db474	0.07700434
210	0x3d797773	0.06090493
211	0xbd7e4822	-0.06208051
212	0x3db5c816	0.08876054
213	0xbd4a64c6	-0.04941251
214	0xbc31111e	-0.010807304
215	0xbcc78237	-0.024354083
216	0x3da5b138	0.080904424
217	0x3dc95d71	0.09832276
218	0xbda41c79	-0.08013243
219	0xbd80c6c1	-0.06287909
220	0x3dff39d2	0.124622
221	0x3d6ff3f7	0.058582272
222	0x3d68dbad	0.056850124
223	0x3d8ac198	0.06775206
224	0xbd845fbc	-0.064635724
225	0xbd839dd3	-0.06426587
226	0x3d7ebbcb	0.062190812
227	0x3b9f8da2	0.004869179
228	0x3c20ae38	0.009807162
229	0x3daf7c5e	0.08568643
230	0xbde222fb	-0.11041828
231	0x3d490190	0.049073756
232	0x3df1dc48	0.118095934
233	0xbdd8a03c	-0.10577437
234	0xbd59fad7	-0.053217735
235	0x3dcaa503	0.09894755
236	0xbc02c757	-0.007982097
237	0x3dbba2c1	0.09161902
238	0x3d3414b6	0.043965064
239	0x3df7a323	0.12091663
240	0x3d9cfd62	0.076655164
241	0x3d845b3e	0.064627156
242	0x3db35998	0.08757323
243	0xbdf3c442	-0.119026676
244	0x3dc16f0d	0.094450094
245	0x3cee685a	0.029102493
246	0x3a811696	0.000984865
247	0x3d8470f8	0.064668596
248	0x3d64e4b0	0.055882156
249	0xbd67825b	-0.0565208
250	0xbdcbdc21	-0.09954096
251	0xbdf25e71	-0.118344195
252	0xbca3f791	-0.02001551
253	0x3d944663	0.07239988
254	0x3d3c1cc3	0.045925867
255	0x3d05793b	0.032586318

lstm.bias_ih_l0 f4 [256]
0	0x3d869989	0.06572253
1	0x3d98e6be	0.074658856
2	0x3e086ffb	0.13323967
3	0xbc420836	-0.011842778
4	0xbdc95df3	-0.098323725
5	0x3df4c515	0.11951653
6	0xbcacb5a7	-0.021082712
7	0xbdb2c563	-0.08729055
8	0xba1bbaca	-0.00059406145
9	0xbc3523c8	-0.011055894
10	0x3ccf5c68	0.025312617
11	0xbdce7bf2	-0.100822344
12	0x3dcf659b	0.101268016
13	0x3d9478c2	0.07249595
14	0xbd9c0fdc	-0.076202124
15	0xbd841d67	-0.064509206
16	0xbd4f11af	-0.050553974
17	0x3ded13be	0.11576031
18	0x3b690660	0.0035556778
19	0x3c456341	0.01204759
20	0x3d6f7c02	0.058467872
21	0x3def688e	0.11689864
22	0xbc045906	-0.0080778655
23	0x3e05cb9f	0.13065957
24	0xbcf39bdb	-0.029737404
25	0xbdb4beee	-0.088254794
26	0x3d0cecd4	0.034405544
27	0x3dd36c98	0.10323447
28	0xbc4d9180	-0.012546897
29	0x3d7c50cd	0.061600495
30	0x3d922ad5	0.07137076
31	0x3d0b3d1b	0.03399382
32	0x3d6b1526	0.057393216
33	0x3daf3082	0.08554174
34	0x3d877110	0.06613362
35	0x3d214376	0.039370976
36	0xbc01659e	-0.007897763
37	0xbd8f56f2	-0.069990054
38	0xbdaccfdb	-0.08438083
39	0x3d1e0262	0.03857649
40	0x3d1a09cf	0.03760701
41	0x3d2bae53	0.041914295
42	0x3ddd0d8a	0.10793598
43	0xbe030a77	-0.12796961
44	0x3cf4810a	0.029846687
45	0x3d71e501	0.059056286
46	0x3dacf97d	0.084460236
47	0xbca19319	-0.019723462
48	0x3d6bf637	0.057607856
49	0xbd52306d	-0.051315714
50	0xbd52d897	-0.051476087
51	0xbda11c4b	-0.078667246
52	0x3dbf2f47	0.09335189
53	0xbda52dbb	-0.08065363
54	0x3bcdaa12	0.0062763775
55	0x3df9744c	0.12180385
56	0xbdb189c0	-0.08668852
57	0x3dace5ca	0.08442266
58	0xbd0d272f	-0.034461197
59	0x3cf83853	0.030300295
60	0x3dd12e75	0.10213939
61	0xbdc732cb	-0.09726485
62	0xbd292908	-0.041298896
63	0x3d79d91e	0.060998075
64	0xbdc1c876	-0.09462063
65	0xbdd5e4ca	-0.10444029
66	0x3d30129a	0.04298649
67	0xbc7ce1f9	-0.015434735
68	0x3e02c40f	0.12770103
69	0x3dc0c147	0.09411865
70	0x3d987c6b	0.07445606
71	0xbd1f4b7f	-0.038890358
72	0x3d1f58eb	0.03890316
73	0xbd81fe0b	-0.06347283
74	0x3d97c07f	0.074097626
75	0xbd89d7d6	-0.067306206
76	0xbda1b150	-0.07895148
77	0x3e124d4c	0.14287299
78	0xbd412e67	-0.047163393
79	0x3dc469dd	0.09590504
80	0xbc94ef4a	-0.018180508
81	0x3e1b0441	0.15138341
82	0xbd679e7f	-0.056547638
83	0xbd82c2f5	-0.06384841
84	0x3ca30f88	0.019904867
85	0x3dae6de5	0.085170545
86	0xbde7aac5	-0.113118686
87	0xbda30870	-0.07960594
88	0x3c38873b	0.01126271
89	0xbd931341	-0.07181407
90	0x3ce8e5c7	0.028429879
91	0xbde6436f	-0.11243331
92	0xbdb0dcbe	-0.08635853
93	0x3dd21d51	0.10259498
94	0xbd81ae4d	-0.06332073
95	0x3d942b57	0.07234829
96	0x3dc4df3d	0.09612892
97	0x3c5b4ef3	0.013385522
98	0xbd4a99c2	-0.04946304
99	0xbd882cc1	-0.06649161
100	0xbc922067	-0.017837716
101	0x3cb9d1b0	0.022682995
102	0xbe09149d	-0.1338677
103	0xbceed1c3	-0.029152757
104	0x3dbcac42	0.09212543
105	0x3d9095e7	0.070598416
106	0xbd57aa64	-0.05265273
107	0xbd82bb81	-0.0638342
108	0xbc4543b2	-0.012040066
109	0xbcb01782	-0.021495584
110	0xbd346a71	-0.044046823
111	0xbc0b1086	-0.008487826
112	0x3dd16cfc	0.10225865
113	0x3db15dfa	0.08660503
114	0x3c748b03	0.014925721
115	0x3ce52405	0.027971277
116	0xbc0f6b85	-0.008753662
117	0xbdcaf97d	-0.09910867
118	0x3c5575a1	0.013028533
119	0x3d11235a	0.035434105
120	0xbd977623	-0.0739558
121	0xbde30269	-0.11084444
122	0xbdb004f2	-0.08594693
123	0x3da593ad	0.080848075
124	0xbd96bb85	-0.07359985
125	0xbd5b913b	-0.0536053
126	0xbd7ead96	-0.062177263
127	0x3deda648	0.11603981
128	0xbca1e388	-0.019761816
129	0x3cc1cf3b	0.023658386
130	0x3e0a54e7	0.1350895
131	0x3d4c9f78	0.04995677
132	0xbdf7e3f2	-0.12104024
133	0x3e16c694	0.14724189
134	0x3da365a0	0.07978368
135	0xbd92e420	-0.07172418
136	0x3d0f3133	0.03495903
137	0xba05ef1b	-0.0005109177
138	0xbd77dac9	-0.060511384
139	0xbd8e0c0d	-0.06935892
140	0xbd918d1a	-0.07106991
141	0xbcfe4262	-0.031037513
142	0x3e24403f	0.16040133
143	0x3cb7e337	0.022447212
144	0xbaee70fe	-0.0018191633
145	0xbd04e13f	-0.032441374
146	0xbd0ddca8	-0.034634262
147	0x3cd4d70c	0.025981449
148	0xbdf194fb	-0.11795994
149	0xbc09e4cc	-0.008416366
150	0x3e006e97	0.12542187
151	0x3dd661f7	0.10467904
152	0x3acfb3ba	0.0015846409
153	0x3d9e43bf	0.07727765
154	0x3dcb1ca6	0.09917574
155	0xbb83d849	-0.004023586
156	0xbdc14a3d	-0.09437988
157	0xbc14359f	-0.009045987
158	0xbbd15f84	-0.00638956
159	0x3c7fff3e	0.015624819
160	0xbd64c9f6	-0.055856667
161	0x3e1d9e55	0.1539243
162	0x3d304393	0.043033194
163	0x3d930156	0.07177989
164	0x3d036119	0.03207502
165	0xbbf9d19b	-0.007623864
166	0x3de6f965	0.11278037
167	0xbd872a38	-0.065998495
168	0xbc141438	-0.009038024
169	0xbc98eb39	-0.01866685
170	0xbd9c6d14	-0.076379925
171	0x3de37bd2	0.11107601
172	0xbdbb33ce	-0.0914074
173	0xbd858308	-0.06519133
174	0x3d95a827	0.07307463
175	0xbdfe7a9b	-0.12425729
176	0xbb9b32a5	-0.004736262
177	0x3dec3416	0.11533372
178	0xbd6211bf	-0.055192705
179	0xbd48add9	-0.04899392
180	0x3dd1fa68	0.10252839
181	0x3e01f4c4	0.12691027
182	0xbdc0db05	-0.09416775
183	0x3b50c4e1	0.003185563
184	0xbdd0910a	-0.10183914
185	0xbe216bf3	-0.15763836
186	0xbcf33956	-0.029690426
187	0x3def1c5a	0.116753295
188	0x3d695015	0.056961138
189	0xbccfb2e5	-0.025353858
190	0xbdbfb17f	-0.093600266
191	0xbd703ff5	-0.058654744
192	0xbd99c20c	-0.07507715
193	0xbdaffac8	-0.085927546
194	0xbda1da9a	-0.07903023
195	0xbdee0303	-0.11621668
196	0x3e0a3f73	0.13500766
197	0xbdb232a2	-0.08701064
198	0xbb3e260f	-0.0029014384
199	0x39cdf4b8	0.00039282977
200	0x3d9a8cac	0.07546362
201	0x3c0b50a0	0.008503109
202	0x3e1e8218	0.15479314
203	0x3e00e051	0.1258557
204	0xbd2703e0	-0.04077518
205	0x3e03eb67	0.12882768
206	0xbcbabbc1	-0.022794606
207	0x3da625e8	0.08112699
208	0xbc6261ab	-0.013817231
209	0x3cba896b	0.022770604
210	0x3d05c69a	0.032660104
211	0xbd3e7e80	-0.04650736
212	0xbd4844e4	-0.048893824
213	0xbcf31e99	-0.029677676
214	0x3bce769e	0.0063007614
215	0xbc82a3af	-0.015947191
216	0xbd00bb8e	-0.031428866
217	0x3d4f8c6f	0.050671037
218	0xbda67ba3	-0.081290506
219	0x3df55143	0.1197839
220	0x3d5a03d1	0.053226296
221	0x3e067b93	0.13133077
222	0x3c201492	0.009770529
223	0xbd6fd467	-0.058552172
224	0x3d79dae9	0.060999785
225	0xbd9307e2	-0.07179238
226	0x3cefd64f	0.029276995
227	0xbd1422b7	-0.03616592
228	0x3d9ef190	0.07760918
229	0xbdac679d	-0.084182
230	0x3d8f5095	0.06997792
231	0x3d8d3c9c	0.06896326
232	0x3d58a6b9	0.052893374
233	0xbbffa9f4	-0.0078022424
234	0x3d7b09e6	0.061288737
235	0x3dce8eb7	0.100858144
236	0xbde71b87	-0.11284547
237	0xbdd43d51	-0.10363258
238	0x3da5e90d	0.081010915
239	0x3dbb4cb7	0.091454916
240	0xbc0402b0	-0.008057281
241	0xbb634100	-0.0034676194
242	0xbbe71759	-0.007052344
243	0x3dd4a3c2	0.10382797
244	0x3ce7aa02	0.028279308
245	0xbd84c02b	-0.06481966
246	0xbd85b674	-0.06528941
247	0xbcc9eb0d	-0.024648214
248	0x3da68a14	0.08131805
249	0x3de13bd6	0.10997741
250	0xbc18a3d5	-0.009316404
251	0xbd8f610a	-0.070009306
252	0xbdadb4ee	-0.08481775
253	0x3d59e854	0.05320008
254	0x3d95b5c9	0.073100634
255	0x3d4d537e	0.050128452

lstm.bias_hh_l0 f4 [256]
0	0xbda1a013	-0.0789186
1	0xbcd05689	-0.025431888
2	0x3df9b379	0.12192435
3	0xbc99efbc	-0.018791072
4	0xbdc4bd43	-0.09606411
5	0x3cc935f2	0.024561856
6	0xbc8714d4	-0.016489424
7	0x3ca41186	0.020027887
8	0xbdb6fa6d	-0.08934484
9	0x3b873914	0.0041266773
10	0x3bce5532	0.006296777
11	0x3e0fa96e	0.14029476
12	0x3de508fc	0.11183354
13	0x3d851093	0.06497302
14	0xbd8e8050	-0.069580674
15	0xbde089f3	-0.10963812
16	0x3d898b0c	0.06715974
17	0xbdc2ddd1	-0.09514964
18	0xbd398115	-0.045289118
19	0x3c1d0040	0.009582579
20	0xbdc4c105	-0.09607128
21	0x3dcfd477	0.10147946
22	0x3d20c1de	0.039247386
23	0x3ca23b6d	0.019803727
24	0xbd788af5	-0.060679395
25	0x3d0b581d	0.03401958
26	0x3db7dfc1	0.089782245
27	0x3cbeb163	0.023277944
28	0xbc206edc	-0.009792056
29	0x3deb1e07	0.11480337
30	0xbc448e52	-0.011996822
31	0xbde7af95	-0.113127865
32	0x3dc0207d	0.09381197
33	0xbd405313	-0.046954226
34	0x3e1a8760	0.15090704
35	0x3c4279c5	0.011869852
36	0xbda33228	-0.07968551
37	0xbdae8b20	-0.0852263
38	0xba1f237a	-0.0006070655
39	0xbd30404f	-0.04303008
40	0x3d194130	0.037415683
41	0xbd115778	-0.035483807
42	0x3c785494	0.015156884
43	0xbde2a6b1	-0.1106695
44	0x3d9764fc	0.07392308
45	0x3d57cc7d	0.05268525
46	0xbd77ca03	-0.060495388
47	0xbdbb6226	-0.0914958
48	0x3d08a651	0.033361737
49	0xbd8486fb	-0.06471058
50	0x3ddbb726	0.10728292
51	0x3c90c981	0.01767421
52	0x3d039f3d	0.032134283
53	0xbb0ff6d0	-0.002196718
54	0xbd3c68eb	-0.045998495
55	0x3d6b3ecd	0.05743294
56	0xbdd678d2	-0.104722634
57	0x3ccec31c	0.02523952
58	0xbd12e557	-0.035863247
59	0x3d355d0b	0.044278186
60	0xbdd50fe7	-0.10403424
61	0x3d8c7715	0.068586506
62	0xba432470	-0.0007444089
63	0x3d20b34d	0.039233495
64	0xbd0d095c	-0.034432754
65	0x3de2056e	0.11036192
66	0x3d99d0ff	0.07510566
67	0xbda0f5a6	-0.07859354
68	0xbc2bfb65	-0.010496949
69	0xbdb7e91d	-0.0898001
70	0xbd047ff7	-0.0323486
71	0x3cd9c3e4	0.026582666
72	0x3ce26ab5	0.027638773
73	0xbd0e2ff5	-0.034713704
74	0x3d9433c1	0.07236434
75	0xbd1ecf46	-0.03877189
76	0xbd85f8c3	-0.06541588
77	0xbc153cc4	-0.009108726
78	0xbd9748bb	-0.07386919
79	0xbd6c5040	-0.05769372
80	0xbd92871b	-0.071546756
81	0x3d08c06e	0.03338664
82	0x3dbc3913	0.091905735
83	0xbc182c50	-0.009287909
84	0x3def5a56	0.11687152
85	0xbd69a3a0	-0.05704081
86	0xbd611848	-0.054954797
87	0xbd0ee492	-0.03488595
88	0xbde2ad8e	-0.11068259
89	0xbcb3b8cd	-0.021938706
90	0x3d073168	0.0330061
91	0xbda6f824	-0.08152798
92	0xbddd00d0	-0.107911706
93	0xbdab0de2	-0.08352257
94	0xbc8647c9	-0.016391652
95	0xbd363aba	-0.0444896
96	0xbdbdb381	-0.09262753
97	0xbce6a525	-0.028154919
98	0x3da42490	0.08014786
99	0xbcc6cf06	-0.024268638
100	0x3d81bb65	0.06334571
101	0x3dbdc467	0.092659764
102	0x3b65872c	0.0035023196
103	0xbda36dba	-0.07979913
104	0xbd45a27a	-0.048250653
105	0xbda3e254	-0.08002153
106	0x3dc5264f	0.096264474
107	0xbe02d6a5	-0.12777193
108	0xbd1e471e	-0.03864204
109	0xbd3d9ee6	-0.046294115
110	0x3db7807d	0.08960054
111	0x3d11c4b6	0.03558799
112	0xbd828c06	-0.063743636
113	0xbc918e71	-0.017768117
114	0xbd05f02b	-0.032699745
115	0x3dc1c9f0	0.09462345
116	0x3dc8c93d	0.09804008
117	0x3c0705ed	0.008241159
118	0x3dd9e58d	0.106394865
119	0x3d19dfa8	0.03756681
120	0x3dc35783	0.09538176
121	0x3da58bf5	0.08083335
122	0xbb946db5	-0.0045296797
123	0xbd55f23b	-0.052232962
124	0x3ce213a0	0.027597249
125	0xbdb4b28b	-0.08823117
126	0x3d800c06	0.06252293
127	0x3db4fa81	0.08836842
128	0xbd43e64f	-0.04782706
129	0x3ca8318b	0.020531436
130	0xbd18f41c	-0.037342176
131	0xbd2b766a	-0.041860975
132	0xbdebc48c	-0.11512098
133	0xbbc1e51c	-0.0059172045
134	0xbe00ba91	-0.1257117
135	0x3dbe274a	0.092848375
136	0x3da78942	0.08180477
137	0x3d76ae82	0.060225017
138	0xbe246752	-0.16055039
139	0x3df13ffc	0.11779782
140	0x3df063bb	0.11737772
141	0xbda5ce4e	-0.0809599
142	0xbd431be8	-0.047634035
143	0xbdbf5a81	-0.09343434
144	0x3ded8cee	0.11599146
145	0x3da3c730	0.079969764
146	0xbd820738	-0.06349033
147	0xbe0f6edc	-0.14007133
148	0xbe2ae39e	-0.16688392
149	0x3de24dbc	0.11049983
150	0x3e0980ec	0.13428086
151	0x3d5be77a	0.05368755
152	0xbde2aa72	-0.11067666
153	0xbd73cdb9	-0.059522364
154	0x3e0cf94b	0.13766973
155	0x3d8b6e33	0.06808128
156	0xbce6704d	-0.028129721
157	0xbaba2afb	-0.0014203483
158	0xbd92e77a	-0.07173057
159	0x3d90edd2	0.070766106
160	0xbd39b366	-0.045337103
161	0x3df2ad3a	0.118494466
162	0xbd8515c7	-0.06498294
163	0x3d25609e	0.040375344
164	0x3cb6af6e	0.022300448
165	0x3d1df61e	0.038564794
166	0xbd240d13	-0.04005153
167	0x3df5e056	0.12005679
168	0x3d158190	0.036500514
169	0x3e2295d5	0.15877469
170	0x3daa1d95	0.083064236
171	0x3cd14181	0.02554393
172	0x3e03e9e1	0.12882186
173	0xbdf18291	-0.11792482
174	0xbdfe8951	-0.12428535
175	0x3d1249d0	0.035714924
176	0xbe0f4d03	-0.13994221
177	0xbdb0b434	-0.08628121
178	0xbd827c4f	-0.06371366
179	0x3c4f8135	0.012665083
180	0x3d982ee4	0.07430819
181	0x3d8b845e	0.068123564
182	0xbdd6e4f0	-0.10492885
183	0x3d4ce880	0.050026417
184	0x3dbce26f	0.09222876
185	0x3d3dc907	0.046334293
186	0x3ca24943	0.019810325
187	0x3cae01e5	0.021241138
188	0x3dc95cd3	0.09832158
189	0xbe0c5ddf	-0.13707684
190	0xbdc7f721	-0.09763933
191	0xbdd356d1	-0.10319293
192	0x3dcf0e20	0.10110116
193	0x3e052dc1	0.13005735
194	0x3de7e52e	0.113230094
195	0xbdb7aa26	-0.08968
196	0xbd74b327	-0.059741165
197	0xbd4531b0	-0.04814309
198	0xbdd6385a	-0.10459967
199	0x3df1264b	0.11774882
200	0x3d51f56a	0.051259436
201	0x3dc12afa	0.09432025
202	0x3dbbe8a5	0.09175233
203	0xbddfeaac	-0.10933432
204	0x3c138e64	0.009006117
205	0xbd920d2b	-0.07131418
206	0x3d97a7d4	0.074050575
207	0xbdd2d13a	-0.10293813
208	0x3d6fb3b5	0.05852099
209	0xbdba9253	-0.091099404
210	0x3bd0f825	0.0063772374
211	0xbd9194f0	-0.07108486
212	0x3d08fd6a	0.0334448
213	0x3ca143a9	0.019685583
214	0x3d8bc08d	0.068238355
215	0x3d4aba58	0.049494117
216	0x3b80b79c	0.003928138
217	0x3d8b86dc	0.06812832
218	0x3d228ee6	0.03968706
219	0x3d8563b0	0.065131545
220	0xbdc07afc	-0.093984574
221	0xbde4f1b0	-0.11178911
222	0x3c15c5f2	0.009141432
223	0x3bbffb6d	0.0058588297
224	0xbd304417	-0.043033686
225	0xbc2f5bfa	-0.010703081
226	0x3e273388	0.16328251
227	0xbd0ca55c	-0.034337386
228	0x3c685147	0.014179534
229	0x3da6f74c	0.08152637
230	0xbe09f04c	-0.13470572
231	0xbd9147f3	-0.07093801
232	0xbdc81004	-0.0976868
233	0xbd4b0513	-0.049565386
234	0x3d93633a	0.0719666
235	0x3b3deebc	0.0028981408
236	0x3cc4ae8a	0.024009008
237	0x3d2b7874	0.04186292
238	0xbd6281f1	-0.055299703
239	0x3de59b31	0.11211241
240	0xbca9b43d	-0.020715827
241	0xbdb2bbb5	-0.087272085
242	0x3d88c90c	0.06678972
243	0x3dcc265d	0.09968255
244	0x3e16ec87	0.14738666
245	0xbd5ae900	-0.053444862
246	0x3d44f588	0.04808572
247	0xbdb78f15	-0.089628376
248	0xbd480028	-0.048828274
249	0x3d8d1a15	0.068897404
250	0xbd733373	-0.059375238
251	0xbd32d980	-0.043664455
252	0x3e080433	0.13282852
253	0xbddabf88	-0.10681063
254	0xbdddb5f2	-0.10825719
255	0x3d7c963e	0.06166672

fc1.weight f4 [32, 64]
0	0xbd1d4a0e	-0.038400702
1	0x3db62cca	0.088952616
2	0xbda25dff	-0.079280846
3	0xbd899fa0	-0.06719899
4	0xbdc286cf	-0.09498369
5	0xbda92539	-0.08259053
6	0xbc4c9531	-0.012486742
7	0xbc1d0549	-0.00958378
8	0x3da0d3d6	0.078529045
9	0x3d42cc45	0.047558088
10	0x3d1b455a	0.037907936
11	0xbd22c98d	-0.039742995
12	0x3cdf2d15	0.027243176
13	0x3cd93200	0.0265131
14	0xbd7e3449	-0.06206158
15	0x3d929980	0.07158184
16	0xbc1ddc30	-0.009635016
17	0x3d8ff1ce	0.070285425
18	0xbdde4364	-0.108526975
19	0xbdb06bc6	-0.08614306
20	0x3d3051e6	0.043046854
21	0xbdb6b8a2	-0.08921935
22	0xbdb96ed1	-0.0905434
23	0xbd908d56	-0.07058208
24	0xbe04a371	-0.12952973
25	0x3d902155	0.070376076
26	0xbd234b11	-0.03986651
27	0x3de7b386	0.11313538
28	0x3c13b2f5	0.009014835
29	0x3cc41d27	0.023939682
30	0x3ca74b78	0.020421728
31	0xbdd974d0	-0.10617983
32	0xbddb4d8f	-0.107081525
33	0x3df7b2dc	0.120946616
34	0x3c97ab38	0.01851426
35	0xbd701352	-0.058612175
36	0x3deb6cb8	0.11495346
37	0x3d034dde	0.03205668
38	0xbdfc4d5c	-0.12319443
39	0xbd334892	-0.04377038
40	0x3d7a819b	0.061158758
41	0x3dd58527	0.104257874
42	0xbda50b41	-0.08058787
43	0x3cdb557d	0.026774162
44	0x3c7e358f	0.015515699
45	0x3e0f9d34	0.14024812
46	0xbc873eef	-0.016509501
47	0xbe1465f7	-0.14492022
48	0xbbdbd305	-0.006708505
49	0xbd2bb7d4	-0.04192336
50	0x3da4d52c	0.08048472
51	0xbdac8012	-0.08422865
52	0x3e072339	0.1319703
53	0x3d7bdddf	0.06149089
54	0xbcb57719	-0.022151517
55	0xbdc7fe60	-0.09765315
56	0x3d39180b	0.045188945
57	0xbdc07906	-0.093980834
58	0x3d9806e4	0.07423189
59	0xbd9610ad	-0.073273994
60	0xbcbfa3cd	-0.023393536
61	0xbd780870	-0.06055492
62	0x3d299354	0.04140027
63	0x3cf1bddb	0.029509475
64	0xbdafd559	-0.08585615
65	0xbdedc13f	-0.116091244
66	0x3da21ea4	0.079160005
67	0xbddf629c	-0.1090748
68	0x3d3939de	0.045221202
69	0x3c720b1c	0.0147731565
70	0xbd9d856f	-0.07691466
71	0x3c6cfad0	0.014464095
72	0xbd1011e2	-0.035173304
73	0x3db85f34	0.090025336
74	0x3e09357a	0.13399306
75	0x3d912bf1	0.07088459
76	0x3da234dd	0.07920239
77	0x3de5df60	0.11224246
78	0x3c059a5c	0.008154478
79	0xbdb5c8b4	-0.08876172
80	0x3d5ded62	0.054181464
81	0x3d1a37c6	0.037650846
82	0xbdbda534	-0.092600256
83	0xbcc6d88e	-0.024273183
84	0x3d9578dd	0.072984435
85	0xbda26012	-0.0792848
86	0x3da35150	0.079744935
87	0x3d68f612	0.056875296
88	0xbd5514f0	-0.05202192
89	0x3cadf559	0.021235155
90	0x3dd8a9de	0.105792746
91	0xbdf2d24d	-0.11856518
92	0x3d90bb67	0.07066994
93	0xbde3d0ae	-0.11123787
94	0x3d392fdb	0.045211654
95	0x3d3eec98	0.046612352
96	0xbdac2a1f	-0.084064715
97	0xbd1a5d0e	-0.0376864
98	0x3c6d834b	0.014496635
99	0x3c1bdac8	0.009512611
100	0x3dbfc9dc	0.093646735
101	0x3d4d48aa	0.050118126
102	0x3cf25b5e	0.029584583
103	0xbd870c10	-0.065940976
104	0xbdabf2f1	-0.08395947
105	0xbdbc1ae0	-0.091848135
106	0xbb9ba520	-0.004749909
107	0xbd927300	-0.07150841
108	0x3bbca6f8	0.005757209
109	0x3de31b65	0.110892095
110	0x3c989f4c	0.018630646
111	0xbd95d48e	-0.07315932
112	0xbdd33174	-0.10312167
113	0x3def667b	0.116894685
114	0xbde00c2a	-0.1093982
115	0x3ddc0847	0.10743766
116	0xbc6802cd	-0.014160824
117	0x3ded207c	0.115784615
118	0xbd618d94	-0.05506666
119	0x3db80473	0.089852236
120	0xbd3bf012	-0.045883246
121	0x3dfd6e5d	0.12374566
122	0xbd985aac	-0.07439169
123	0xbd719f08	-0.058989555
124	0x3d7d1af2	0.061793275
125	0xbe048db6	-0.12944683
126	0x3e0c1803	0.13681035
127	0xbda116e7	-0.078656964
128	0xbdba7609	-0.09104545
129	0xbdc5e171	-0.0966214
130	0xbd2644a5	-0.04059281
131	0x3cbf92fb	0.023385515
132	0xbbab9f25	-0.0052374774
133	0xbd921372	-0.07132615
134	0x3d63f747	0.055655744
135	0x3dacbdda	0.08434649
136	0xbd896de1	-0.06710411
137	0xbd6388bf	-0.055550333
138	0x3d4cfa8d	0.05004363
139	0x3c3714ed	0.011174423
140	0x3d121321	0.035662774
141	0x3e0687d8	0.13137758
142	0xbc803098	-0.015648171
143	0xbd8e4565	-0.0694683
144	0x3d9d9362	0.07694127
145	0xbd6cc996	-0.057809435
146	0xbdd0e392	-0.101996556
147	0x3d8b54d5	0.0680329
148	0xbda8bd2f	-0.08239209
149	0xbda97759	-0.08274717
150	0xbd543de5	-0.05181684
151	0x3c5f44e8	0.013627268
152	0xbdda88de	-0.106706366
153	0xbdf4b998	-0.11949462
154	0xbc836d3c	-0.016043298
155	0x3d50b4a9	0.05095354
156	0xbcb6d146	-0.022316586
157	0x3d8dd6ff	0.06925773
158	0x3da1d3aa	0.079017
159	0xbdbdabfd	-0.0926132
160	0xbd9c8982	-0.07643415
161	0x3d839169	0.06424219
162	0xbdb9456d	-0.09046445
163	0x3db7e23b	0.08978697
164	0xbc10435d	-0.008805123
165	0xbcc15e96	-0.023604672
166	0xbde8727e	-0.11349963
167	0xbd355bb2	-0.0442769
168	0xbc3de090	-0.011589184
169	0x3dc40d17	0.09572809
170	0xbd66cfb8	-0.05635044
171	0xbd2956ed	-0.041342665
172	0x3d8a03ac	0.067389816
173	0xbd478e36	-0.048719607
174	0x3dcfb225	0.101414
175	0xbde205bf	-0.11036252
176	0xbd8e5021	-0.06948877
177	0xbd727402	-0.059192665
178	0xbd5f747b	-0.054554444
179	0x3dd54b8f	0.10414802
180	0x3c7cccb9	0.015429669
181	0xbd4d825e	-0.050173156
182	0xbc885782	-0.01664329
183	0x3dc28d4f	0.09499609
184	0x3d4ceb4e	0.05002909
185	0x3e1edd98	0.15514219
186	0xbd99f5d2	-0.0751759
187	0xbd0308c5	-0.031990785
188	0x3d77d87d	0.060509194
189	0xbd845eae	-0.06463371
190	0xbd2185a0	-0.039434075
191	0x3d886ce8	0.06661397
192	0x3dd2ba50	0.102894425
193	0x3c6c23fb	0.014412875
194	0x3da9f3f0	0.082984805
195	0xbc11465a	-0.008866871
196	0x3d944b9b	0.07240983
197	0xbda63890	-0.08116257
198	0x3dcf5132	0.10122909
199	0xbb7df525	-0.0038750854
200	0xbde9d8b9	-0.1141829
201	0x3c4110db	0.011783804
202	0x3d5becfc	0.053692803
203	0xbdec478a	-0.115370825
204	0xbd6a10d4	-0.057144955
205	0xbe131d77	-0.14366709
206	0xbd361b86	-0.044459842
207	0x3da2dcf1	0.079522975
208	0xbd0bde06	-0.034147285
209	0x3de9b180	0.114108086
210	0x3cb4acfe	0.022055145
211	0x3c600984	0.013674144
212	0xbdf9a0c0	-0.12188864
213	0xbdf6785a	-0.12034674
214	0x3deffeb0	0.117185
215	0x3d6e45ff	0.058172222
216	0xbd56aeb6	-0.05241271
217	0x3ddb541d	0.10709403
218	0x3ce27b90	0.02764681
219	0xbd25117c	-0.040299878
220	0x3c9c6e58	0.019095585
221	0xbdac6446	-0.08417563
222	0x3dc7d97c	0.09758279
223	0xbcd739bb	-0.026272645
224	0x3d6e0edc	0.05811964
225	0x3deb5a6f	0.11491858
226	0x3d414d4e	0.047192864
227	0xbd6b3851	-0.057426754
228	0xbdd65777	-0.10465901
229	0xbcd03ecf	-0.025420574
230	0xbd56502f	-0.052322563
231	0x3d107045	0.03526332
232	0xbd91340d	-0.07090006
233	0x3cea4531	0.028597446
234	0x3ce38ced	0.02777716
235	0x3d632018	0.05545053
236	0x3dfe5221	0.124180086
237	0xbda1b369	-0.07895548
238	0x3e00513e	0.12530991
239	0xbdfe5676	-0.12418835
240	0xbd999b6d	-0.07500348
241	0x3d96a54f	0.07355749
242	0x3d8f207a	0.06988616
243	0x3c4c6d92	0.0124772955
244	0xbd9bd06e	-0.07608114
245	0x3df4b8e2	0.11949326
246	0x3d63155f	0.055440303
247	0x3d029294	0.03187807
248	0xbe0f740b	-0.1400911
249	0xbd4f4823	-0.050605904
250	0xbdbdee8e	-0.09274016
251	0xbc8d63b0	-0.017259449
252	0x3d5789bc	0.052621588
253	0xbd9640f8	-0.073366106
254	0xbe1a8a5e	-0.15091845
255	0xbe103224	-0.14081627

fc1.bias f4 [32]
0	0xbd9126ed	-0.07087503
1	0xbd966dc5	-0.073451556
2	0x3dade336	0.08490603
3	0x3e0be8e5	0.13663061
4	0xbdf037eb	-0.117294155
5	0x3df3677e	0.11884974
6	0x3e0a7846	0.13522443
7	0xbdaf56b5	-0.0856146
8	0x3cea2535	0.028582195
9	0x3e08af3d	0.13348098
10	0xbd83e918	-0.064409435
11	0xbca1219b	-0.019669345
12	0x3cf05170	0.029335707
13	0xb9a83ac5	-0.00032087244
14	0xbd3b9cb7	-0.04580375
15	0xbd29a4a4	-0.04141678
16	0x3ce04fbc	0.02738177
17	0x3e05adcd	0.13054581
18	0xbda5b289	-0.080906935
19	0x3e050f84	0.129942
20	0xbe01fa67	-0.12693177
21	0x3db2616d	0.08709989
22	0x3d897d1a	0.06713314
23	0xbdde9970	-0.1086911
24	0xbd169b64	-0.036769286
25	0x3dd2a998	0.10286254
26	0xbd4837c8	-0.048881322
27	0xbde03d0a	-0.10949142
28	0x3bf1ef3d	0.0073832558
29	0x3ce05c55	0.027387777
30	0x3d3209fa	0.043466546
31	0x3ddd0f95	0.10793988

fc2.weight f4 [1, 32]
0	0xbe0a2382	-0.13490108
1	0x3dcbed54	0.09957376
2	0x3c7d30ff	0.015453576
3	0xbd9b615c	-0.07586929
4	0x3d968f2f	0.07351529
5	0xbe283460	-0.1642623
6	0xbe5e8415	-0.21730073
7	0x3dd357e3	0.103194974
8	0xbd873e5e	-0.066036925
9	0xbe21c314	-0.15797073
10	0xbd1dc9e0	-0.0385226
11	0x3e2bfe01	0.16796114
12	0x3d05b6be	0.03264498
13	0x3d9f1895	0.077683605
14	0xbd817ed5	-0.063230194
15	0xbe0d8c32	-0.13823012
16	0x3dd8847b	0.10572144
17	0xbddf892a	-0.10914834
18	0x3e4514b2	0.19246176
19	0xbe156dd0	-0.14592671
20	0xbd9212d5	-0.07132498
21	0xbd191e5a	-0.03738246
22	0xbd86425d	-0.065556265
23	0xbde3368e	-0.1109439
24	0xbd983b42	-0.074331775
25	0xbe01ba32	-0.12668684
26	0x3c8e3255	0.017357985
27	0x3dd15e7b	0.10223099
28	0x3b0654ba	0.0020497278
29	0xbdc26097	-0.09491079
30	0xbdabe1f3	-0.08392706
31	0x3e445125	0.19171579
