checkpoint_400.pth (torch, 450802 bytes, 8 tensors)

embedding.weight f4 [671, 100]
000000 b1 e9 d4 3e 88 2c 07 bf f5 a6 fb 3d 53 59 36 3f
       0.41584542 -0.52802324 0.12287704 0.7123005
000010 e6 51 fd be 93 78 a3 3f 8a 92 8c be f6 d2 29 3d
       -0.49476546 1.2771171 -0.2745555 0.041460954
000020 d8 f6 3d bf 68 f2 dc 3d 51 f9 9a 3f d0 82 39 3e
       -0.7420478 0.10788423 1.2107335 0.18116307
000030 78 01 41 bf 4a 9d 20 3f a0 eb eb bf 04 b7 58 bd
       -0.75392866 0.62740004 -1.8431282 -0.052908912
000040 66 c8 90 3f 37 68 83 3f 4f 36 7e 3a b5 28 ca 3f
       1.1311157 1.0266179 0.00096974237 1.5793673
000050 4d 38 11 c0 20 1f b7 bf 8e e1 0a bf 60 e6 cf be
       -2.2690613 -1.4306374 -0.5425042 -0.4060545
000060 b5 4f 5b bf 4a 14 13 40 f3 91 06 bd 9d b9 21 3f
       -0.856685 2.2981133 -0.03285403 0.6317385
000070 5a dd 1d be 76 56 52 bf 0e 26 64 3f 78 e1 f7 bf
       -0.1541647 -0.8216318 0.89120567 -1.9365683
000080 cd b4 c2 3e 79 85 97 b9 70 95 69 3d 08 ff 8b bf
       0.38028565 -0.0002890041 0.05702728 -1.0937204
000090 e7 f3 14 bf 91 ca a2 be 72 df 61 3e 29 7d 84 3f
       -0.58184665 -0.3179517 0.22057894 1.0350696
0000a0 f6 38 b8 be 14 70 a2 3f a0 52 31 bf 12 0d ee be
       -0.35980958 1.2690454 -0.692667 -0.46494347
0000b0 b7 c5 20 40 bc e2 3f 3f 60 18 82 be 6a c6 8c bf
       2.5120676 0.74955344 -0.25409222 -1.0998051
0000c0 b1 b5 04 40 65 13 23 3f 3c c8 9f 3f d3 d4 5e bf
       2.0735896 0.6370147 1.2482982 -0.87043494
0000d0 77 47 95 be c9 1a 7f 3e 48 1e 79 be 82 7a 04 bf
       -0.29156086 0.24912561 -0.24327958 -0.5174943
0000e0 e9 71 10 3e 97 22 e0 3f 7c 71 a7 bf bf 32 b0 3e
       0.14105953 1.7510556 -1.3081508 0.34413716
0000f0 ae 13 ca be d4 df 1a bf ce c3 52 3f 34 ae 68 3f
       -0.3946814 -0.60497785 0.82330024 0.9089081
000100 6c a7 70 bf 3d 46 68 bd 1b a7 dc 3e 8b 16 a4 3e
       -0.94005466 -0.05670761 0.4309624 0.3204845
000110 2f 6a 14 bf 2c 6c d1 bf 26 88 16 bf 04 9a c4 3f
       -0.57974523 -1.6361136 -0.58801496 1.5359502
000120 34 a7 d4 bf fc 9f ca be d8 f0 67 bf fc 57 a4 be
       -1.6613526 -0.39575183 -0.90601873 -0.32098377
000130 d4 fb 15 bf ff 42 15 bf 6a be 9c be 82 6f c7 bd
       -0.58587384 -0.5830535 -0.30614024 -0.09738065
000140 93 28 66 3f c9 0e 4a bf 64 b3 11 3e d9 5d 65 bd
       0.8990566 -0.7892881 0.14228588 -0.055997703
000150 d0 21 a4 3e 79 f1 91 bf c4 cc 8c 3f b0 5c e4 bf
       0.32057047 -1.1401817 1.099999 -1.7840786
000160 e2 83 86 3e 2a b8 64 3f de 88 d1 3f c8 3c 12 3e
       0.26272494 0.8934351 1.6369894 0.14280999
000170 05 84 fd 3e 1d 5a 4e 3f 2a f0 4e be 5e 63 f4 3d
       0.49514785 0.8060625 -0.20208803 0.11933015
000180 3c 4a 7a 3f b9 22 d0 be 1d 30 80 bf e7 e9 28 bf
       0.9776952 -0.4065149 -1.0014683 -0.65981907
000190 86 92 38 3e 0c f8 3a 3f ac 69 a9 bf 4b cf 8c bd
       0.18024644 0.7303474 -1.3235373 -0.068754755
0001a0 09 6a ca 3e 41 9f bc be ae d2 cf 3c ac b8 25 3f
       0.39534023 -0.3684025 0.025369015 0.6473491
0001b0 f0 a9 37 3e 8f 09 f6 bf bd f9 85 be 40 bd 3b 3f
       0.1793592 -1.9221667 -0.26167098 0.7333565
0001c0 92 41 d6 be 61 db b5 3f fc 35 09 3f 77 00 fd be
       -0.418469 1.4207574 0.53598 -0.49414417
0001d0 3f e5 1e bf 73 5d 0c c0 26 47 b2 3e 17 61 a1 3f
       -0.6206855 -2.1932037 0.34819907 1.2607754
0001e0 78 5f c2 3e c7 d1 44 3d a6 ce ce 3d 4d b4 b7 be
       0.37963462 0.04805162 0.10098009 -0.35879746
0001f0 a5 c6 95 be 0c 9e 42 3f 1d 98 1f c0 23 61 da bf
       -0.29253116 0.7602241 -2.4936593 -1.7060894
000200 12 3a 10 bf 5b 88 d4 bf 77 9c da bf 82 16 ca 3d
       -0.5633861 -1.6604112 -1.7078999 0.09867574
000210 a0 c6 81 bf b4 fb 29 be 85 cc 4b bf 33 b0 a9 be
       -1.013874 -0.16599923 -0.7960895 -0.33142242
000220 8f 81 16 bf 9c 1f c6 bd 7f 8d a1 bf 29 e2 ee 3f
       -0.5879144 -0.09673998 -1.2621306 1.8662769
000230 ec 64 8b bf 48 c6 c0 bf 76 5e 58 bd b4 8a 50 bf
       -1.0890174 -1.5060511 -0.05282446 -0.81461644
000240 62 ad 13 bf 02 49 82 bf 40 79 e8 bf 75 5c 1e bf
       -0.57686436 -1.017853 -1.8162003 -0.6185983
000250 42 17 ea 3e d1 a3 55 bf d5 51 40 3e 8d ba 64 bf
       0.4572087 -0.8345309 0.18781216 -0.89347154
000260 b7 b5 96 be fc f9 38 bf 5e 9f 6e bf e3 b4 da 3f
       -0.29435512 -0.72256446 -0.93211925 1.7086452
000270 70 3f b7 bd 84 d0 3a bf 3d fe 8e bf f5 80 0b bf
       -0.089476466 -0.7297442 -1.1171337 -0.5449365
000280 2d 62 26 3e be ec 88 3e 6e 49 14 3e 63 5a 16 3f
       0.16248389 0.2674312 0.14481136 0.5873167
000290 85 bf 1c bf 71 cc f8 bd b3 a1 cc 3f 7f ba 10 3f
       -0.61229736 -0.12148369 1.5986847 0.5653457
0002a0 50 cb 7b 3e 77 5d 21 bf 0b b4 dc 3e 95 7b e4 be
       0.24589276 -0.6303324 0.43106112 -0.44625536
0002b0 c6 51 dc bf d5 f9 f6 3e 49 a9 4a 3f 8e 6f 93 3f
       -1.7212455 0.48237482 0.7916456 1.1518419
0002c0 35 9b 61 3f 6d 38 1b 40 e7 1a 3b 3e 93 c9 aa be
       0.8812745 2.425319 0.18271981 -0.33356914
0002d0 88 99 99 3f d8 ec 12 3f f7 bf 98 bf 14 d2 d2 bf
       1.1999979 0.57392645 -1.1933583 -1.6470361
0002e0 73 96 dc 3f ff a2 e3 be ac 0f 4c 3f 56 c7 ae 3f
       1.7233413 -0.44460294 0.79711413 1.3654583
0002f0 84 8e ae bf f0 67 ca bf 5a fc 9e be 40 32 fc 3e
       -1.3637242 -1.5812969 -0.31051904 0.49257088
000300 43 00 65 bf 38 47 bc 3f 06 6f 83 bf 2a e6 ab 3e
       -0.89453524 1.4709234 -1.0268257 0.3357404
000310 14 3e 7e be 9f 3b ee 3e 9f 13 87 bf 95 28 2c 3f
       -0.24828368 0.46529862 -1.0552863 0.67249423
000320 c2 9d 01 be cc e7 22 3f fd 0e e4 3c 5e ef a1 3e
       -0.12657836 0.63634944 0.027839178 0.31627935
000330 20 c4 05 3f 8b ea ee bf 2f 81 05 40 fc 25 0e bf
       0.5225239 -1.8665327 2.0860097 -0.5552671
000340 0b d1 b8 bf be 0e 5a bf fc ad 93 bf e8 38 05 40
       -1.4438795 -0.85178745 -1.1537471 2.0815983
000350 03 1d 96 bf c8 df 51 bf d9 d3 3a 3f a2 7b 52 bd
       -1.1727604 -0.8198209 0.72979504 -0.051387437
000360 57 1a 92 3e 55 2b 59 3e 36 5d ad 3f 2d 5a a0 3e
       0.2853572 0.21207936 1.3544071 0.313188
000370 5c e1 86 3f 1f 09 37 bf 68 04 6b bf 23 53 c9 3d
       1.0537524 -0.7149829 -0.918036 0.0983031
000380 91 bd a1 3f 13 05 ef 3e 57 b7 52 3f 5e 06 bd 3e
       1.2635976 0.4668356 0.82311004 0.3691892
000390 4a e0 2b c0 59 65 ce 3f eb 14 32 3f 26 a3 a8 be
       -2.6855645 1.6124679 0.6956317 -0.32936972
0003a0 7e 90 35 3f 24 24 73 3e f3 1b 2a 3e e9 5e a5 3e
       0.709236 0.23744255 0.16612224 0.32298973
0003b0 0c 0c 6f be 36 c3 86 bf 90 7a 44 3e 0f c7 9a be
       -0.2334444 -1.0528324 0.19187379 -0.30229995
0003c0 0d bd 22 3f b1 af 3e bf a8 7d 18 3f 4b b1 be 3e
       0.6356972 -0.74486834 0.59566736 0.3724464
0003d0 81 09 0f c0 39 8f 2d bf f7 d0 bf bf 93 fc c0 bf
       -2.234955 -0.67796665 -1.4985646 -1.507708
0003e0 6c 06 12 3f e5 34 0e c0 08 44 c4 3f c7 df 6f bd
       0.5704105 -2.2219784 1.5333261 -0.05856302
0003f0 7d b7 a1 3e 46 e4 95 bf d0 4c f1 bf 73 c9 5f bd
       0.31585303 -1.1710289 -1.8851566 -0.054635476

lstm.weight_ih_l0 f4 [256, 100]
000000 ec d3 8c bc 46 bd 21 bd cb 07 f3 bd df e0 b1 3d
       -0.017190896 -0.039487146 -0.11866721 0.08685469
000010 1d 71 3f 3d 7d 0a 39 3e 1e 24 e3 bc e4 ff de bb
       0.046738733 0.18070407 -0.027727183 -0.006805407
000020 f6 61 9e 3d 40 f1 c5 bd a5 45 8f bd 27 42 45 3d
       0.07733528 -0.096651554 -0.069957055 0.04815879
000030 8a bb 60 3d 2c ec dc bd 62 9d 0d 3d 11 8c c5 3d
       0.05486635 -0.10787234 0.03457392 0.09645856
000040 3e 59 98 3d d8 f7 13 be 09 a6 46 3d bf c1 8a bd
       0.074388966 -0.14450014 0.048498187 -0.067752354
000050 ae e4 17 be 77 a6 a6 bd a5 e3 b4 bd 65 20 4f bd
       -0.14833328 -0.081372194 -0.08832482 -0.050568003
000060 28 94 88 bd de 44 02 be 66 2a 97 3d 0a 94 0c be
       -0.066688836 -0.12721583 0.07381134 -0.13728347
000070 d4 77 b2 3d d7 30 96 3d 0f 12 4d 3d 21 d0 b4 bd
       0.08714262 0.07333534 0.05006605 -0.0882876
000080 4a 69 eb bc 13 45 6f 3d 1c cf 14 be a3 a5 1f bd
       -0.02873673 0.058415484 -0.14532131 -0.038976323
000090 3d fc 96 bd e4 b5 92 bd dd e8 b0 bd 02 4b 78 bc
       -0.073723294 -0.07163599 -0.08638165 -0.015154602
0000a0 96 be 7f bd c6 01 24 be 28 a3 f8 bd f0 3c 61 3d
       -0.062437616 -0.16016302 -0.121404946 0.054989755
0000b0 c1 b3 27 3d d0 be bd 3d 91 b0 24 bc ad db 8e bd
       0.04094291 0.0926491 -0.010051862 -0.069754936
0000c0 fb 98 b7 3d 39 7e f0 bb 24 e6 55 3d 0c c6 0c be
       0.089647256 -0.0073392657 0.052221432 -0.13747424
0000d0 a0 e4 02 3e e7 06 94 3d 23 fa dd bc 60 34 95 3d
       0.12782526 0.07227879 -0.027096814 0.0728538
0000e0 d1 39 8b bd 51 f5 4b 3d 30 f6 35 3d 14 29 b9 bd
       -0.06798137 0.0497945 0.044424236 -0.09041038
0000f0 d5 44 5d bd 5c 3b e9 3d e2 5a 21 bd 49 f1 8d bc
       -0.05402072 0.11388275 -0.039393313 -0.017326968
000100 60 23 98 3d bb 6e 4f bb 49 93 af bd a5 6e 0d be
       0.07428622 -0.0031651694 -0.08573014 -0.13811739
000110 2f 15 37 bd 84 ea 7b bd af e5 92 3d e1 82 a6 3c
       -0.044697937 -0.06150295 0.07172715 0.02032608
000120 36 78 01 3d b9 93 dc bd dd 23 ea 3d 95 0b c6 3d
       0.031608783 -0.10770363 0.11432622 0.09670178
000130 e8 27 74 39 5c 77 b2 3d 64 30 5e bc 56 7e c6 3d
       0.0002328452 0.08714172 -0.013561342 0.096920654
000140 e4 2c da 3d 9b ef cd bc f9 a1 6e 3d 11 59 86 3d
       0.106530935 -0.025138667 0.058259938 0.06559957
000150 01 60 47 3d ad 55 c7 3d 0c 99 7c 3d 9a 09 7b bd
       0.04867554 0.09733138 0.061669394 -0.061288454
000160 7b e9 0b be e8 7b ff bd 4d a9 96 bc 24 f2 e7 3d
       -0.13663284 -0.12474805 -0.018391276 0.113254815
000170 63 ef a2 3d c8 2f 94 bd 2f 11 1c bd 16 fa 2b 3d
       0.07955816 -0.07235676 -0.038102325 0.041986547
000180 37 bb 87 3d 7b 7d e7 3c 4f c9 b1 bd 8a 32 ea 3d
       0.06627505 0.028258076 -0.08680975 0.11435421
000190 75 c0 26 bd 69 b4 a6 bd 67 83 4f 3d fa 1f ea bd
       -0.040710885 -0.08139879 0.050662424 -0.1143188
0001a0 5d 3a fa 3d 24 e6 d1 3a b2 ac 11 bd 6c d3 34 be
       0.12218163 0.0016014022 -0.035565086 -0.17658776
0001b0 e8 4f 66 bd b3 49 fa bd db 3e 40 3d 52 8e e9 3b
       -0.05622855 -0.12221088 0.046934944 0.0071275616
0001c0 8f ca 90 bd 0d 7c a0 3d 96 0a b5 ba 3c b9 d1 bb
       -0.07069885 0.07836161 -0.0013812359 -0.0064002555
0001d0 6e 0c 2c 3e 7a bc b0 bd a4 85 03 3d b1 dc 27 bd
       0.16801617 -0.08629699 0.03210987 -0.040981952
0001e0 f7 5c 00 3d 64 e0 3a 3d e4 2c ac bd c5 34 2a 3e
       0.03133866 0.04562415 -0.08407 0.16621692
0001f0 d9 ef 79 3d 21 88 b6 bd ef bf 67 3d 47 7c a8 3d
       0.061019752 -0.08912683 0.056579527 0.08226829
000200 ce 8c 7e 3d e0 40 3d bd 5f 43 37 bc 64 17 7f 3d
       0.062146 -0.046204448 -0.011185496 0.062278166
000210 bc 1b 0b be a8 62 0f bd 00 9d 7a 3c 4c d7 3d bd
       -0.13584799 -0.035006195 0.015296221 -0.0463479
000220 e8 b3 05 3c 01 7e cd 3d 8a 27 19 be dc 34 08 be
       0.008160569 0.10033799 -0.14956489 -0.13301414
000230 11 22 c1 bd 85 b6 ca 3c 7a 2f bf ba 62 1e 83 3d
       -0.09430326 0.024745235 -0.0014586293 0.064022794
000240 94 e6 cc 3d b7 37 4a bd 34 2e 05 3e 9e fd e5 3c
       0.10004917 -0.04936954 0.13005906 0.028075036
000250 09 77 b0 3d 30 fe b7 bb 69 ef 4e bd 43 36 b0 bc
       0.08616454 -0.0056150183 -0.050521288 -0.021510249
000260 fe c7 07 3c 4a 0c a5 bd 77 82 dc 3c 50 d0 71 bd
       0.008287428 -0.080589846 0.02691768 -0.059036553
000270 1d f9 a6 3c 8e ee dd 3d b4 65 06 bd d1 d6 ff bd
       0.020382458 0.10836516 -0.032811835 -0.12492145
000280 51 31 69 bd 24 db c2 3d 29 bd 1c bd 11 49 90 3d
       -0.056931797 0.09514454 -0.038266335 0.07045186
000290 88 61 ea 3d 59 f3 7d bc d3 e2 e0 bc 2f 85 81 bc
       0.11444384 -0.015499913 -0.027451908 -0.015810577
0002a0 61 47 98 bd 9b 93 1a be c5 4c f7 3d 2c da e6 bd
       -0.074354894 -0.1509537 0.120751895 -0.11272082
0002b0 9c 74 9a 3d e0 c2 64 bd 3d ba 56 bd 25 a7 25 3c
       0.07541773 -0.05584991 -0.052423704 0.010110651
0002c0 ae fc 1e 3d 51 16 a1 bd 67 c8 80 bd f6 3e 9b 3d
       0.038815193 -0.07865585 -0.06288224 0.07580368
0002d0 6d 6f 62 3d 1b 44 b5 3c 3d ea 90 3c fd 89 11 bd
       0.055282045 0.022127202 0.017689819 -0.035531987
0002e0 7d 10 dd 3d 3e 73 65 bd 33 ba 9e 3d 0f 1c 4d bd
       0.107941605 -0.056018107 0.077503584 -0.050075587
0002f0 71 d8 12 3d e7 bb 6b 3c 3b 3e 6f bd ef 62 78 bd
       0.035850946 0.014388061 -0.058408957 -0.060641225
000300 77 bf 97 bd b6 8c 46 bd 6f c9 b5 bd 48 be 16 3d
       -0.07409566 -0.048474036 -0.08876311 0.03680256
000310 e9 b5 6f 3d 1b 56 de bd 4d 16 1b 3d 63 6a 76 3d
       0.058523092 -0.10856267 0.037863065 0.060160052
000320 bc 74 f9 bc 3d 6c 51 bd 82 4b b7 3d c1 69 86 bd
       -0.030451171 -0.051128615 0.08949949 -0.0656314
000330 67 85 11 3e b6 1e cf 3d 28 08 a9 3d 80 77 58 3d
       0.14211045 0.101132795 0.08253509 0.05284834
000340 71 ce ac bd c8 e7 c6 3d 59 20 a3 3c 08 54 4a bd
       -0.08437813 0.097121775 0.019912886 -0.049396545
000350 e0 21 d1 bc df 4f 57 3c 16 a5 bf bc a0 8b d4 3c
       -0.025528848 0.013141601 -0.023394149 0.025945485
000360 a6 d7 b5 3d 56 5b f2 3d fc 73 f2 bc 6d 8b c3 bd
       0.08879022 0.11833827 -0.029596321 -0.09548078
000370 96 4b c6 bd c5 a1 94 3d b6 fb 9f 3d dd 70 80 3c
       -0.096823856 0.072574176 0.07811682 0.015678817
000380 b1 3b 27 3c 92 2d 8c 3d 4f f0 44 3d e0 ba 97 3d
       0.010207103 0.06844629 0.04808074 0.074086905
000390 af 0f 87 3c a1 c6 74 3d 43 0a 32 bd 2a e7 18 3d
       0.01648697 0.05975974 -0.043466818 0.03732983
0003a0 f5 a6 88 3d 4e 9c 8b 3d 9a 5e 47 3e cc e6 5d 3d
       0.066724695 0.06816922 0.19469681 0.054175183
0003b0 3b 3b 23 3e c6 8b 9f 3d d9 8e 54 3d 98 b4 18 3d
       0.15940563 0.077903315 0.051894043 0.037281603
0003c0 4a 30 ce 3d c3 00 38 3d 72 1b d7 3d 30 64 90 bc
       0.10067804 0.0449226 0.10503282 -0.017625898
0003d0 4a 72 1e bd c4 6b f7 bb 10 e3 e8 3d 62 7b 08 3d
       -0.038683213 -0.0075506885 0.11371434 0.033320792
0003e0 0a 08 e2 bd 5c 84 4a bd 14 12 ac bd 12 72 26 bd
       -0.110366896 -0.049442634 -0.08401886 -0.04063613
0003f0 be a9 02 bd 9c a0 98 bd 2e d9 83 3d 29 fa 9b 3d
       -0.03190016 -0.07452509 0.06437908 0.07616074

lstm.weight_hh_l0 f4 [256, 64]
000000 e9 3d 82 bd 9b a0 b8 3c 1d b5 8a bb 92 9f 80 3d
       -0.06359465 0.02253752 -0.004233016 0.062804356
000010 51 c3 aa bd ab 44 42 3e 2a b9 17 3e 1e 44 5d 3d
       -0.08338035 0.18971507 0.14816728 0.05402004
000020 6d a8 9d 3d ca 3e b3 bd c1 b7 9b 3d c0 c7 ea ba
       0.0769814 -0.087522104 0.07603408 -0.0017912313
000030 ae 87 5f bd 3f 49 00 3e 70 b0 4a bd db 77 13 3d
       -0.054572754 0.12527941 -0.04948467 0.036002975
000040 10 0b 29 3c c8 56 d0 3d f7 3c 22 3d 12 2a 16 3d
       0.010317579 0.10172802 0.03960892 0.036661215
000050 ab cd c5 bd 1a 6e ac 3d ea 89 0a 3e 67 49 e8 bd
       -0.09658369 0.08419438 0.13529173 -0.113421254
000060 ae 21 68 bd 7e c9 e0 bc d2 b9 05 bd 8b 59 89 3d
       -0.056672744 -0.027439829 -0.032647915 0.06706532
000070 7c fa 2d 3e 24 a6 91 3c 0b b5 6c 3d 16 03 dd 3d
       0.16990083 0.017779417 0.057789844 0.10791604
000080 87 3d bb bd ad 20 26 3e f9 85 87 3d 09 91 bf bd
       -0.09142595 0.16223402 0.0661735 -0.09353835
000090 51 32 26 bd 1c 5e d2 3c 35 97 58 bb 6a 17 f3 3d
       -0.04057533 0.02567964 -0.003304911 0.118697
0000a0 5a 80 13 bd 95 4c 0f bd eb 62 ec bd 6d 76 32 3e
       -0.036011077 -0.034985144 -0.115423046 0.17427988
0000b0 2a 6e 6c bd f0 48 8a 3c 77 f1 8e bd d5 46 92 3d
       -0.057722248 0.016880482 -0.069796495 0.071424164
0000c0 6a 86 98 bd 2d 0b ea 3c 81 8e 90 bd e4 b7 11 bd
       -0.074475124 0.028569782 -0.070584305 -0.035575762
0000d0 5a 6d 32 bd 92 49 f4 3d 67 bb fd 3c 42 90 85 3d
       -0.043561317 0.11928095 0.03097315 0.065216556
0000e0 59 5c 89 bc e9 5b 60 bd 60 23 1a 3e a2 2d c1 bd
       -0.016767668 -0.054775152 0.15052557 -0.09432532
0000f0 0d 86 67 3d 1b 1a 0d 3e 13 03 a2 3d 78 93 02 3e
       0.056524325 0.1377949 0.079107426 0.12751567
000100 ee bc 83 3d ed 28 8c 3d 28 6a 62 3d 3a 2b 28 3d
       0.0643252 0.068437435 0.05527702 0.04105685
000110 a5 df e3 bd 04 90 42 3c cb 3d a8 3d fb 5c 0b 3e
       -0.11126641 0.011875156 0.08214911 0.13609688
000120 50 a0 a8 3d 09 04 32 3d 39 15 4b 3d 1b 6b e2 3d
       0.08233702 0.04346088 0.049580786 0.11055585
000130 4f de 77 bd 77 81 09 3e b9 7d e1 3d 34 a8 16 be
       -0.060514744 0.13428293 0.11010308 -0.14712602
000140 44 65 7f 3d ac db e0 bd be b1 cc bc 30 97 e9 bd
       0.062352434 -0.10979399 -0.024987098 -0.1140579
000150 9a b2 7d bd 5c 4d 04 bd b5 05 0d 3e 48 8f fd 3c
       -0.061937906 -0.03230034 0.13771708 0.03095211
000160 bd 9e 9c bd e7 17 c2 3d 02 bb 24 3e 1b 9c 57 3d
       -0.076474644 0.09477215 0.16086963 0.05263911
000170 bc 79 72 bd 07 c9 63 3d c7 b8 00 3d 92 35 a3 bd
       -0.059198126 0.055611636 0.031426217 -0.07969202
000180 4c b9 67 3d 0f 69 b2 3d c7 e1 b6 bd ec ce fa bd
       0.056573197 0.087114446 -0.08929782 -0.122464985
000190 93 5c 81 3d 71 c6 85 bd 6e 87 35 3d 39 31 ec 3c
       0.06316485 -0.0653199 0.04431861 0.028832065
0001a0 c4 0d 2d 3d c9 bf 0a 3d e0 0e a4 3d cf 80 09 3e
       0.042249456 0.033874307 0.0801065 0.13428043
0001b0 5a 9c 87 3d a1 4d 24 3e c0 8c b5 3b ca 3d c3 bd
       0.066216186 0.16045238 0.0055404603 -0.0953327
0001c0 10 22 98 3d 55 a5 f9 3c a0 58 0b 3e 87 95 42 bd
       0.07428372 0.030474344 0.13608027 -0.04750588
0001d0 16 9b d0 bd 06 99 f5 3c c9 61 d6 3d 86 ca 27 3d
       -0.1018583 0.029980194 0.1046787 0.040964626
0001e0 13 90 24 bb c3 45 6b 3d 92 d6 12 be 13 5c 58 bd
       -0.002511029 0.057439577 -0.14339665 -0.052822184
0001f0 b6 0e ae bd 51 85 0b 3e e2 dc 8c 3d eb 0d d7 3c
       -0.084989 0.13625075 0.068780676 0.026251754
000200 15 9c 58 3d 3b 3c a6 bd a2 d9 ac bd c4 29 4e bd
       0.052883226 -0.08116957 -0.08439948 -0.0503328
000210 13 56 ff bd 79 f6 cb bb bb 9e 8e 3c 81 09 d4 3c
       -0.12467589 -0.00622445 0.017409673 0.025883438
000220 09 18 ae bd 27 bd 40 3d 1c 3c 9d bd 92 86 cb 3d
       -0.08500678 0.04705539 -0.076774806 0.099377766
000230 a9 04 8d 3d a7 72 20 3d 1f 03 4c 3d 89 b4 ce 3c
       0.068856545 0.03917184 0.049807664 0.02523257
000240 c2 2b 09 bc e0 4f 33 be 4b 53 1a be 44 f3 82 3d
       -0.008372249 -0.17510939 -0.15070836 0.063940555
000250 3d cd 3f bd 42 9d 4c 3d af 9c 53 bc ff c5 89 3d
       -0.04682659 0.04995466 -0.012915774 0.06727218
000260 45 58 87 bd b4 9f 83 3d 86 ea a2 3d ae 42 cd 3c
       -0.06608633 0.06426945 0.07954888 0.02505621
000270 1a 7a c7 bd c8 18 b2 3d 7d a8 dd 3c 3f 35 6f 3d
       -0.09740086 0.08696133 0.02705788 0.05840039
000280 b8 c9 30 3d 9d 93 46 bd d3 7c 2d 3e 8f 72 6c bc
       0.043161124 -0.04848062 0.16942148 -0.01443161
000290 59 6a 21 bd 3b 85 98 bd 02 a3 9c 3c 2f 38 f9 3d
       -0.03940806 -0.07447287 0.019120697 0.12168919
0002a0 cf 50 ff 3c 9a 73 12 3e 3e a0 af bd 20 a9 da 3d
       0.031166462 0.14301911 -0.08575486 0.10676789
0002b0 22 48 05 3e 2a e1 0d be 13 30 f4 3d de 15 a6 3d
       0.13015798 -0.13855425 0.11923232 0.081096396
0002c0 b2 80 c1 bd f7 9b 25 bd 2f b8 8e bd 1a ed 7f 3d
       -0.09448375 -0.040431943 -0.06968724 0.062481977
0002d0 44 cb fb 3d 90 bb be 3b fa a7 d6 bd 49 1e b6 bd
       0.12294629 0.005820699 -0.10481258 -0.08892495
0002e0 ad cb a0 3d f0 76 5b bd 19 df dd bd 25 6f af bc
       0.07851348 -0.053580225 -0.10833568 -0.021415303
0002f0 62 64 a7 bd b2 1f 49 3d 25 ed d9 bd 1f 3c fc bd
       -0.081734434 0.049102493 -0.10640935 -0.12316155
000300 20 2d 87 3d fb 74 06 3e 30 da aa 3d fd 91 8f bd
       0.06600404 0.13130562 0.08342397 -0.07010267
000310 4b 19 71 3d 04 ef 69 3d 75 00 e8 bc 40 77 cf bd
       0.058862012 0.05711271 -0.02832053 -0.10130167
000320 81 7e f9 bd 17 c8 c4 3d 97 47 b1 bd c7 8b 8d bd
       -0.12182332 0.096084766 -0.08656233 -0.06911426
000330 07 0e 89 3d b3 54 72 bd 0c ce 62 bc a0 d6 0a bd
       0.06692129 -0.059162807 -0.013843071 -0.03389609
000340 e2 83 ef 3d 82 ae d6 3d 51 89 8f 3d 32 ac d5 bd
       0.116950765 0.104825035 0.07008613 -0.10433234
000350 53 54 81 3d 98 42 81 bd b1 00 f4 ba 06 10 0e bd
       0.06314912 -0.0631153 -0.0018615929 -0.03468325
000360 f0 90 3a 3d fb 4e fa 3d bd 09 84 bd 34 8f 85 bd
       0.04554838 0.122220956 -0.0644717 -0.065214545
000370 a1 cb 82 3d 69 d7 86 3d 88 9c da 3d e7 b9 91 3c
       0.063864954 0.06584055 0.10674387 0.01778884
000380 db 5f 93 bd 34 ba 34 bc 43 c7 09 3e 37 03 dd 3c
       -0.07196017 -0.011030722 0.13454919 0.026979072
000390 cd 97 23 3b a8 d4 0d 3d e5 af f5 bd 92 6c 70 3d
       0.0024962306 0.034626633 -0.1199644 0.05869729
0003a0 19 de ca 3d 72 c4 8b bd 6e a5 38 bc 1d 4a 26 3e
       0.09905643 -0.06824578 -0.01126991 0.1623921
0003b0 cb e4 ab 3a 66 38 9c 3d ec d5 9d 3c 13 dd 1e 3e
       0.001311445 0.07627945 0.019267045 0.1551402
0003c0 7a a6 7c 3d 3c d7 b0 3d 43 91 92 3d 87 b3 26 be
       0.061682202 0.08634803 0.07156613 -0.16279422
0003d0 73 b0 cd 3d ae a9 91 3d 6f 77 83 bd 5f 0e 94 3d
       0.10043421 0.07112442 -0.064192645 0.072293036
0003e0 0a b3 7a 3c 39 1e c9 bd 6c 2c af bd 31 55 a4 bd
       0.015301475 -0.09820218 -0.08553395 -0.080240615
0003f0 bc 7b 7e bc c3 9e a2 3d 4c 8c 3d 3d 19 76 0f bb
       -0.01553243 0.07940438 0.046276376 -0.002189046

lstm.bias_ih_l0 f4 [256]
000000 f0 56 c8 3d 5f 20 91 3d d0 21 29 3e d0 1f 57 3c
       0.09782207 0.070862524 0.16516805 0.013130143
000010 23 66 80 bd 98 bb 2f 3e ee 20 c6 3c bb eb ef bb
       -0.06269481 0.17161405 0.024185624 -0.0073218024
000020 fd 36 dc 3c 94 a2 35 3d b6 4c a2 3d 4b 92 8a bd
       0.02688169 0.0443445 0.07924788 -0.067661844
000030 aa 12 ed 3d 83 34 e8 3d 38 10 21 bd 4a fe 56 3b
       0.115758255 0.11338141 -0.039322108 0.0032805377
000040 a1 12 47 bc ed f0 fb 3d 7f 5c f0 3c b4 e1 dc 3c
       -0.012150438 0.12301812 0.02934098 0.026963092
000050 ec 79 ad 3d 6c d5 21 3e 6b 41 d2 3c 0a 5e 24 3e
       0.084705204 0.1580407 0.02566596 0.16051498
000060 85 31 2a 3c 5a 35 0d bd ef 50 43 3d c6 ca 00 3e
       0.010387783 -0.03447471 0.047684606 0.12577352
000070 7f 36 3c 3d 3c fd f2 3d 24 a7 8e 3d 0b c1 f0 3c
       0.04595041 0.11864707 0.06965473 0.029388925
000080 70 e0 c4 3d d6 01 1b 3e c1 81 19 3e 2e cf 9d 3d
       0.096131206 0.15137419 0.14990903 0.07705532
000090 97 66 91 3c 35 2a 39 bc 42 ea 88 bd 87 2c ae 3d
       0.017749114 -0.011301567 -0.06685306 0.08504587
0000a0 65 93 41 3d 60 39 b3 3d 65 25 2a 3e 97 b1 b7 bd
       0.047259707 0.08751178 0.16615827 -0.089694194
0000b0 62 37 aa 3d 0a 34 ec 3d 95 03 c1 3d 31 55 44 3d
       0.08311345 0.11533363 0.09424511 0.047932807
0000c0 fd 82 e6 3d 74 c0 e1 bc e0 4a 90 3b 2b 50 38 bd
       0.11255453 -0.02755759 0.004403457 -0.04499833
0000d0 67 76 f6 3d 76 48 f2 bc 48 17 a3 3d 42 09 0f 3e
       0.12034302 -0.029575568 0.07963425 0.13968375
0000e0 45 1a 52 bd 3c a7 14 3e 53 3f 0f 3c bc 3e 51 3d
       -0.051294584 0.1451692 0.008743125 0.05108522
0000f0 36 d4 18 3e 44 f4 18 bc 55 ad 1b bd 0c 46 e6 3d
       0.14924702 -0.009335581 -0.0380071 0.11243829
000100 ce 16 5b bd 35 c5 e9 bd c9 16 3a 3d 11 59 31 bc
       -0.053488545 -0.114145674 0.045431886 -0.010824458
000110 7e c2 26 3e 69 e9 de 3d 57 f2 db 3d 52 58 92 3c
       0.1628513 0.10884363 0.10739582 0.01786438
000120 67 d3 7c 3d 15 cf 98 bd eb 70 f6 3d e4 ed 4a bd
       0.061725046 -0.07461373 0.12033256 -0.049543276
000130 71 fb 62 bd ce a2 26 3e ed 06 c5 bc fb dc 08 3e
       -0.055415574 0.16273043 -0.024051154 0.13365547
000140 97 b6 91 3b 5b 9e 17 3e 05 5e 55 bd 1c ca 5c bd
       0.0044468152 0.14806502 -0.052091617 -0.053903684
000150 64 33 4b 3d 73 bc fc 3d 27 53 ea bd 01 c2 6f bd
       0.049609557 0.12340631 -0.11441641 -0.058534626
000160 91 ca 1a 3d 60 79 0c bd 58 62 2e 3d 7f 4e c4 bd
       0.03779084 -0.03429544 0.042574257 -0.095852844
000170 b8 15 1d bd 55 f5 00 3e ad cb 25 bd 0b d1 80 3d
       -0.03835079 0.12593587 -0.040477443 0.06289872
000180 fb b5 09 3e 73 e5 47 3d 0d e8 1c 3b 59 e7 0c bd
       0.13448326 0.048802804 0.0023942024 -0.034400318
000190 2a 5e 35 bc 63 4c 91 3d 95 76 f2 bd 0a 22 f2 3a
       -0.011069814 0.07094648 -0.11839024 0.0018473279
0001a0 e6 54 cb 3d 17 c0 c2 3d 31 71 9a b9 5c 90 ff bc
       0.099283025 0.095092945 -0.00029457503 -0.031196766
0001b0 f4 ce 13 3c 23 86 af 3c fc 5e 17 bd 6a 6b 26 3c
       0.009021509 0.021426266 -0.03695582 0.010157445
0001c0 bc b7 0f 3e 8e 62 d2 3d da ff e0 3c df 93 55 3d
       0.14034933 0.10272704 0.02746575 0.052142974
0001d0 07 ce 9a 3b e1 59 a9 bd 72 bf 25 3d 65 7f 4c 3d
       0.0047242674 -0.08269096 0.04046578 0.04992618
0001e0 5c 6d 36 bd f4 30 a6 bd 81 1c 85 bd 1e b3 e3 3d
       -0.044537887 -0.08114806 -0.06499577 0.11118148
0001f0 1a 4a 44 bd e1 c4 18 bd 9e 9a 8c bd c4 c6 22 3e
       -0.04792223 -0.037297133 -0.068654284 0.15896136
000200 49 73 e5 bb e7 dd 5d 3d ad 6d 20 3e 48 ed 1e 3c
       -0.0070022685 0.0541667 0.15666838 0.009700127
000210 25 19 3e be bb 7c 46 3e d7 f1 a1 3d cc b2 99 bd
       -0.1856428 0.19383518 0.079074554 -0.07504806
000220 e5 a4 69 3d ce 22 4f bc 07 06 e4 bd 67 e9 9f bd
       0.05704202 -0.012642575 -0.11133962 -0.0780819
000230 79 b4 43 bd 80 d0 7f bd 85 49 48 3e 05 59 3e 3d
       -0.047779534 -0.0624547 0.19559295 0.046471614
000240 61 76 c6 3c a3 3d 8b bc 7f ed 84 bd b7 f0 b4 bb
       0.02422637 -0.016997164 -0.06490611 -0.0055218595
000250 89 05 13 be 1c 48 35 bc cb 82 27 3e 3a 76 e0 3d
       -0.1435758 -0.0110645555 0.16358487 0.1096005
000260 26 fb a2 bc c7 5c d0 3d 8f 87 09 3e d5 e8 0b bd
       -0.019895148 0.10173946 0.13430618 -0.034157593
000270 66 f4 e5 bd 32 45 a7 3b ec ff a2 3c 1f 2d 10 bc
       -0.11228256 0.0051046843 0.019897424 -0.00879982
000280 18 2e fa bd 77 b3 43 3e ac 01 83 3d bd 5b f5 3d
       -0.12215823 0.19111429 0.06396803 0.11980388
000290 a7 15 f3 3c 1b 32 e8 bc f7 5e aa 3d 10 7e 81 bd
       0.02967341 -0.028344205 0.08318894 -0.06322873
0002a0 30 2c 24 bb 5f 84 f9 3c 76 da 0e bd a1 34 2a 3e
       -0.0025050752 0.030458627 -0.03487631 0.16621639
0002b0 82 17 4c bd 7e 6c 95 bd 5c c1 04 3d 24 f9 13 be
       -0.049827106 -0.07296084 0.032410964 -0.14450508
0002c0 9a 98 dd bc 8a 5a fa 3d 44 c5 b9 bd d7 ad 67 bd
       -0.027050305 0.122243 -0.090708286 -0.05656227
0002d0 bd 45 15 3e c5 42 25 3e 50 ab 0f be 05 db 4f bd
       0.14577384 0.16138752 -0.14030194 -0.050745983
0002e0 2d 8d f3 bd df 05 39 be b3 93 6e 3c fd 81 18 3e
       -0.118921615 -0.18068646 0.014561581 0.14893337
0002f0 26 2c e0 3d ad e7 a4 bd 6a f9 02 be 0d b1 b9 bd
       0.10945921 -0.08052001 -0.12790456 -0.09066973
000300 09 08 00 bc a4 27 bd bd 21 64 2e bd 70 e2 a7 bd
       -0.007814416 -0.092360765 -0.04257596 -0.081974864
000310 d5 d3 35 3e 20 61 13 bd 78 06 70 3d 56 01 d2 3d
       0.17756589 -0.035981297 0.05859992 0.10254161
000320 63 8c e2 3d 14 1f 87 3d ad e0 4b 3e 4d a4 15 3e
       0.11061933 0.065977246 0.19909926 0.14613457
000330 2d c0 72 3b d1 0c 25 3e 07 9d 22 3d 99 32 0e 3e
       0.0037040815 0.1611817 0.039700534 0.13886489
000340 42 61 1b 3d f0 93 36 3d 1a 6a a8 3d 41 0a 48 bc
       0.03793455 0.044574678 0.08223362 -0.012209476
000350 95 ae 78 bc 86 2a c9 3c b4 f0 61 3d 30 2d da 3c
       -0.015178342 0.02455641 0.055161193 0.026632875
000360 4c 7a 1c 3d 75 52 df 3d ba 4d 82 bd 51 67 17 3e
       0.03820257 0.10904399 -0.063624814 0.14785506
000370 af 6b 04 3e 12 f9 45 3e 57 c3 52 3d 69 29 77 bd
       0.12931703 0.19333294 0.05145582 -0.060342226
000380 70 d3 e0 3d 7d 56 9a 3b 26 86 f0 3d b5 61 1e 3c
       0.109778285 0.0047100172 0.11744337 0.00966685
000390 7d bb e3 3d 2d 1d fe 3b 7c 4a cb 3d f3 a0 08 3e
       0.11119745 0.007754943 0.09926316 0.13342647
0003a0 b0 2c a8 3d 4b 0c 3f 3d b5 16 cf 3d 3d 3c 18 3e
       0.082116485 0.046642583 0.10111753 0.14866729
0003b0 94 90 60 bd 3d b7 7e bd 41 30 c2 3d c9 32 2e 3e
       -0.05482538 -0.06218647 0.0948186 0.1701156
0003c0 45 c5 2f 3d 7b 86 bc 3c 01 01 88 3d 40 60 30 3e
       0.04291274 0.023013344 0.066408165 0.17224216
0003d0 9b a8 a2 3d 62 b3 46 bb 74 37 42 3c 68 68 8a 3b
       0.07942315 -0.0030319323 0.011854041 0.004223872
0003e0 c0 97 28 3e f3 8d 2e 3e 3e 2a 36 3d a3 a5 09 bd
       0.16464138 0.17046337 0.04447388 -0.03360523
0003f0 a3 d0 22 bd 83 c0 17 3e 0b e0 a6 3d 26 ce de 3d
       -0.039749753 0.14819531 0.081482016 0.108791634

lstm.bias_hh_l0 f4 [256]
000000 5c c5 3f bd 20 70 ef bc 91 8b 1d 3e 2f 91 ca 3b
       -0.046819076 -0.02922827 0.15385272 0.006181858
000010 ea 8a 77 bd a0 ff 9c 3d be c1 eb 3c 0a cb cc 3d
       -0.060435213 0.07665944 0.028778907 0.09999664
000020 79 6a 7d bd a6 d2 73 3d de b5 76 3d 45 9e 31 3e
       -0.06186912 0.059527062 0.060232036 0.17345531
000030 0b 5b 01 3e 55 cc d8 3d 1d f1 05 bd 32 69 2b bd
       0.12632386 0.10585848 -0.032700647 -0.04184837
000040 93 31 d8 3d a7 00 b4 bd 73 c6 9f bc 32 b0 c8 3c
       0.105563305 -0.08789187 -0.019503808 0.024498079
000050 18 05 8f bd 60 0b 12 3e 63 7c 95 3d 69 67 4b 3d
       -0.069833934 0.14262152 0.072991155 0.049659166
000060 4a 61 a8 bc 4b d0 b3 3d cc 11 d3 3d 77 aa 3b 3d
       -0.020554204 0.08779963 0.10306129 0.045816865
000070 28 7f 47 3d 74 f9 2f 3e d4 ab 60 bc e9 1d f1 bd
       0.04870525 0.17185003 -0.013712842 -0.11773283
000080 2e bb 07 3e 4d a6 9a 3c 97 50 70 3e 54 f9 4a 3d
       0.13254997 0.018878127 0.23468243 0.049554184
000090 9f 57 5d bd d1 65 d9 bc 38 9d 8a 3c 7b 65 61 3b
       -0.05403864 -0.026537808 0.01692067 0.0034392762
0000a0 c7 ca 40 3d f4 b3 25 3c c4 47 96 3d 5d 43 94 bd
       0.047068384 0.010113705 0.07337907 -0.07239411
0000b0 09 3e 02 3e c9 27 df 3d dc b5 4f bd 32 4b c3 bc
       0.12718977 0.1089626 -0.050710544 -0.023839567
0000c0 0b db b4 3d c7 bd 27 bd 0e 14 27 3e 2a 4d 52 3d
       0.08830842 -0.04095247 0.16316244 0.05134312
0000d0 7f 2d 72 3d cd 37 48 3d cf 20 e0 3c ad 3d 9a 3d
       0.05912542 0.04888134 0.027359394 0.07531295
0000e0 38 fc 8d bd 7b 19 b0 3d 64 8d f0 3b cd 3f 85 3d
       -0.069328725 0.0859861 0.007341074 0.0650631
0000f0 c1 2b 69 bd a7 45 20 3e df f1 26 3b 1e b3 b9 3d
       -0.056926493 0.1565157 0.0025473756 0.09067367
000100 d1 85 db 3b 03 25 ce 3d 10 d3 9e 3d 8b 84 97 bd
       0.006699302 0.10065653 0.07755101 -0.073983274
000110 11 f6 c9 3c fb c0 99 bd 9d fa 1a 3a d0 ac aa 3d
       0.024653466 -0.07507511 0.0005911978 0.083337426
000120 d3 af 4e 3d 06 d2 3b bd 2d e4 f2 3d 0f 1b ac bc
       0.050460648 -0.04585459 0.11859927 -0.021008996
000130 53 8a 2b bd 09 1b 30 3c 7d e6 4f bd 18 60 a3 bc
       -0.041879963 0.010748633 -0.05075692 -0.019943282
000140 bc 5f 48 bd bc 51 f6 3c 4d 59 c5 3d 36 2c 2c 3a
       -0.048919424 0.03006827 0.096361734 0.0006567867
000150 0f 18 16 3e 13 0d 9a bc 0d 69 66 bd 99 56 62 bc
       0.14657615 -0.018805062 -0.056252528 -0.013814592
000160 20 59 ac bd fd 42 7f 3c dd 20 41 3d 37 03 85 bd
       -0.08415437 0.015579936 0.04715048 -0.06494754
000170 db 5d 75 bd 0a 81 76 bd 57 68 d3 3b 4a ef 5c bd
       -0.05990396 -0.060181655 0.0064516473 -0.05393914
000180 9d 4d 5e bd 55 f9 ed 3b 54 2c 07 3e 8b 2a 00 3c
       -0.054273237 0.0072623887 0.13200504 0.007822643
000190 b8 97 8f 3d 28 4e 10 3e 9c 7b 9b 3c 7d e1 47 bd
       0.0701136 0.14092314 0.01897984 -0.048799027
0001a0 34 51 28 bd 51 70 63 bd 8e 30 18 3e ee d5 c2 bd
       -0.041093066 -0.055527035 0.14862272 -0.0951346
0001b0 ed 04 90 bc bb 00 5d bb 38 06 c6 3d b2 23 5e 3d
       -0.017580474 -0.003372236 0.09669155 0.05423326
0001c0 6c 26 d2 bc ef c3 d7 ba fc 25 a5 bc df 4a f3 3d
       -0.025653087 -0.0016461591 -0.020159714 0.11879515
0001d0 90 63 e4 3d 8a 01 ca 3c 51 0b 09 3e b3 3b 55 3d
       0.111518025 0.024658937 0.13383223 0.052058887
0001e0 fb 96 ff 3d 6a 5d e2 3d 68 86 86 3c b4 66 b3 bc
       0.12479969 0.110529736 0.016421512 -0.021899559
0001f0 c4 36 5a 3d 60 4c 93 bd 62 90 65 3d dc 70 06 3e
       0.053274885 -0.07192302 0.056045897 0.1312899
000200 f5 a2 0f bd 0e 0f 51 3d d4 21 81 bc 47 2d a8 bd
       -0.035067517 0.051039748 -0.0157632 -0.08211761
000210 74 09 38 be de 9b 26 3d 74 74 01 be 9d 58 b7 3d
       -0.17972356 0.04067599 -0.1264208 0.089524485
000220 16 c3 d4 3d 8d fd 44 3d a2 73 58 be a4 62 df 3d
       0.10388772 0.048093367 -0.2113786 0.10907486
000230 47 0b 10 3e fb 25 e6 bd 94 db 4b bc c9 26 8e bd
       0.14066802 -0.11237713 -0.012442488 -0.069409914
000240 1f 72 11 3e 68 68 c3 3d 63 06 c0 bd 4b b1 2f be
       0.1420369 0.09541398 -0.09376218 -0.17157476
000250 a8 1e 45 be 4f e1 dc 3d 1f 95 30 3e 03 10 70 3d
       -0.19249976 0.10785162 0.17244385 0.05860902
000260 02 54 07 be a6 9b 0f bd 87 f2 30 3e 9a 6e 1b 3d
       -0.1321564 -0.035060547 0.17280017 0.037947275
000270 76 8c 3c bd d8 92 50 3c 15 23 3a bd 90 d0 3d 3d
       -0.04603239 0.012730323 -0.045443613 0.04634148
000280 d0 a2 e4 bd c0 6b 1f 3e d0 6b 34 bd b8 0a b5 3d
       -0.111638665 0.15568447 -0.04404813 0.08839935
000290 dd 02 a3 3c 80 2e 92 3c f8 a0 8e bd 7f 8c fb 3d
       0.019898826 0.017844439 -0.06964296 0.12282657
0002a0 e2 43 30 3d cb e3 54 3e 73 1d ff 3d d6 3d a5 3d
       0.043033488 0.20790021 0.12456789 0.08068435
0002b0 e8 7d 2e 3e 01 b6 00 be 67 e8 28 be d6 69 7d 3c
       0.17040217 -0.12569429 -0.16494904 0.015467128
0002c0 88 26 26 be ce 8d a2 bd b4 38 cb bd 96 02 a7 3b
       -0.16225636 -0.07937203 -0.09922925 0.005096744
0002d0 01 c0 f0 3d 4c 20 d2 3d 47 b0 1a be 35 ed 7f bb
       0.11755372 0.102600664 -0.15106307 -0.0039051299
0002e0 4d e6 99 3d bb c2 be 3c 1d 33 83 3d 3b d0 5a 3d
       0.075146295 0.023286214 0.064062335 0.05342124
0002f0 75 70 1a 3e 54 db 44 be 3e 1c 07 be f0 73 0a be
       0.15081961 -0.19224292 -0.13194367 -0.13520789
000300 9b 67 2c 3e a5 2e fd 3d d5 46 19 3e 21 13 63 bd
       0.16836397 0.12362412 0.14968427 -0.055438165
000310 4d c3 8c bc 66 27 3d 3b d7 87 30 bd d6 2c 61 3e
       -0.01718297 0.0028862595 -0.043098297 0.2198976
000320 6a fa b0 3d 03 70 1b 3e e9 52 0b 3e be 62 b6 bd
       0.08641513 0.15179448 0.13605846 -0.08905552
000330 7e 13 5b 3d b0 94 1f bd a6 d2 0b 3e ea 23 39 bd
       0.053485386 -0.03896016 0.13654575 -0.045200266
000340 ab d6 e1 3d b5 ea 8d bd 98 2c 65 3d e8 ad 16 bd
       0.11027273 -0.069295324 0.05595073 -0.036786944
000350 50 8b 89 3d 34 63 97 3d 85 d1 ef 3d 67 91 bc 3d
       0.06716025 0.07391968 0.117098846 0.09207421
000360 6c a6 96 3d 8d 89 01 3e c0 ea 6a 3d 0d e1 be 3d
       0.07355961 0.12650128 0.05735278 0.09320269
000370 06 96 92 bc 4c ed 4b bd af 2f 50 3d 8a 53 85 3b
       -0.017893802 -0.04978685 0.050826725 0.0040687965
000380 33 3f bc 3b cc c1 86 3d ee bd 80 3e 24 57 3c 3c
       0.0057448386 0.065799326 0.25144905 0.011495385
000390 34 a8 43 3d 6c a0 31 3e bc e6 d7 bd b5 2a d4 bb
       0.047767833 0.17346352 -0.10542056 -0.0064748176
0003a0 b0 36 8c bd 6e e3 9f 3b ff f4 e4 3d 79 b2 4f 3d
       -0.06846368 0.0048794067 0.11179542 0.050707314
0003b0 e7 fe a7 3d ef 9d aa 3d 7f f3 29 bd 09 5a 43 3e
       0.08202916 0.08330905 -0.04149198 0.19077314
0003c0 a8 d7 f7 3c 1c 00 79 bd c2 9d 0f 3e 8f 21 2c 3e
       0.0302542 -0.06079112 0.14025024 0.16809677
0003d0 99 4b 4b 3e 80 b0 08 3c 17 3c 00 3e 97 db 78 bd
       0.19853057 0.008342862 0.12522922 -0.060756292
0003e0 b0 4a 0d 3d 0e 7d 04 3e e6 01 b7 bb 6d e8 ed bb
       0.034495056 0.1293833 -0.005584943 -0.0072603733
0003f0 88 2a 36 3e 56 95 41 bc ae 8b cc bd 86 6f f6 3d
       0.17789662 -0.01181539 -0.09987579 0.1203299

fc1.weight f4 [32, 64]
000000 cb 87 c6 bc 95 23 ba 3d 58 41 d0 bc a5 ec 10 be
       -0.024234673 0.09088818 -0.025421783 -0.14152773
000010 cc f0 fd bd 12 2c 00 bb 30 a4 41 bd 7e bf c6 bd
       -0.12399444 -0.0019557518 -0.047275722 -0.09704493
000020 e5 d0 88 3d 55 3e 5b bc 7e 28 01 bd 84 5f 64 bd
       0.066804685 -0.01338156 -0.031532757 -0.055755153
000030 68 f0 68 3d 9a 6b 23 bd 25 11 58 3b 24 f9 0c 3e
       0.056869894 -0.03989754 0.0032969203 0.13766915
000040 57 0e dd 3c ec 0a cc 3d ac 05 1f be 37 e4 03 be
       0.026984377 0.09963021 -0.15529507 -0.12880026
000050 35 cc 5a bc 14 15 ef bd 12 32 13 bb 47 07 c6 bd
       -0.013354351 -0.11673942 -0.0022460264 -0.09669357
000060 1d d6 49 be 45 12 9a 3d 44 60 6b bc 20 78 9b 3d
       -0.19710584 0.07523016 -0.014366213 0.075912714
000070 33 d1 55 bd bd 1d 80 3d 3e aa 13 3d 6b 33 fc bd
       -0.05220146 0.06255672 0.036051027 -0.12314495
000080 0d 2a 2c be 98 95 38 3e 5d f7 b5 3d ea 41 5d 3c
       -0.16812916 0.18025815 0.088850714 0.013504485
000090 2a e0 fe 3d 90 25 88 bd f1 4b 20 be b8 df 97 bd
       0.124451 -0.066477895 -0.1565397 -0.07415718
0000a0 b3 62 ae 3d a3 fa 3d 3e a1 e7 9e bc 56 21 5d 3d
       0.08514919 0.18552642 -0.019397559 0.05398687
0000b0 c3 20 b9 3d c7 c6 af 3d 10 6e 4a bd d4 12 52 be
       0.09039452 0.08582836 -0.04942137 -0.20514995
0000c0 0e d1 a0 bd f3 df 96 bc 2e 9a 4e bb fb aa 0c be
       -0.07852374 -0.018417334 -0.0031525004 -0.13737099
0000d0 a0 b9 5e 3e a8 b2 16 3e b5 c9 03 be 76 e9 d1 bd
       0.21750498 0.1471659 -0.12869914 -0.10249607
0000e0 d1 d0 dc bc 79 4c 26 be 25 a7 fd 3d a3 60 a7 bc
       -0.02695504 -0.1624011 0.12385396 -0.020431822
0000f0 89 b3 c9 3c 5f 2c 15 be 7b 36 ed 3b 92 44 8b bc
       0.024621742 -0.14567707 0.0072391606 -0.01700047
000100 a1 a3 b1 bd 74 e8 03 be 06 76 88 3d 5f 4e e1 bd
       -0.08673788 -0.12881643 0.06663136 -0.11001276
000110 cf c8 3b 3d b9 24 8c 3b 08 72 8f bd 32 9e 91 3c
       0.045845803 0.0042768386 -0.070041716 0.017775629
000120 e8 cd 16 bd f8 36 be 3d 0f f5 17 3e 8c 13 9c 3d
       -0.03681746 0.09287828 0.14839576 0.07620916
000130 af ad 9d 3d 81 0e f0 3d de af 61 ba ff 7b b9 bd
       0.07699143 0.117215164 -0.0008609275 -0.090568535
000140 f8 c9 42 3d 80 4a 07 3d c4 23 a3 bd e9 89 9a bc
       0.047555894 0.033030033 -0.07965806 -0.018864589
000150 09 d4 ab 3d 7e b9 8f bd 64 ca 8c 3d 50 48 72 3d
       0.08390052 -0.07017802 0.068745404 0.059150994
000160 0e b5 31 bd c4 5b a3 3c d6 51 df 3d 1c 79 e1 bd
       -0.043385558 0.019941218 0.10904281 -0.11009428
000170 74 83 9e 3d 56 90 f3 bd 88 6f 26 3d fc d6 5d 3d
       0.077399164 -0.11892764 0.04063371 0.054160103
000180 9c 08 9a bd b7 74 3f bd 67 e5 ed 3b f8 34 56 3b
       -0.07521173 -0.046742167 0.007260013 0.003268538
000190 16 2a bf 3d e8 60 80 3d b8 27 05 3d e8 1a 76 bd
       0.09334199 0.062684834 0.032508582 -0.060084254
0001a0 83 d3 af bd 91 6c c1 bd 70 0e b5 bb f6 2d 9e bd
       -0.085852645 -0.094445355 -0.0055254027 -0.0772361
0001b0 b6 54 e8 39 e8 ee dc 3d 4f 2f cc 3c ff 41 89 bd
       0.00044313603 0.10787755 0.024924902 -0.06702041
0001c0 2f 51 ce bd e2 29 da 3d e1 80 c8 bd c1 d6 e6 3d
       -0.10074078 0.1065252 -0.09790207 0.1127143
0001d0 50 5c 94 bc 5b b5 d4 3d c5 6e 38 bd 26 88 b5 3d
       -0.018110424 0.10386153 -0.045027513 0.08863859
0001e0 55 94 1d bd 52 ca 03 3e c2 5e 9d bd 73 20 82 bd
       -0.03847154 0.12870148 -0.07684089 -0.063538454
0001f0 0c a4 6f 3d a4 3d 04 be a4 8d 10 3e b0 23 8f bd
       0.058506057 -0.12914139 0.14116532 -0.06989229
000200 0f 02 fd bd 6e aa c7 bd b0 d8 58 bd d1 fd f8 3c
       -0.12353908 -0.09749304 -0.052941024 0.030394467
000210 1c 5a f3 bc b6 b6 ac bd 38 14 aa 3d 0a 7f e3 3d
       -0.029706053 -0.08433287 0.08304638 0.11108215
000220 6b 41 2b bd 1e 78 a0 bc 92 51 63 3d bd 07 dd 3c
       -0.041810434 -0.019588526 0.055497713 0.026981229
000230 90 6b b0 3c cd a5 1a 3e 51 32 31 bd 44 d0 ce bd
       0.021535665 0.1510231 -0.043260876 -0.10098317
000240 15 b3 4d 3d 38 fb 8b bd 0a 91 a9 bd de ea 72 3d
       0.050219614 -0.068350255 -0.08279617 0.059306018
000250 34 d9 8e bd ad c8 67 bd 91 55 9e bd eb 00 22 3d
       -0.06975022 -0.056587864 -0.07731164 0.039551657
000260 d0 1e 79 bd cf 2f ce bd bf 13 d9 ba 76 d1 96 3d
       -0.0608204 -0.100677125 -0.0016561671 0.0736417
000270 6a 7d 71 3c 21 1c 3a 3d 5a 04 87 3d 1f 64 a6 bd
       0.014739374 0.045436982 0.06592627 -0.08124565
000280 0c 1b a8 bd aa 66 38 3d 12 a5 fe bd ea 0b 8b 3d
       -0.08208284 0.045019783 -0.124338284 0.06789382
000290 8b aa da bc f2 06 34 3c 18 8a db bd 69 83 a5 bc
       -0.02669265 0.010987984 -0.10719699 -0.020204263
0002a0 eb b5 17 bd b6 74 9a 3d b7 ce 86 bd 15 17 da bc
       -0.037038725 0.07541792 -0.065823965 -0.026622334
0002b0 c4 e0 5d 3d 1f 2f 13 bd 84 89 ea 3d 74 fa a1 bd
       0.05416943 -0.03593361 0.1145201 -0.07909098
0002c0 46 b3 21 bd e8 bc a5 bd a8 1e bb bc bc e0 11 3e
       -0.03947761 -0.08092672 -0.022841766 0.14245886
0002d0 76 59 5e bc 98 34 a3 bd ed c2 bc bb e3 55 8f 3d
       -0.013571134 -0.07969016 -0.0057605417 0.069988035
0002e0 d5 04 b0 3d a5 ce 36 3e 44 70 94 bd 58 bc 24 bd
       0.08594672 0.17852266 -0.072479755 -0.04021868
0002f0 e5 93 74 3d 68 f5 58 bd 0f f1 2d bd 27 23 c3 3d
       0.059711356 -0.052968413 -0.04246622 0.09528189
000300 97 13 08 3e a6 c0 54 bb 88 98 f6 3d 1d 6d fe bc
       0.13288723 -0.003246346 0.12040812 -0.031057889
000310 ee a8 69 3d 2b d6 03 bd 84 53 a0 3d 61 0c 39 bd
       0.05704587 -0.03218667 0.07828429 -0.04517782
000320 a8 fc 0d be ab 56 d2 bc c5 5c 18 3c bc 4e 0b be
       -0.13865912 -0.025676092 0.009299462 -0.13604254
000330 51 a8 d0 bc 92 41 4c be 33 a6 2d 3c 40 ea fc 3d
       -0.025470885 -0.19946888 0.010598707 0.12349367
000340 5c d4 43 3c 44 fa 0e 3e 87 0e 05 bc aa 1e 20 bc
       0.011952486 0.13962656 -0.008121139 -0.009772936
000350 5a a3 25 be 32 5a 19 be e8 3a 49 3e df 25 17 3d
       -0.16175595 -0.14975813 0.19651377 0.03690135
000360 07 35 e0 bd ab b4 d1 3d 0d 5f 10 3d ae 10 9a bd
       -0.10947614 0.10239538 0.035246897 -0.07522713
000370 05 a7 3c bc 2a 40 04 bd 0c b3 ca 3d 21 c9 a7 bc
       -0.01151443 -0.032287754 0.09897432 -0.020481648
000380 6f cb c7 3c f4 d4 2e 3e e1 0f e2 3d b4 a1 49 bb
       0.024388997 0.17073423 0.11038185 -0.0030766549
000390 76 c0 df bd c5 f4 cb bd bc fb 86 bd 95 30 46 3c
       -0.10925381 -0.099587955 -0.06590983 0.012096544
0003a0 ea ed 52 bd 8c 7c b0 3d 14 51 80 3d 20 77 4b 3d
       -0.051496424 0.086175054 0.062654644 0.049674153
0003b0 06 fc 1d 3e e7 2c d4 bd 7b 4d df 3d 73 62 3d be
       0.1542817 -0.10360127 0.1090345 -0.18494587
0003c0 1d 16 e6 bd b6 d1 d6 3d 63 2e 41 3c ee e1 08 bd
       -0.112346865 0.10489218 0.011790845 -0.03341859
0003d0 f7 fd 90 bc ea d8 3d 3e 0e a3 14 bb 93 85 37 3d
       -0.017699225 0.18539777 -0.0022680196 0.04480512
0003e0 69 51 55 be f8 24 f6 bd b9 12 48 bd f9 fc f2 3c
       -0.20831837 -0.1201877 -0.04884598 0.029661642
0003f0 db 2f 8c 3d 5b 0c ff bd 04 1e 1c be 43 c5 36 be
       0.06845065 -0.124535285 -0.15245825 -0.17848687

fc1.bias f4 [32]
000000 c4 50 c1 bc d3 44 9d bd 1d 0e af 3d e1 7c 31 3e
       -0.023598082 -0.07679143 0.08547614 0.17332794
000010 5b 5d f8 bd 13 8d 1d 3e d1 33 39 3e 90 06 bf bd
       -0.12127181 0.15385847 0.18086173 -0.093274236
000020 de 68 a9 3d eb 33 29 3e 04 cd 28 bc ba e2 8a 3c
       0.08271955 0.16523711 -0.010302786 0.016953815
000030 0e c2 34 3d 45 ab 2a 3d 1e 68 21 3b 59 64 7a 3b
       0.044130377 0.04166724 0.002462871 0.0038206785
000040 ec 45 5f 3d 45 3f 3a 3e 85 58 2b bd 90 03 24 3e
       0.054510042 0.18188198 -0.041832466 0.16016984
000050 90 53 06 be cd 76 30 3e df 95 f4 3d 77 b8 80 bd
       -0.13117814 0.17232819 0.11942648 -0.06285184
000060 3f 2d b4 3a 66 b4 1f 3e 3c e5 34 bd 84 a5 2a bd
       0.0013746395 0.1559616 -0.044163927 -0.041661754
000070 9f 2b 71 3d 86 84 89 3d 67 0f b9 3d 12 29 03 3e
       0.05887949 0.0671473 0.09036141 0.12808636

fc2.weight f4 [1, 32]
000000 01 9c 88 be 45 4f cb 3d 83 6f 04 3d 63 41 15 be
       -0.26681522 0.09927229 0.03233291 -0.14575724
000010 0b 14 89 3d 41 08 76 be 55 c5 a2 be b2 1e cb 3d
       0.06693276 -0.24026586 -0.31791177 0.09917964
000020 a1 de 16 be 1a df 60 be 4b 85 0a be 46 84 8d 3e
       -0.14733364 -0.21960106 -0.1352741 0.2763998
000030 cd d5 c8 3d 41 ae 25 3e ca 80 fc bd d6 37 75 be
       0.09806404 0.16179754 -0.12329252 -0.23947081
000040 bc dd 32 3e d5 02 4c be 23 7a 95 3e 77 f2 4a be
       0.17467397 -0.19922955 0.29194745 -0.19819055
000050 fb e7 96 bd cd d1 11 be 78 01 06 be d9 e9 4c be
       -0.073684655 -0.14240189 -0.13086498 -0.20011081
000060 b9 9e 0a be 7f 7a 69 be 0f ae f3 3c d8 c9 66 3e
       -0.1353711 -0.22800635 0.029746084 0.22537935
000070 5a 87 a0 3d 0e 84 24 be 69 4d 49 be dc e3 89 3e
       0.07838316 -0.16066 -0.19658436 0.26931655
