checkpoint_600.pth (torch, 450802 bytes, 8 tensors)

embedding.weight f4 [671, 100]
0.41584542 -0.52802324 0.12287704 0.7123005 -0.49476546 1.2771171 -0.2745555 0.041460954
-0.7420478 0.10788423 1.2107335 0.18116307 -0.75392866 0.62740004 -1.8431282 -0.052908912
1.1311157 1.0266179 0.00096974237 1.5793673 -2.2690613 -1.4306374 -0.5425042 -0.4060545
-0.856685 2.2981133 -0.03285403 0.6317385 -0.1541647 -0.8216318 0.89120567 -1.9365683
0.38028565 -0.0002890041 0.05702728 -1.0937204 -0.58184665 -0.3179517 0.22057894 1.0350696
-0.35980958 1.2690454 -0.692667 -0.46494347 2.5120676 0.74955344 -0.25409222 -1.0998051
2.0735896 0.6370147 1.2482982 -0.87043494 -0.29156086 0.24912561 -0.24327958 -0.5174943
0.14105953 1.7510556 -1.3081508 0.34413716 -0.3946814 -0.60497785 0.82330024 0.9089081
-0.94005466 -0.05670761 0.4309624 0.3204845 -0.57974523 -1.6361136 -0.58801496 1.5359502
-1.6613526 -0.39575183 -0.90601873 -0.32098377 -0.58587384 -0.5830535 -0.30614024 -0.09738065
0.8990566 -0.7892881 0.14228588 -0.055997703 0.32057047 -1.1401817 1.099999 -1.7840786
0.26272494 0.8934351 1.6369894 0.14280999 0.49514785 0.8060625 -0.20208803 0.11933015
0.9776952 -0.4065149 -1.0014683 -0.65981907 0.18024644 0.7303474 -1.3235373 -0.068754755
0.39534023 -0.3684025 0.025369015 0.6473491 0.1793592 -1.9221667 -0.26167098 0.7333565
-0.418469 1.4207574 0.53598 -0.49414417 -0.6206855 -2.1932037 0.34819907 1.2607754
0.37963462 0.04805162 0.10098009 -0.35879746 -0.29253116 0.7602241 -2.4936593 -1.7060894
-0.5633861 -1.6604112 -1.7078999 0.09867574 -1.013874 -0.16599923 -0.7960895 -0.33142242
-0.5879144 -0.09673998 -1.2621306 1.8662769 -1.0890174 -1.5060511 -0.05282446 -0.81461644
-0.57686436 -1.017853 -1.8162003 -0.6185983 0.4572087 -0.8345309 0.18781216 -0.89347154
-0.29435512 -0.72256446 -0.93211925 1.7086452 -0.089476466 -0.7297442 -1.1171337 -0.5449365
0.16248389 0.2674312 0.14481136 0.5873167 -0.61229736 -0.12148369 1.5986847 0.5653457
0.24589276 -0.6303324 0.43106112 -0.44625536 -1.7212455 0.48237482 0.7916456 1.1518419
0.8812745 2.425319 0.18271981 -0.33356914 1.1999979 0.57392645 -1.1933583 -1.6470361
1.7233413 -0.44460294 0.79711413 1.3654583 -1.3637242 -1.5812969 -0.31051904 0.49257088
-0.89453524 1.4709234 -1.0268257 0.3357404 -0.24828368 0.46529862 -1.0552863 0.67249423
-0.12657836 0.63634944 0.027839178 0.31627935 0.5225239 -1.8665327 2.0860097 -0.5552671
-1.4438795 -0.85178745 -1.1537471 2.0815983 -1.1727604 -0.8198209 0.72979504 -0.051387437
0.2853572 0.21207936 1.3544071 0.313188 1.0537524 -0.7149829 -0.918036 0.0983031
1.2635976 0.4668356 0.82311004 0.3691892 -2.6855645 1.6124679 0.6956317 -0.32936972
0.709236 0.23744255 0.16612224 0.32298973 -0.2334444 -1.0528324 0.19187379 -0.30229995
0.6356972 -0.74486834 0.59566736 0.3724464 -2.234955 -0.67796665 -1.4985646 -1.507708
0.5704105 -2.2219784 1.5333261 -0.05856302 0.31585303 -1.1710289 -1.8851566 -0.054635476
00000000: b1e9 d43e 882c 07bf f5a6 fb3d 5359 363f
00000010: e651 fdbe 9378 a33f 8a92 8cbe f6d2 293d
00000020: d8f6 3dbf 68f2 dc3d 51f9 9a3f d082 393e
00000030: 7801 41bf 4a9d 203f a0eb ebbf 04b7 58bd
00000040: 66c8 903f 3768 833f 4f36 7e3a b528 ca3f
00000050: 4d38 11c0 201f b7bf 8ee1 0abf 60e6 cfbe
00000060: b54f 5bbf 4a14 1340 f391 06bd 9db9 213f
00000070: 5add 1dbe 7656 52bf 0e26 643f 78e1 f7bf
00000080: cdb4 c23e 7985 97b9 7095 693d 08ff 8bbf
00000090: e7f3 14bf 91ca a2be 72df 613e 297d 843f
000000a0: f638 b8be 1470 a23f a052 31bf 120d eebe
000000b0: b7c5 2040 bce2 3f3f 6018 82be 6ac6 8cbf
000000c0: b1b5 0440 6513 233f 3cc8 9f3f d3d4 5ebf
000000d0: 7747 95be c91a 7f3e 481e 79be 827a 04bf
000000e0: e971 103e 9722 e03f 7c71 a7bf bf32 b03e
000000f0: ae13 cabe d4df 1abf cec3 523f 34ae 683f
00000100: 6ca7 70bf 3d46 68bd 1ba7 dc3e 8b16 a43e
00000110: 2f6a 14bf 2c6c d1bf 2688 16bf 049a c43f
00000120: 34a7 d4bf fc9f cabe d8f0 67bf fc57 a4be
00000130: d4fb 15bf ff42 15bf 6abe 9cbe 826f c7bd
00000140: 9328 663f c90e 4abf 64b3 113e d95d 65bd
00000150: d021 a43e 79f1 91bf c4cc 8c3f b05c e4bf
00000160: e283 863e 2ab8 643f de88 d13f c83c 123e
00000170: 0584 fd3e 1d5a 4e3f 2af0 4ebe 5e63 f43d
00000180: 3c4a 7a3f b922 d0be 1d30 80bf e7e9 28bf
00000190: 8692 383e 0cf8 3a3f ac69 a9bf 4bcf 8cbd
000001a0: 096a ca3e 419f bcbe aed2 cf3c acb8 253f
000001b0: f0a9 373e 8f09 f6bf bdf9 85be 40bd 3b3f
000001c0: 9241 d6be 61db b53f fc35 093f 7700 fdbe
000001d0: 3fe5 1ebf 735d 0cc0 2647 b23e 1761 a13f
000001e0: 785f c23e c7d1 443d a6ce ce3d 4db4 b7be
000001f0: a5c6 95be 0c9e 423f 1d98 1fc0 2361 dabf
00000200: 123a 10bf 5b88 d4bf 779c dabf 8216 ca3d
00000210: a0c6 81bf b4fb 29be 85cc 4bbf 33b0 a9be
00000220: 8f81 16bf 9c1f c6bd 7f8d a1bf 29e2 ee3f
00000230: ec64 8bbf 48c6 c0bf 765e 58bd b48a 50bf
00000240: 62ad 13bf 0249 82bf 4079 e8bf 755c 1ebf
00000250: 4217 ea3e d1a3 55bf d551 403e 8dba 64bf
00000260: b7b5 96be fcf9 38bf 5e9f 6ebf e3b4 da3f
00000270: 703f b7bd 84d0 3abf 3dfe 8ebf f580 0bbf
00000280: 2d62 263e beec 883e 6e49 143e 635a 163f
00000290: 85bf 1cbf 71cc f8bd b3a1 cc3f 7fba 103f
000002a0: 50cb 7b3e 775d 21bf 0bb4 dc3e 957b e4be
000002b0: c651 dcbf d5f9 f63e 49a9 4a3f 8e6f 933f
000002c0: 359b 613f 6d38 1b40 e71a 3b3e 93c9 aabe
000002d0: 8899 993f d8ec 123f f7bf 98bf 14d2 d2bf
000002e0: 7396 dc3f ffa2 e3be ac0f 4c3f 56c7 ae3f
000002f0: 848e aebf f067 cabf 5afc 9ebe 4032 fc3e
00000300: 4300 65bf 3847 bc3f 066f 83bf 2ae6 ab3e
00000310: 143e 7ebe 9f3b ee3e 9f13 87bf 9528 2c3f
00000320: c29d 01be cce7 223f fd0e e43c 5eef a13e
00000330: 20c4 053f 8bea eebf 2f81 0540 fc25 0ebf
00000340: 0bd1 b8bf be0e 5abf fcad 93bf e838 0540
00000350: 031d 96bf c8df 51bf d9d3 3a3f a27b 52bd
00000360: 571a 923e 552b 593e 365d ad3f 2d5a a03e
00000370: 5ce1 863f 1f09 37bf 6804 6bbf 2353 c93d
00000380: 91bd a13f 1305 ef3e 57b7 523f 5e06 bd3e
00000390: 4ae0 2bc0 5965 ce3f eb14 323f 26a3 a8be
000003a0: 7e90 353f 2424 733e f31b 2a3e e95e a53e
000003b0: 0c0c 6fbe 36c3 86bf 907a 443e 0fc7 9abe
000003c0: 0dbd 223f b1af 3ebf a87d 183f 4bb1 be3e
000003d0: 8109 0fc0 398f 2dbf f7d0 bfbf 93fc c0bf
000003e0: 6c06 123f e534 0ec0 0844 c43f c7df 6fbd
000003f0: 7db7 a13e 46e4 95bf d04c f1bf 73c9 5fbd

lstm.weight_ih_l0 f4 [256, 100]
-0.014149928 -0.03708223 -0.116812564 0.088037275 0.048199005 0.18154538 -0.023518387 -0.009930507
0.0726094 -0.1029673 -0.075753465 0.050796777 0.06127704 -0.10706265 0.04602568 0.10159575
0.07955783 -0.14715317 0.047357976 -0.069716536 -0.151994 -0.07902765 -0.0908977 -0.052339423
-0.06602178 -0.13304928 0.077720165 -0.13633627 0.089546435 0.0803295 0.048350833 -0.08394499
-0.021204831 0.062148727 -0.14826845 -0.040619154 -0.077420466 -0.07446472 -0.08567022 -0.020511039
-0.060008083 -0.1633157 -0.12095967 0.056435123 0.036427334 0.09793385 -0.010731779 -0.07584788
0.09082757 -0.015655536 0.05770269 -0.13475074 0.13216458 0.06841436 -0.03518081 0.06927616
-0.06380312 0.05842034 0.05164104 -0.091258906 -0.059210632 0.11710136 -0.037739918 -0.012644195
0.069176644 -0.003303202 -0.08823074 -0.14641704 -0.050935533 -0.062163346 0.068309456 0.027312951
0.029529234 -0.099978864 0.12154819 0.10481027 -0.006409429 0.09080998 -0.014851361 0.0974161
0.102929 -0.024995029 0.057743866 0.058881197 0.047459904 0.09883275 0.061164413 -0.056563262
-0.13558988 -0.12679614 -0.013723463 0.10820549 0.08370847 -0.072941385 -0.034945 0.04266724
0.055861853 0.024451546 -0.08812734 0.10943759 -0.040820204 -0.07942536 0.05263278 -0.114540875
0.122287095 -0.0022586167 -0.03473982 -0.17611355 -0.056620874 -0.121431865 0.049301013 0.0059325118
-0.07010118 0.07290552 -0.0005374358 -0.008345872 0.16865468 -0.08834257 0.029637376 -0.041586388
0.031607173 0.044873904 -0.08499856 0.16729394 0.05713188 -0.091826685 0.055790614 0.08045152
0.06301982 -0.048449017 -0.013442373 0.06573747 -0.13802893 -0.036725428 0.013682157 -0.043257795
0.0068886015 0.10356628 -0.15054046 -0.13528655 -0.09507426 0.026527708 -0.0015816663 0.06278327
0.1023083 -0.05045055 0.13424757 0.02961369 0.085407786 -0.0065369047 -0.04716392 -0.023828102
0.0068994015 -0.080028504 0.027634805 -0.05945542 0.019763544 0.1066594 -0.031130338 -0.13009496
-0.059707936 0.10067647 -0.03349221 0.07097334 0.1092146 -0.013302215 -0.025594087 -0.015442298
-0.073382884 -0.1494847 0.12228861 -0.11404004 0.07449441 -0.05833617 -0.05268295 0.010131415
0.0385954 -0.077385835 -0.062324062 0.07767366 0.057044484 0.023928454 0.016664019 -0.0357413
0.10822467 -0.05606178 0.07823392 -0.048399802 0.034212694 0.012969785 -0.056256596 -0.060163513
-0.0738877 -0.049876958 -0.08724453 0.035017405 0.061470155 -0.107914135 0.04046079 0.060380135
-0.02650027 -0.051946662 0.08801786 -0.06833685 0.14187889 0.10322134 0.08809435 0.053174745
-0.08185217 0.09245944 0.02297086 -0.057579167 -0.020387877 0.011557371 -0.022611158 0.026498254
0.08676574 0.11671835 -0.025143636 -0.09442446 -0.09645513 0.06742395 0.07811571 0.019486632
0.015124177 0.0692391 0.046545535 0.07482745 0.012724895 0.06056345 -0.040663958 0.031003283
0.06321441 0.06821403 0.19634299 0.05210687 0.16126753 0.08199387 0.053572506 0.037403043
0.10000813 0.047255952 0.105971515 -0.019501457 -0.040176563 -0.006529999 0.114677906 0.03773182
-0.1154832 -0.050114322 -0.07986726 -0.03435446 -0.038366783 -0.07306939 0.06424215 0.073534526
00000000: 1ad5 67bc 89e3 17bd 6d3b efbd e34c b43d
00000010: 526c 453d 08e7 393e a2a9 c0bc 91b3 22bc
00000020: 3db4 943d 85e0 d2bd a224 9bbd 4810 503d
00000030: a2fd 7a3d aa43 dbbd 6c85 3c3d 6f11 d03d
00000040: 37ef a23d 52af 16be 70fa 413d 8bc7 8ebd
00000050: 51a4 1bbe 40d9 a1bd 9328 babd dd61 56bd
00000060: 6d36 87bd 123e 08be c02b 9f3d bc9b 0bbe
00000070: 1f64 b73d cb83 a43d 860b 463d 5aeb abbd
00000080: c1b5 adbc aa8f 7e3d afd3 17be 4560 26bd
00000090: 9f8e 9ebd f680 98bd de73 afbd c406 a8bc
000000a0: 09cb 75bd 3b3c 27be b4b9 f7bd 8428 673d
000000b0: d434 153d 8b91 c83d 58d4 2fbc 2256 9bbd
000000c0: ce03 ba3d 0a40 80bc a859 6c3d 19fc 09be
000000d0: 2756 073e d41c 8c3d c119 10bd a9e0 8d3d
000000e0: 36ab 82bd 2b4a 6f3d 8e85 533d f3e5 babd
000000f0: d986 72bd d6d2 ef3d 2c95 1abd 9929 4fbc
00000100: 7cac 8d3d 897a 58bb 51b2 b4bd 59ee 15be
00000110: c7a1 50bd fe9e 7ebd d4e5 8b3d 69bf df3c
00000120: 4be7 f13c b8c1 ccbd 42ee f83d c4a6 d63d
00000130: 3006 d2bb 95fa b93d 1f53 73bc 1882 c73d
00000140: 71cc d23d 60c2 ccbc d584 6c3d 692d 713d
00000150: 5165 423d d368 ca3d 8987 7a3d e1ae 67bd
00000160: 13d8 0abe d9d6 01be 60d8 60bc d79a dd3d
00000170: 596f ab3d 4b62 95bd 7d22 0fbd d8c3 2e3d
00000180: 66cf 643d 9c4e c83c 1b7c b4bd d120 e03d
00000190: 1633 27bd c3a9 a2bd 7895 573d 6894 eabd
000001a0: a871 fa3d 4d05 14bb 574b 0ebd 1c57 34be
000001b0: 4aeb 67bd 45b1 f8bd dcef 493d 8465 c23b
000001c0: 3591 8fbd 7d4f 953d b5e2 0cba 20bd 08bc
000001d0: d0b3 2c3e f3ec b4bd 15ca f23c 7d56 2abd
000001e0: 8676 013d b3cd 373d ba13 aebd 1a4f 2b3e
000001f0: 1e03 6a3d a10f bcbd b384 643d c4c3 a43d
00000200: 8910 813d 7a72 46bd 663d 5cbc 5ea1 863d
00000210: 7557 0dbe 676d 16bd 202b 603c 162f 31bd
00000220: c7b9 e13b 8f1a d43d 4727 1abe 8f88 0abe
00000230: 4bb6 c2bd a350 d93c ea4f cfba 8494 803d
00000240: 0487 d13d 3ca5 4ebd 3278 093e 6998 f23c
00000250: 47ea ae3d 8833 d6bb f42e 41bd 2733 c3bc
00000260: 6014 e23b fce5 a3bd 6362 e23c 8787 73bd
00000270: 28e7 a13c 3e70 da3d 0d05 ffbc 9d37 05be
00000280: 4f90 74bd 772f ce3d 212f 09bd 785a 913d
00000290: e7ab df3d 89f1 59bc b1aa d1bc b101 7dbc
000002a0: c449 96bd 8412 19be 7372 fa3d d38d e9bd
000002b0: 8690 983d e8f1 6ebd 14ca 57bd 3cfe 253c
000002c0: 3616 1e3d 777c 9ebd 8447 7fbd 5e13 9f3d
000002d0: 7aa7 693d 9b05 c43c fb82 883c 7865 12bd
000002e0: e5a4 dd3d 09a1 65bd 1b39 a03d df3e 46bd
000002f0: 9c22 0c3d 397f 543c 516d 66bd 046e 76bd
00000300: 6f52 97bd c84b 4cbd 43ad b2bd 696e 0f3d
00000310: 21c8 7b3d 1602 ddbd 37ba 253d 2951 773d
00000320: 1817 d9bc 06c6 54bd b542 b43d 31f4 8bbd
00000330: b348 113e b665 d33d d06a b43d c3cd 593d
00000340: 1ca2 a7bd 605b bd3d 632d bc3c 22d8 6bbd
00000350: 7a04 a7bc 215b 3d3c 093b b9bc de12 d93c
00000360: 3cb2 b13d 080a ef3d 07fa cdbc 9c61 c1bd
00000370: 448a c5bd 9115 8a3d 21fb 9f3d 6ea2 9f3c
00000380: 65cb 773c 3bcd 8d3d 88a6 3e3d 223f 993d
00000390: 147c 503c 6111 783d 408f 26bd 99fa fd3c
000003a0: 8e76 813d ccb3 8b3d 230e 493e 036e 553d
000003b0: 5123 253e 67ec a73d d86e 5b3d ef33 193d
000003c0: 10d1 cc3d 758f 413d 9807 d93d 85c1 9fbc
000003d0: 2e90 24bd 9af9 d5bb 40dc ea3d ae8c 1a3d
000003e0: 7582 ecbd ad44 4dbd 7291 a3bd 43b7 0cbd
000003f0: 7d26 1dbd 68a5 95bd 6391 833d 4599 963d

lstm.weight_hh_l0 f4 [256, 64]
-0.067390844 0.019590186 -0.002378448 0.056918167 -0.08500856 0.19261363 0.15063867 0.055328816
0.0746548 -0.08449304 0.07093992 -0.00015602725 -0.05765161 0.121876344 -0.047941253 0.033159822
0.006812125 0.10356885 0.04054202 0.032316655 -0.097926736 0.08647127 0.1355377 -0.10711248
-0.057462983 -0.021156209 -0.025652688 0.06890875 0.17076588 0.023549082 0.05172339 0.11124302
-0.09638203 0.16435495 0.068093 -0.09428392 -0.047532246 0.028762776 -0.0008334549 0.1200823
-0.033888303 -0.03407042 -0.11519848 0.17696466 -0.05722962 0.017210009 -0.06830866 0.0676865
-0.075530775 0.028366717 -0.071615465 -0.032661144 -0.045349695 0.122275345 0.029297607 0.058928236
-0.012328045 -0.05176245 0.1598732 -0.097383656 0.05970651 0.13383193 0.078587286 0.13547836
0.061285526 0.06871774 0.056019735 0.04015104 -0.11517443 0.013088912 0.08117437 0.1366945
0.08485447 0.043860387 0.048285488 0.10996529 -0.055959508 0.1331433 0.10857113 -0.14663929
0.061634593 -0.108806446 -0.025812773 -0.1176958 -0.064023115 -0.025569687 0.13865559 0.037078567
-0.07710037 0.106431745 0.16541941 0.051130306 -0.058075458 0.054915093 0.03189136 -0.0799023
0.053323872 0.08895666 -0.08891002 -0.12112403 0.058706354 -0.06607979 0.043280818 0.029457636
0.04190735 0.03539092 0.080995485 0.14238946 0.067025796 0.1600437 0.004731275 -0.094503514
0.07347234 0.030492783 0.13615046 -0.0477084 -0.1017409 0.030811384 0.10382708 0.037990563
-0.0027158617 0.05653887 -0.14185603 -0.051064525 -0.08416398 0.13560632 0.06805998 0.026194055
0.05508673 -0.07758742 -0.08136624 -0.05735052 -0.1347909 -0.0026787869 0.008509388 0.02457011
-0.082622975 0.0449464 -0.08460069 0.09674372 0.07605207 0.032998335 0.053427655 0.027790628
-0.000934977 -0.17241693 -0.15470894 0.054429036 -0.053943247 0.05210914 -0.008500364 0.07390223
-0.069842696 0.07436932 0.08656149 0.020696485 -0.09778796 0.08871692 0.027523326 0.05687499
0.036386397 -0.04374198 0.17414294 -0.009156337 -0.041621715 -0.07985613 0.012746724 0.1169577
0.033560667 0.14908218 -0.081418425 0.11894376 0.13514124 -0.1425638 0.116107345 0.07806576
-0.10355494 -0.034666765 -0.07262695 0.061418913 0.12661141 0.010340586 -0.10914717 -0.094961815
0.07339549 -0.062032435 -0.10493224 -0.010149515 -0.07547177 0.04291743 -0.10981754 -0.12632628
0.06882656 0.13396221 0.08704738 -0.07542761 0.040463813 0.060625076 -0.03439649 -0.1017974
-0.11443119 0.09694444 -0.096866734 -0.070782505 0.075588934 -0.06575067 -0.0103864595 -0.031351984
0.11938139 0.107255615 0.066820964 -0.12130923 0.05577625 -0.058337558 0.000794988 -0.02715386
0.04221398 0.13274756 -0.056720283 -0.06824668 0.06719029 0.06662383 0.11082189 0.014889237
-0.0780062 -0.0026070809 0.1382288 0.031280376 0.0008394821 0.028082216 -0.12526147 0.0577512
0.09983327 -0.06163534 -0.006265189 0.18174818 0.006631833 0.07295712 0.014956062 0.15290047
0.05501955 0.093688175 0.06842286 -0.16237706 0.10293151 0.07714681 -0.06856198 0.06722516
0.008091403 -0.1170096 -0.08192567 -0.066840254 -0.00818172 0.07429884 0.04227278 -0.0088391835
00000000: 3604 8abd 997b a03c bcdf 1bbb 0623 693d
00000010: f818 aebd 823c 453e 0641 1a3e 78a0 623d
00000020: 9ee4 983d b00a adbd f348 913d 3f9b 23b9
00000030: 1824 6cbd 4e9a f93d 0c5e 44bd 98d2 073d
00000040: 3f38 df3b e81b d43d 640f 263d 785e 043d
00000050: d08d c8bd d917 b13d 65ca 0a3e ca5d dbbd
00000060: 4e5e 6bbd c94f adbc 9625 d2bc 0820 8d3d
00000070: 40dd 2e3e 01ea c03c e8db 533d 61d3 e33d
00000080: f163 c5bd aa4c 283e 5874 8b3d ee17 c1bd
00000090: 2cb1 42bd ea9f eb3c 367c 5aba b5ed f53d
000000a0: 76ce 0abd 6d8d 0bbd 2eed ebbd 3936 353e
000000b0: 9b69 6abd 01fc 8c3c 69e5 8bbd 389f 8a3d
000000c0: e1af 9abd 5161 e83c 21ab 92bd b1c7 05bd
000000d0: 9ac0 39bd 7f6b fa3d 8901 f03c bc5e 713d
000000e0: 92fb 49bc dd04 54bd cdb5 233e 1571 c7bd
000000f0: d08e 743d 3d0b 093e 5ff2 a03d d7ba 0a3e
00000100: 8806 7b3d e3bb 8c3d f374 653d 6b75 243d
00000110: 92e0 ebbd e072 563c c03e a63d a5f9 0b3e
00000120: 2ec8 ad3d f3a6 333d 01c7 453d 7b35 e13d
00000130: cc35 65bd b856 083e 8a5a de3d 9c28 16be
00000140: 8e74 7c3d ead5 debd 4f75 d3bc 7f0a f1bd
00000150: 8d1e 83bd 8577 d1bc bbfb 0d3e b2df 173d
00000160: cce6 9dbd e3f8 d93d b563 293e 036e 513d
00000170: 88e0 6dbd a6ee 603d 84a0 023d d1a3 a3bd
00000180: 226a 5a3d e92e b63d 7516 b6bd e00f f8bd
00000190: 1376 703d d754 87bd 3a47 313d 2451 f13c
000001a0: 0ba7 2b3d 12f6 103d f6e0 a53d 8bce 113e
000001b0: d244 893d 7fe2 233e d008 9b3b 0f8b c1bd
000001c0: ab78 963d 00cc f93c 076b 0b3e e269 43bd
000001d0: 885d d0bd 2868 fc3c 4ba3 d43d fe9b 1b3d
000001e0: 99fc 31bb 4d95 673d b542 11be 0929 51bd
000001f0: 2a5e acbd 62dc 0a3e 0863 8b3d ea94 d63c
00000200: 9fa2 613d 27e6 9ebd 58a3 a6bd 61e8 6abd
00000210: a006 0abe 968e 2fbb f66a 0b3c 4147 c93c
00000220: 3c36 a9bd b719 383d 2043 adbd 9221 c63d
00000230: 30c1 9b3d 4329 073d f5d6 5a3d 2ca9 e33c
00000240: 3f19 75ba 108e 30be 056c 1ebe fbf0 5e3d
00000250: 98f3 5cbd 6570 553d 1c45 0bbc 0d5a 973d
00000260: b009 8fbd f14e 983d 2747 b13d ad8b a93c
00000270: 0e45 c8bd 37b1 b53d 9978 e13c c0f5 683d
00000280: e709 153d ca2a 33bd 8752 323e 7604 16bc
00000290: 887b 2abd 9c8b a3bd a3d7 503c 8587 ef3d
000002a0: e976 093d 00a9 183e b4be a6bd c998 f33d
000002b0: 7762 0a3e 3ffc 11be b0c9 ed3d f1e0 9f3d
000002c0: 9d14 d4bd bdfe 0dbd 70bd 94bd 6692 7b3d
000002d0: 6ca6 013e 906b 293c 8d88 dfbd 577b c2bd
000002e0: 6050 963d b915 7ebd b7e6 d6bd 274a 26bc
000002f0: f190 9abd 30ca 2f3d 05e8 e0bd ad5b 01be
00000300: f1f4 8c3d 642d 093e e645 b23d ca79 9abd
00000310: 62bd 253d 0052 783d 55e3 0cbd 287b d0bd
00000320: e65a eabd ce8a c63d 1162 c6bd 6bf6 90bd
00000330: 5fce 9a3d 4aa8 86bd f82b 2abc f06a 00bd
00000340: 3b7e f43d d5a8 db3d 6ed9 883d f970 f8bd
00000350: a375 643d 5df3 6ebd be66 503a c671 debc
00000360: 91e8 2c3d faee 073e 8753 68bd eac4 8bbd
00000370: 109b 893d 1372 883d 96f6 e23d fcf1 733c
00000380: b7c1 9fbd 8fdb 2abb da8b 0d3e da1f 003d
00000390: b110 5c3a ad0c e63c 8b44 00be 868c 6c3d
000003a0: 6375 cc3d 5775 7cbd 374c cdbb 321c 3a3e
000003b0: d94f d93b 8b6a 953d 450a 753c f191 1c3e
000003c0: 2e5c 613d 96df bf3d 4921 8c3d 2c46 26be
000003d0: c1cd d23d 26ff 9d3d 396a 8cbd 58ad 893d
000003e0: ce91 043c bba2 efbd a5c8 a7bd 8be3 88bd
000003f0: 9f0c 06bc fd29 983d 3926 2d3d 39d2 10bc

lstm.bias_ih_l0 f4 [256]
0.10088859 0.07290121 0.17319486 0.02132241 -0.051576167 0.17800465 0.03139105 0.0005904342
0.032598156 0.051571112 0.08743526 -0.06604778 0.12351736 0.1206703 -0.030886285 0.014106215
-0.010319792 0.1267504 0.036134083 0.033911 0.091141105 0.15580305 0.030581359 0.16787228
0.016612865 -0.004892415 0.05185103 0.12997063 0.047213785 0.1227947 0.06710278 0.03719191
0.10955419 0.15903364 0.15536304 0.08689418 0.01811526 -0.0037419822 -0.061366487 0.08325844
0.052171145 0.09468669 0.17806605 -0.067534 0.09073144 0.117587976 0.10244946 0.05525016
0.11948936 -0.02281493 0.013094198 -0.042639177 0.12859797 -0.020162143 0.08579685 0.14190623
-0.04564802 0.15501787 0.019819036 0.056098815 0.15937532 -0.0040083556 -0.03467378 0.11865342
-0.04746497 -0.112371884 0.04871393 -0.004712953 0.17376046 0.11366623 0.11078604 0.021471102
0.06902064 -0.07345635 0.1268712 -0.046492282 -0.046287328 0.17101455 -0.018514628 0.13967766
0.007820946 0.15044446 -0.047034908 -0.04577215 0.055233125 0.12082903 -0.11009653 -0.060314436
0.041767072 -0.016948842 0.048543923 -0.09255112 -0.037311263 0.12729502 -0.040305674 0.06628437
0.14813386 0.05420868 0.005628756 -0.025635097 -0.012237221 0.07576147 -0.11351864 0.002598968
0.10310507 0.10061669 0.00730372 -0.0059365286 0.015426012 0.0288202 -0.024432758 0.018619284
0.1473589 0.105136134 0.033662796 0.054704938 0.010175424 -0.076140784 0.046232667 0.05297148
-0.03867153 -0.07586868 -0.057886902 0.118577465 -0.040971115 -0.026998322 -0.06622627 0.16496666
0.003416901 0.057769526 0.16112046 0.0031326422 -0.19862144 0.19728307 0.073369585 -0.06037016
0.0630556 -0.007901318 -0.11802561 -0.08788699 -0.04094495 -0.06757264 0.20150305 0.053774226
0.030986445 -0.011766614 -0.07041845 -0.0130574005 -0.149166 -0.0192682 0.17049566 0.116085365
-0.025934732 0.1186243 0.1417954 -0.040765587 -0.11720425 0.009905058 0.027526762 -0.012527271
-0.13461156 0.1979306 0.06911589 0.12659451 0.023052216 -0.034127947 0.07867362 -0.059188727
0.0027927405 0.03813328 -0.022667512 0.18192369 -0.041794192 -0.06596924 0.023523206 -0.15033339
-0.03431284 0.12560374 -0.09547547 -0.060552657 0.15286474 0.16801476 -0.14986157 -0.05565107
-0.1248558 -0.18791266 0.01920288 0.15521944 0.11668776 -0.08526231 -0.13332562 -0.09843654
0.0034832158 -0.08954229 -0.03519151 -0.07467421 0.18907052 -0.028655373 0.06495779 0.11676884
0.1195359 0.077344775 0.20694566 0.14903435 0.016535575 0.16946274 0.049885865 0.14510684
0.044395246 0.04876193 0.08859449 -0.0017976329 -0.008071472 0.025664888 0.06308119 0.033100586
0.046556525 0.13826409 -0.057121698 0.15268458 0.1323244 0.20428315 0.054323412 -0.05286939
0.11982378 0.014183414 0.123950265 0.018837934 0.11370812 0.016243583 0.10607559 0.13913643
0.08776806 0.054409765 0.10530191 0.17229582 -0.04895407 -0.05713884 0.10487018 0.1825054
0.050267026 0.028277645 0.07756565 0.1754122 0.089589775 0.009162578 0.019106705 0.0114317
0.17536242 0.17780846 0.061296735 -0.026333906 -0.031579025 0.15674707 0.085020594 0.11632841
00000000: ad9e ce3d 3b4d 953d fe59 313e 56ac ae3c
00000010: 8841 53bd da46 363e e793 003d 5ec7 1a3a
00000020: a585 053d 3b3c 533d 4211 b33d 0f44 87bd
00000030: abf6 fc3d fe21 f73d 3c05 fdbc c11d 673c
00000040: 5814 29bc dbca 013e 5501 143d 43e6 0a3d
00000050: 30a8 ba3d d68a 1f3e c285 fa3c b6e6 2b3e
00000060: b417 883c 8d50 a0bb bf61 543d 0517 053e
00000070: 3e63 413d ca7b fb3d 2f6d 893d 8b56 183d
00000080: f25d e03d b7d9 223e 7d17 1f3e 93f5 b13d
00000090: 7466 943c 0b3c 75bb 6d5b 7bbd 6783 aa3d
000000a0: 69b1 553d 18eb c13d f256 363e 444f 8abd
000000b0: 68d1 b93d f7d1 f03d 06d1 d13d fe4d 623d
000000c0: d6b6 f43d 60e6 babc 0c89 563c 6ba6 2ebd
000000d0: 30af 033e 142b a5bc 42b6 af3d de4f 113e
000000e0: 6bf9 3abd 01bd 1e3e 885b a23c dfc7 653d
000000f0: 4933 233e 8658 83bb 1806 0ebd 9000 f33d
00000100: a16a 42bd 3b23 e6bd 4288 473d 1e6f 9abb
00000110: 43ee 313e d7c9 e83d cbe3 e23d 2ae4 af3c
00000120: b15a 8d3d 4870 96bd 86ea 013e b16e 3ebd
00000130: c897 3dbd 701e 2f3e fdab 97bc a907 0f3e
00000140: 6d23 003c 1d0e 1a3e ada7 40bd 947b 3bbd
00000150: 213c 623d 3675 f73d 4a7a e1bd 450c 77bd
00000160: f313 2b3d 4cd8 8abc fed5 463d 718b bdbd
00000170: b2d3 18bd a059 023e 9017 25bd 1ac0 873d
00000180: 67b0 173e ec09 5e3d 6d71 b83b b200 d2bc
00000190: a07e 48bc d428 9b3d 767c e8bd 7353 2a3b
000001a0: c028 d33d 2010 ce3d 0b54 ef3b 3687 c2bb
000001b0: 62bd 7c3c 5718 ec3c 3527 c8bc 7887 983c
000001c0: 40e5 163e 9d51 d73d 00e2 093d 4912 603d
000001d0: d2b6 263c b3ef 9bbd 775e 3d3d 9ff8 583d
000001e0: 0a66 1ebd 0a61 9bbd d11a 6dbd bed8 f23d
000001f0: 54d1 27bd 962b ddbc a3a1 87bd 05ed 283e
00000200: 16ee 5f3b bd9f 6c3d c3fc 243e 044d 4d3b
00000210: 6b63 4bbe 9304 4a3e cb42 963d b346 77bd
00000220: 4b23 813d 8874 01bc 69b7 f1bd 18fe b3bd
00000230: e4b5 27bd 8663 8abd d156 4e3e 5d42 5c3d
00000240: 49d7 fd3c c2c8 40bc 8c37 90bd b5ee 55bc
00000250: f9be 18be 58d8 9dbc 6a96 2e3e 2abe ed3d
00000260: 1375 d4bc 4cf1 f23d d032 113e d1f9 26bd
00000270: c808 f0bd d348 223c ce7f e13c 2f3f 4dbc
00000280: 9dd7 09be 52ae 4a3e a28c 8d3d fea1 013e
00000290: 00d8 bc3c bfc9 0bbd a31f a13d e16f 72bd
000002a0: 6906 373b a431 1c3d 38b1 b9bc 344a 3a3e
000002b0: 6330 2bbd e21a 87bd bdb3 c03c fff0 19be
000002c0: 9f8b 0cbd 449e 003e a588 c3bd 1006 78bd
000002d0: 9388 1c3e 100c 2c3e 5075 19be 60f2 63bd
000002e0: 66b4 ffbd 2d6c 40be 5c4f 9d3c d8f1 1e3e
000002f0: fef9 ee3d 029e aebd 8386 08be 1999 c9bd
00000300: aa46 643b f361 b7bd f924 10bd cbee 98bd
00000310: b49b 413e acbe eabc 9708 853d 8024 ef3d
00000320: 3dcf f43d f066 9e3d 90e9 533e 769c 183e
00000330: 9d75 873c a487 2d3e 1f55 4c3d e396 143e
00000340: cad7 353d 97ba 473d 0771 b53d 8d9e ebba
00000350: 353e 04bc 2c3f d23c b630 813d 7b94 073d
00000360: 0eb2 3e3d 1a95 0d3e 71f8 69bd 5959 1c3e
00000370: 0c80 073e 9a2f 513e 3a82 5e3d 938d 58bd
00000380: 2c66 f53d 8d61 683c a3d9 fd3d 0352 9a3c
00000390: cedf e83d 4311 853c 293e d93d c879 0e3e
000003a0: bebf b33d c6dc 5e3d 87a8 d73d 516e 303e
000003b0: 1084 48bd 6b0a 6abd 2dc6 d63d b2e2 3a3e
000003c0: cce4 4d3d 85a6 e73c bdda 9e3d 419f 333e
000003d0: d87a b73d a31e 163c aa85 9c3c 064c 3b3c
000003e0: 3592 333e 6c13 363e 4912 7b3d 34ba d7bc
000003f0: 0259 01bd 4e82 203e 471f ae3d 973d ee3d

lstm.bias_hh_l0 f4 [256]
-0.04375255 -0.027189557 0.16187952 0.014374148 -0.049316566 0.08305009 0.035984322 0.107908875
-0.05615263 0.06675364 0.06841944 0.17506945 0.13408281 0.11314738 -0.024264818 -0.031022709
0.107393935 -0.08415966 -0.012710689 0.031445976 -0.06339803 0.14038387 0.07790661 0.057016473
-0.0143291345 0.11738192 0.10722766 0.05001396 0.049968626 0.17599761 -0.016264757 -0.10992984
0.14597303 0.026537621 0.24013643 0.059393086 -0.053672515 -0.018978227 0.022407273 0.0016518
0.05197982 0.01728859 0.08528692 -0.050233927 0.13480772 0.11121695 -0.042506233 -0.016522206
0.095243245 -0.03620978 0.17185305 0.053702272 0.06738044 0.058294766 0.033522036 0.07753549
-0.063682176 0.095834814 0.018416986 0.07007669 -0.04679814 0.16184288 0.0058806804 0.096888795
0.012722868 0.10243032 0.08083307 -0.06787168 0.035562526 -0.070252515 0.003981436 0.08694414
0.05775627 -0.044697218 0.12513788 -0.017958008 -0.032751717 0.019032773 -0.045220416 -0.013921023
-0.04554529 0.03244776 0.10141842 0.008788322 0.15219961 -0.021382352 -0.05193262 -0.015594397
-0.08017817 0.03292653 0.053120147 -0.061645787 -0.058864433 -0.058822464 0.0066234046 -0.050553452
-0.040622577 0.0126682585 0.13523956 0.016587868 0.06894617 0.14573823 0.023851484 -0.048047375
-0.037271038 -0.05000331 0.15622114 -0.06987434 -0.011175964 0.0040216995 0.109214626 0.0626951
-0.018643582 0.0007630051 -0.013962663 0.12135708 0.11696915 0.031209145 0.13959897 0.055104185
0.13066615 0.11580911 0.023530342 -0.014503506 0.060226 -0.06162418 0.058473896 0.1372952
-0.02464836 0.054642573 -0.0113111455 -0.08868505 -0.1927022 0.044123895 -0.13212568 0.104202375
0.10990129 0.052834608 -0.21806465 0.09926977 0.1475026 -0.11749507 -0.006532299 -0.062107284
0.14879698 0.10064446 -0.099274516 -0.17911018 -0.19808996 0.09964799 0.17935464 0.06509392
-0.13819598 -0.018175712 0.18028939 0.031339284 -0.05095403 0.0175307 -0.03781425 0.042614043
-0.12409204 0.16250078 -0.038900256 0.09519002 0.013277649 0.012060697 -0.07415828 0.12686658
0.048331268 0.21557477 0.13677664 0.09639174 0.17843518 -0.11870271 -0.17383678 0.00963882
-0.16951892 -0.076011375 -0.10399643 0.0011063631 0.12464461 0.109227866 -0.1606227 -0.0088102175
0.06921211 0.016059957 0.06870363 0.059707366 0.1580481 -0.19698519 -0.13736473 -0.14297462
0.17966162 0.12644269 0.15706873 -0.04813754 -0.0056783687 0.010212186 -0.036740396 0.23412482
0.0953317 0.16316198 0.14390486 -0.08615581 0.066316895 -0.030679015 0.146731 -0.03895819
0.11673338 -0.06510808 0.062311586 -0.026375106 0.07426718 0.07502813 0.12501885 0.09854193
0.081913546 0.15572134 0.063855916 0.09803216 -0.014886418 -0.038836617 0.053694315 0.01154164
0.015790349 0.0752727 0.25795582 0.020666461 0.05027847 0.18195215 -0.09860813 -0.00076482614
-0.062812105 0.012646598 0.1159798 0.07433574 0.08790046 0.08835664 -0.031440347 0.20316294
0.0376085 -0.055526804 0.15140769 0.1712668 0.20869707 0.020537367 0.132482 -0.053548463
0.045216076 0.13672839 0.011237924 1.09409375e-05 0.18606731 -0.0032636255 -0.096337214 0.12786667
00000000: e035 33bd a2bc debc bfc3 253e 8c81 6b3c
00000010: 2b00 4abd 2a16 aa3d 4c64 133d 54ff dc3d
00000020: 4d00 66bd 22b6 883d 7e1f 8c3d 6845 333e
00000030: 014d 093e d0b9 e73d 03c7 c6bc 5623 febc
00000040: 5af1 db3d e65b acbd 7e40 50bc 7fcd 003d
00000050: d4d6 81bd cac0 0f3e 808d 9f3d 1b8a 693d
00000060: bfc4 6abc ef65 f03d 2d9a db3d 70db 4c3d
00000070: e7ab 4c3d b838 343e ab3d 85bc e522 e1bd
00000080: f479 153e 6d65 d93c 53e6 753e 2a46 733d
00000090: b6d7 5bbd 3a78 9bbc 758f b73c 3681 d83a
000000a0: cbe8 543d cda0 8d3c e9aa ae3d 17c2 4dbd
000000b0: 090b 0a3e b6c5 e33d 041b 2ebd 9459 87bc
000000c0: e40e c33d b550 14bd 3ffa 2f3e eaf6 5b3d
000000d0: c2fe 893d 7ec6 6e3d 674e 093d edca 9e3d
000000e0: cd6b 82bd 0b45 c43d 38df 963c 5e84 8f3d
000000f0: 68af 3fbd 24ba 253e b9b2 c03b a26d c63d
00000100: 9373 503c fdc6 d13d cf8b a53d 4f00 8bbd
00000110: 03aa 113d 8de0 8fbd b576 823b c50f b23d
00000120: d791 6c3d 6e14 37bd 2524 003e ac1c 93bc
00000130: aa26 06bd 9eea 9b3c 0b39 39bd 0115 64bc
00000140: b38d 3abd f1e7 043d 76b4 cf3d e5fc 0f3c
00000150: 37da 1b3e 0b2a afbc 4db7 54bd a47f 7fbc
00000160: 7434 a4bd f8dd 063d 8394 593d 4b80 7cbd
00000170: d51b 71bd d3ef 70bd 2509 d93b 2311 4fbd
00000180: dc63 26bd 878e 4f3c 3d7c 0a3e 48e3 873c
00000190: a633 8d3d 673c 153e 3064 c33c 53cd 44bd
000001a0: 84a9 18bd 45d0 4cbd 6ff8 1f3e 471a 8fbd
000001b0: 641b 37bc 76c8 833b ebab df3d 4a66 803d
000001c0: 6dba 98bc 6804 483a a7c3 64bc 108a f83d
000001d0: 868d ef3d 52aa ff3c 08f3 0e3e edb4 613d
000001e0: 59cd 053e 542d ed3d b4c2 c03c 1da0 6dbc
000001f0: 8aaf 763d a369 7cbd 5382 6f3d 1d97 0c3e
00000200: 5ceb c9bc e4d0 5f3d 6252 39bc 82a0 b5bd
00000210: ba53 45be 42bb 343d f44b 07be 0e68 d53d
00000220: ed13 e13d 1a69 583d 574c 5fbe f34d cb3d
00000230: ec0a 173e 41a1 f0bd e50c d6bb 3564 7ebd
00000240: 3c5e 183e af1e ce3d 7050 cbbd a968 37be
00000250: 18d8 4abe 3f14 cc3d bea8 373e f64f 853d
00000260: 3f83 0dbe 3be5 94bc c89d 383e 9f5d 003d
00000270: 2cb5 50bd 8b9c 8f3c 1de3 1abd 108c 2e3d
00000280: f823 febd 9b66 263e e055 1fbd fcf2 c23d
00000290: 7f8a 593c 3b9a 453c 4ce0 97bd 50e9 013e
000002a0: 02f7 453d a2bf 5c3e 2d0f 0c3e 0869 c53d
000002b0: b6b7 363e 681a f3bd 4502 32be 24ec 1d3c
000002c0: 5e96 2dbe daab 9bbd 15fc d4bd 6303 913a
000002d0: ac45 ff3d dcb2 df3d 477a 24be bb58 10bc
000002e0: 14bf 8d3d 2c90 833c 7db4 8c3d b68f 743d
000002f0: 5cd7 213e 7cb6 49be 57a9 0cbe f067 12be
00000300: 37f9 373e 317a 013e a0d6 203e df2b 45bd
00000310: 9c11 babb 0351 273c 197d 16bd 6bbe 6f3e
00000320: 443d c33d ef13 273e cc5b 133e 7572 b0bd
00000330: 27d1 873d 8f52 fbbc a740 163e 9f92 1fbd
00000340: e911 ef3d 6357 85bd 6f3a 7f3d 9b10 d8bc
00000350: 6419 983d 59a8 993d f104 003e 5ad0 c93d
00000360: 4ac2 a73d 6a75 1f3e e4c6 823d 16c5 c83d
00000370: 2ae6 73bc 2513 1fbd 92ee 5b3d 2619 3d3c
00000380: c35a 813c 9328 9a3d c912 843e b64c a93c
00000390: ccf0 4d3d aa51 3a3e 0ff3 c9bd 9d7e 48ba
000003a0: a2a3 80bd ad33 4f3c d186 ed3d 563d 983d
000003b0: 2805 b43d 53f4 b43d 98c7 00bd f209 503e
000003c0: 5f0b 1a3d 1370 63bd 9e0a 1b3e 9060 2f3e
000003d0: afb4 553e fb3d a83c 5da9 073e a255 5bbd
000003e0: 7e34 393d 8702 0c3e 451f 383c f88e 3737
000003f0: 6e88 3e3e 8de2 55bb 724c c5bd 7bef 023e

fc1.weight f4 [32, 64]
-0.019257028 0.09672656 -0.009072678 -0.1664752 -0.13965143 0.01880384 -0.056405254 -0.11508306
0.068798855 -0.036023777 -0.052570436 -0.0632063 0.07571602 -0.05632499 0.023368884 0.15735464
0.03197813 0.11089802 -0.17432773 -0.14204638 -0.029391635 -0.12587187 0.011877956 -0.09595963
-0.21291816 0.081314355 -0.007447231 0.0660179 -0.05948934 0.072746925 0.03693599 -0.12871651
-0.18328084 0.19669014 0.11182583 0.038038023 0.124413766 -0.09340376 -0.16939455 -0.07776903
0.09480814 0.20703858 0.004577852 0.07200751 0.118514925 0.06993893 -0.06066754 -0.22416158
-0.09971503 -0.01016656 -0.018551007 -0.14677417 0.2401405 0.17021368 -0.15607725 -0.10818033
-0.036976926 -0.18031111 0.14262226 -0.0043028705 0.04549686 -0.16621162 -0.0058707222 -0.033870596
-0.08674361 -0.12885359 0.06660678 -0.1099642 0.045856092 0.004236038 -0.07002653 0.01778172
-0.036814507 0.09288857 0.14844611 0.076225236 0.07698223 0.1172403 -0.00091347576 -0.090602644
0.04753815 0.033015933 -0.07962067 -0.018838005 0.08393216 -0.07016069 0.0687052 0.059173673
-0.04335837 0.019920116 0.109038964 -0.11005186 0.07743235 -0.11894462 0.040626492 0.05417842
-0.07517596 -0.046803687 0.007242366 0.0032376472 0.093330175 0.06272844 0.032535583 -0.06007041
-0.08586197 -0.094466485 -0.005579206 -0.07724984 0.00040921802 0.10785627 0.024942841 -0.06701603
-0.10070753 0.10650431 -0.0978625 0.11272045 -0.018129725 0.10380106 -0.044973038 0.08864369
-0.03844761 0.12873133 -0.07687031 -0.06354552 0.058467552 -0.12911175 0.14117002 -0.06985854
-0.1368199 -0.10180107 -0.053738825 0.033296116 -0.03995705 -0.08493475 0.0975423 0.12138552
-0.02793577 -0.0062517873 0.05490784 0.027988402 0.0122070145 0.15658745 -0.05565882 -0.109184265
0.03763826 -0.070586644 -0.07522573 0.049545072 -0.06735958 -0.043775912 -0.084989026 0.051448647
-0.04618979 -0.08890292 0.009852264 0.079024926 0.030496055 0.041307036 0.0653587 -0.0768845
-0.09304832 0.043959662 -0.13450412 0.058378145 -0.039087888 0.025596231 -0.10571735 -0.0073806634
-0.052745923 0.072724946 -0.06614423 -0.01698855 0.048995316 -0.027362326 0.122894526 -0.066415615
-0.02465496 -0.09012346 -0.0115809105 0.15275928 -0.020790061 -0.0913067 -0.00430912 0.05664002
0.09573495 0.190451 -0.06070508 -0.040729314 0.05729932 -0.052328195 -0.04182809 0.10807783
0.13460365 -0.00046612226 0.12791315 -0.03730634 0.052212328 -0.023721684 0.07216513 -0.049605537
-0.13935769 -0.035997562 0.0004961609 -0.13831519 -0.018601056 -0.2078135 0.019093169 0.12900546
0.014682647 0.14439681 -0.015488176 -0.015428978 -0.16908386 -0.1507029 0.20320539 0.03697357
-0.11688229 0.10540584 0.037717506 -0.08129349 -0.013422014 -0.027917316 0.09937927 -0.023707287
0.017236998 0.1800365 0.12021896 0.0074548195 -0.10850823 -0.108279586 -0.07283042 0.008532711
-0.04634524 0.09453227 0.07283786 0.05481835 0.16191523 -0.111008994 0.103876345 -0.19387792
-0.11904726 0.10972526 0.0062063895 -0.03737878 -0.01109016 0.19303128 -0.011676219 0.042164538
-0.21352749 -0.13026598 -0.040460493 0.03753539 0.07485895 -0.13061833 -0.15739684 -0.1845568
00000000: eac0 9dbc 9318 c63d 92a5 14bc 7a78 2abe
00000010: c900 0fbe 830a 9a3c 3209 67bd abb0 ebbd
00000020: 6ae6 8c3d ab8d 13bd 1954 57bd 4e72 81bd
00000030: 0011 9b3d 08b5 66bd 1a70 bf3c 9321 213e
00000040: 80fb 023d 801e e33d f882 32be 9b74 11be
00000050: bac6 f0bc 8ee4 00be c29b 423c 7c86 c4bd
00000060: 3807 5abe 2488 a63d e707 f4bb 6534 873d
00000070: 18ab 73bd 57fc 943d 314a 173d 43ce 03be
00000080: f9ad 3bbe 2469 493e f104 e53d c2cd 1b3d
00000090: a5cc fe3d 784a bfbd c475 2dbe 5f45 9fbd
000000a0: c52a c23d ec01 543e ce01 963b ac78 933d
000000b0: f4b7 f23d 243c 8f3d 877e 78bd 9d8a 65be
000000c0: 6537 ccbd a591 26bc 48f8 97bc f84b 16be
000000d0: 64e7 753e 7f4c 2e3e b7d2 1fbe a68d ddbd
000000e0: 1e75 17bd 7aa3 38be 920b 123e 18ff 8cbb
000000f0: ea5a 3a3d 6133 2abe 305f c0bb e5bb 0abd
00000100: a2a6 b1bd 32f2 03be 2369 883d e934 e1bd
00000110: 99d3 3b3d 76ce 8a3b 126a 8fbd f8aa 913c
00000120: cfca 16bd 5d3c be3d 4202 183e fa1b 9c3d
00000130: dca8 9d3d af1b f03d 5276 6fba e18d b9bd
00000140: 5db7 423d b73b 073d 2910 a3bd 2952 9abc
00000150: a0e4 ab3d 68b0 8fbd 50b5 8c3d 1860 723d
00000160: 8c98 31bd 832f a33c d24f df3d df62 e1bd
00000170: da94 9e3d 3d99 f3bd f767 263d 31ea 5d3d
00000180: dbf5 99bd 39b5 3fbd 5f51 ed3b b52e 543b
00000190: e423 bf3d c577 803d 0844 053d 640c 76bd
000001a0: 67d8 afbd a577 c1bd c6d1 b6bb 2a35 9ebd
000001b0: 508c d639 c0e3 dc3d ee54 cc3c b33f 89bd
000001c0: c03f cebd ef1e da3d 226c c8bd fbd9 e63d
000001d0: ca84 94bc a695 d43d a635 38bd d38a b53d
000001e0: 3e7b 1dbd 25d2 033e 2e6e 9dbd 2724 82bd
000001f0: ac7b 6f3d df35 04be e08e 103e ff11 8fbd
00000200: 841a 0cbe 147d d0bd 3e1d 5cbd 8261 083d
00000210: 01aa 23bd 45f2 adbd 42c4 c73d f998 f83d
00000220: 8ed9 e4bc cbdb ccbb 0be7 603d ef47 e53c
00000230: eeff 473c 7658 203e 81fa 63bd 009c dfbd
00000240: 932a 1a3d bb8f 90bd f30f 9abd c6ef 4a3d
00000250: d2f3 89bd 5f4e 33bd ba0e aebd d1bb 523d
00000260: 8131 3dbd bc12 b6bd 646b 213c d2d7 a13d
00000270: ddd2 f93c 9131 293d c8da 853d 9f75 9dbd
00000280: 1e90 bebd 0c0f 343d 73bb 09be ec1d 6f3d
00000290: 9f1a 20bd 30af d13c 5782 d8bd 7ed9 f1bb
000002a0: 1c0c 58bd d1f0 943d a076 87bd 922b 8bbc
000002b0: 50af 483d f526 e0bc 20b0 fb3d e904 88bd
000002c0: 33f9 c9bc a692 b8bd dcbd 3dbc ee6c 1c3e
000002d0: eb4f aabc 02ff babd 8533 8dbb 5eff 673d
000002e0: af10 c43d 9605 433e e4a5 78bd c8d3 26bd
000002f0: b1b2 6a3d 1756 56bd ee53 2bbd e957 dd3d
00000300: 8ad5 093e df61 f4b9 aafb 023e 88ce 18bd
00000310: 98dc 553d fa53 c2bc 50cb 933d 2d2f 4bbd
00000320: c8b3 0ebe 2e72 13bd cb10 023a 7fa2 0dbe
00000330: 3e61 98bc 10cd 54be 4769 9c3c 021a 043e
00000340: 7c8f 703c c2dc 133e 1ec2 7dbc d3c9 7cbc
00000350: 5224 2dbe dc51 1abe 1315 503e 9971 173d
00000360: fb5f efbd 04df d73d ac7d 1a3d 347d a6bd
00000370: 02e8 5bbc dbb2 e4bc 5c87 cb3d c935 c2bc
00000380: 9b34 8d3c 7d5b 383e 5c35 f63d 8f47 f43b
00000390: 9039 debd b0c1 ddbd 1e28 95bd c9cc 0b3c
000003a0: 82d4 3dbd 239a c13d 042c 953d 3589 603d
000003b0: 1bcd 253e af58 e3bd 1fbd d43d ef87 46be
000003c0: 0dcf f3bd a3b7 e03d f85e cb3b 7e1a 19bd
000003d0: 81b3 35bc fea9 453e 9d4d 3fbc b9b4 2c3d
000003e0: f3a6 5abe 7264 05be e7b9 25bd b6be 193d
000003f0: a64f 993d d0c0 05be a32c 21be 75fc 3cbe

fc1.bias f4 [32]
-0.010682583 -0.07680194 0.08772461 0.17971595 -0.121282056 0.15770543 0.18556184 -0.09528871
0.08929916 0.1695588 0.0071439324 0.02155151 0.047763713 0.046485193 0.010281112 0.011748341
0.05912154 0.18858452 -0.040272593 0.16544977 -0.13099399 0.18040611 0.12581086 -0.053964376
0.011142481 0.16182195 -0.040061973 -0.0380218 0.07995009 0.072127245 0.09905078 0.12990987
00000000: 0006 2fbc 564a 9dbd f6a8 b33d 7507 383e
00000010: ba62 f8bd 887d 213e ec03 3e3e ba26 c3bd
00000020: 7ae2 b63d d2a0 2d3e a617 ea3b cb8c b03c
00000030: e2a3 433d 4267 3e3d 1c72 283c 1d7c 403c
00000040: 6e29 723d 4d1c 413e e0f4 24bd aa6b 293e
00000050: 4a23 06be 61bc 383e 90d4 003e c009 5dbd
00000060: f48e 363c a7b4 253e 0618 24bd bfbc 1bbd
00000070: dfbc a33d 73b7 933d 23db ca3d 1807 053e

fc2.weight f4 [1, 32]
-0.31757215 0.09926369 0.0444593 -0.15476853 0.06693006 -0.24615669 -0.3311233 0.09728379
-0.15579554 -0.22724421 -0.17814349 0.298157 0.116401136 0.18779817 -0.1326606 -0.2486754
0.19128326 -0.21484041 0.2995183 -0.20707029 -0.07402082 -0.1512054 -0.13908374 -0.2108318
-0.1471029 -0.24240087 0.04392741 0.23623443 0.11001012 -0.16806856 -0.22027461 0.279816
00000000: d198 a2be c34a cb3d f41a 363d a47b 1ebe
00000010: a112 893d 8010 7cbe fe88 a9be b93c c73d
00000020: de88 1fbe b5b2 68be 3f6b 36be 09a8 983e
00000030: b863 ee3d 2a4e 403e 2ed8 07be c4a4 7ebe
00000040: c2df 433e 20ff 5bbe 765a 993e 3c0a 54be
00000050: 3a98 97bd 97d5 1abe f86b 0ebe 4be4 57be
00000060: 25a2 16be ef37 78be 3aed 333d 70e7 713e
00000070: fc4c e13d 2a1a 2cbe ab8f 61be 0b44 8f3e
