checkpoint_0.pth (torch, 450772 bytes, 8 tensors)

embedding.weight f4 [671, 100]
00000000: b1e9 d43e 882c 07bf f5a6 fb3d 5359 363f
00000010: e651 fdbe 9378 a33f 8a92 8cbe f6d2 293d
00000020: d8f6 3dbf 68f2 dc3d 51f9 9a3f d082 393e
00000030: 7801 41bf 4a9d 203f a0eb ebbf 04b7 58bd
00000040: 66c8 903f 3768 833f 4f36 7e3a b528 ca3f
00000050: 4d38 11c0 201f b7bf 8ee1 0abf 60e6 cfbe
00000060: b54f 5bbf 4a14 1340 f391 06bd 9db9 213f
00000070: 5add 1dbe 7656 52bf 0e26 643f 78e1 f7bf
00000080: cdb4 c23e 7985 97b9 7095 693d 08ff 8bbf
00000090: e7f3 14bf 91ca a2be 72df 613e 297d 843f
000000a0: f638 b8be 1470 a23f a052 31bf 120d eebe
000000b0: b7c5 2040 bce2 3f3f 6018 82be 6ac6 8cbf
000000c0: b1b5 0440 6513 233f 3cc8 9f3f d3d4 5ebf
000000d0: 7747 95be c91a 7f3e 481e 79be 827a 04bf
000000e0: e971 103e 9722 e03f 7c71 a7bf bf32 b03e
000000f0: ae13 cabe d4df 1abf cec3 523f 34ae 683f
00000100: 6ca7 70bf 3d46 68bd 1ba7 dc3e 8b16 a43e
00000110: 2f6a 14bf 2c6c d1bf 2688 16bf 049a c43f
00000120: 34a7 d4bf fc9f cabe d8f0 67bf fc57 a4be
00000130: d4fb 15bf ff42 15bf 6abe 9cbe 826f c7bd
00000140: 9328 663f c90e 4abf 64b3 113e d95d 65bd
00000150: d021 a43e 79f1 91bf c4cc 8c3f b05c e4bf
00000160: e283 863e 2ab8 643f de88 d13f c83c 123e
00000170: 0584 fd3e 1d5a 4e3f 2af0 4ebe 5e63 f43d
00000180: 3c4a 7a3f b922 d0be 1d30 80bf e7e9 28bf
00000190: 8692 383e 0cf8 3a3f ac69 a9bf 4bcf 8cbd
000001a0: 096a ca3e 419f bcbe aed2 cf3c acb8 253f
000001b0: f0a9 373e 8f09 f6bf bdf9 85be 40bd 3b3f
000001c0: 9241 d6be 61db b53f fc35 093f 7700 fdbe
000001d0: 3fe5 1ebf 735d 0cc0 2647 b23e 1761 a13f
000001e0: 785f c23e c7d1 443d a6ce ce3d 4db4 b7be
000001f0: a5c6 95be 0c9e 423f 1d98 1fc0 2361 dabf
00000200: 123a 10bf 5b88 d4bf 779c dabf 8216 ca3d
00000210: a0c6 81bf b4fb 29be 85cc 4bbf 33b0 a9be
00000220: 8f81 16bf 9c1f c6bd 7f8d a1bf 29e2 ee3f
00000230: ec64 8bbf 48c6 c0bf 765e 58bd b48a 50bf
00000240: 62ad 13bf 0249 82bf 4079 e8bf 755c 1ebf
00000250: 4217 ea3e d1a3 55bf d551 403e 8dba 64bf
00000260: b7b5 96be fcf9 38bf 5e9f 6ebf e3b4 da3f
00000270: 703f b7bd 84d0 3abf 3dfe 8ebf f580 0bbf
00000280: 2d62 263e beec 883e 6e49 143e 635a 163f
00000290: 85bf 1cbf 71cc f8bd b3a1 cc3f 7fba 103f
000002a0: 50cb 7b3e 775d 21bf 0bb4 dc3e 957b e4be
000002b0: c651 dcbf d5f9 f63e 49a9 4a3f 8e6f 933f
000002c0: 359b 613f 6d38 1b40 e71a 3b3e 93c9 aabe
000002d0: 8899 993f d8ec 123f f7bf 98bf 14d2 d2bf
000002e0: 7396 dc3f ffa2 e3be ac0f 4c3f 56c7 ae3f
000002f0: 848e aebf f067 cabf 5afc 9ebe 4032 fc3e
00000300: 4300 65bf 3847 bc3f 066f 83bf 2ae6 ab3e
00000310: 143e 7ebe 9f3b ee3e 9f13 87bf 9528 2c3f
00000320: c29d 01be cce7 223f fd0e e43c 5eef a13e
00000330: 20c4 053f 8bea eebf 2f81 0540 fc25 0ebf
00000340: 0bd1 b8bf be0e 5abf fcad 93bf e838 0540
00000350: 031d 96bf c8df 51bf d9d3 3a3f a27b 52bd
00000360: 571a 923e 552b 593e 365d ad3f 2d5a a03e
00000370: 5ce1 863f 1f09 37bf 6804 6bbf 2353 c93d
00000380: 91bd a13f 1305 ef3e 57b7 523f 5e06 bd3e
00000390: 4ae0 2bc0 5965 ce3f eb14 323f 26a3 a8be
000003a0: 7e90 353f 2424 733e f31b 2a3e e95e a53e
000003b0: 0c0c 6fbe 36c3 86bf 907a 443e 0fc7 9abe
000003c0: 0dbd 223f b1af 3ebf a87d 183f 4bb1 be3e
000003d0: 8109 0fc0 398f 2dbf f7d0 bfbf 93fc c0bf
000003e0: 6c06 123f e534 0ec0 0844 c43f c7df 6fbd
000003f0: 7db7 a13e 46e4 95bf d04c f1bf 73c9 5fbd
0.41584542 -0.52802324 0.12287704 0.7123005 -0.49476546 1.2771171 -0.2745555 0.041460954
-0.7420478 0.10788423 1.2107335 0.18116307 -0.75392866 0.62740004 -1.8431282 -0.052908912
1.1311157 1.0266179 0.00096974237 1.5793673 -2.2690613 -1.4306374 -0.5425042 -0.4060545
-0.856685 2.2981133 -0.03285403 0.6317385 -0.1541647 -0.8216318 0.89120567 -1.9365683
0.38028565 -0.0002890041 0.05702728 -1.0937204 -0.58184665 -0.3179517 0.22057894 1.0350696
-0.35980958 1.2690454 -0.692667 -0.46494347 2.5120676 0.74955344 -0.25409222 -1.0998051
2.0735896 0.6370147 1.2482982 -0.87043494 -0.29156086 0.24912561 -0.24327958 -0.5174943
0.14105953 1.7510556 -1.3081508 0.34413716 -0.3946814 -0.60497785 0.82330024 0.9089081
-0.94005466 -0.05670761 0.4309624 0.3204845 -0.57974523 -1.6361136 -0.58801496 1.5359502
-1.6613526 -0.39575183 -0.90601873 -0.32098377 -0.58587384 -0.5830535 -0.30614024 -0.09738065
0.8990566 -0.7892881 0.14228588 -0.055997703 0.32057047 -1.1401817 1.099999 -1.7840786
0.26272494 0.8934351 1.6369894 0.14280999 0.49514785 0.8060625 -0.20208803 0.11933015
0.9776952 -0.4065149 -1.0014683 -0.65981907 0.18024644 0.7303474 -1.3235373 -0.068754755
0.39534023 -0.3684025 0.025369015 0.6473491 0.1793592 -1.9221667 -0.26167098 0.7333565
-0.418469 1.4207574 0.53598 -0.49414417 -0.6206855 -2.1932037 0.34819907 1.2607754
0.37963462 0.04805162 0.10098009 -0.35879746 -0.29253116 0.7602241 -2.4936593 -1.7060894
-0.5633861 -1.6604112 -1.7078999 0.09867574 -1.013874 -0.16599923 -0.7960895 -0.33142242
-0.5879144 -0.09673998 -1.2621306 1.8662769 -1.0890174 -1.5060511 -0.05282446 -0.81461644
-0.57686436 -1.017853 -1.8162003 -0.6185983 0.4572087 -0.8345309 0.18781216 -0.89347154
-0.29435512 -0.72256446 -0.93211925 1.7086452 -0.089476466 -0.7297442 -1.1171337 -0.5449365
0.16248389 0.2674312 0.14481136 0.5873167 -0.61229736 -0.12148369 1.5986847 0.5653457
0.24589276 -0.6303324 0.43106112 -0.44625536 -1.7212455 0.48237482 0.7916456 1.1518419
0.8812745 2.425319 0.18271981 -0.33356914 1.1999979 0.57392645 -1.1933583 -1.6470361
1.7233413 -0.44460294 0.79711413 1.3654583 -1.3637242 -1.5812969 -0.31051904 0.49257088
-0.89453524 1.4709234 -1.0268257 0.3357404 -0.24828368 0.46529862 -1.0552863 0.67249423
-0.12657836 0.63634944 0.027839178 0.31627935 0.5225239 -1.8665327 2.0860097 -0.5552671
-1.4438795 -0.85178745 -1.1537471 2.0815983 -1.1727604 -0.8198209 0.72979504 -0.051387437
0.2853572 0.21207936 1.3544071 0.313188 1.0537524 -0.7149829 -0.918036 0.0983031
1.2635976 0.4668356 0.82311004 0.3691892 -2.6855645 1.6124679 0.6956317 -0.32936972
0.709236 0.23744255 0.16612224 0.32298973 -0.2334444 -1.0528324 0.19187379 -0.30229995
0.6356972 -0.74486834 0.59566736 0.3724464 -2.234955 -0.67796665 -1.4985646 -1.507708
0.5704105 -2.2219784 1.5333261 -0.05856302 0.31585303 -1.1710289 -1.8851566 -0.054635476

lstm.weight_ih_l0 f4 [256, 100]
00000000: 048e a0bb 2b9c 23bd cdb7 b5bd 55e9 c73d
00000010: 3a10 743d 9c7a fb3d 99fe 0e3c 736e 20bd
00000020: ad57 963d 829e 51bd 3a3b 03bd 31f4 243c
00000030: 8dfa 493d 5f09 f8bd 2235 d8bc e620 b83d
00000040: 27b0 953d 00d8 ebbd a745 463d 6f2a fdbd
00000050: da25 bbbd 302d debd 7b77 b2bd 02ce 57bc
00000060: 5481 87bd 7d86 abbd 2a4d d43d 2ad0 98bd
00000070: f1ad 6a3d 9f0d f73c a812 953d 334e e0bd
00000080: 910d bcbc 5402 413d 1c54 aebd 0cd3 cabc
00000090: 9b94 cabd cc38 dcbd 168e 3cbd 6b56 3dbd
000000a0: 8d97 bfbc d37a b8bd 4af3 b7bd 14bb 723d
000000b0: f6ee e43c f848 d83d ae92 35bc 5f4d 73bd
000000c0: 07d7 783d a151 dbba 3468 703d 3d22 ddbd
000000d0: ca3f 7c3d 4eab ac3d 2da1 9bbc b9a6 813d
000000e0: 50cd 9fbd 4e71 3f3d 022d df3d f499 38bd
000000f0: 3b4a 3abd cc2b cd3d 468b 4cbd d700 72bd
00000100: 396f f73d de53 873c 6f1d bcbd a962 e2bd
00000110: b62e 88bc 707b 96bd 43ea 933d b22e 843b
00000120: 7d4e 003d f7d9 babd 1e0a 993d d73d 1a3d
00000130: 7b6e b5ba 2e71 443d bc57 49bc a188 a03d
00000140: e036 f23d 083b 9ebc 7f15 a43d ce5c b03c
00000150: 94dc 993d 9efe bf3d 6af8 0d3d 0bc4 bdbd
00000160: e21e dcbd 033e e3bd 0f3a 07bd b32a bf3d
00000170: a729 af3d ddda 80bd 6133 1ebd 98b3 dd3c
00000180: 6e51 a43d 5f97 e63c 77bb a6bd 38c5 6c3d
00000190: 271a 98bc 3c16 5bbd e264 9c3d 50eb c7bd
000001a0: d01d ec3d 339f 423d c42a 84bc de14 fcbd
000001b0: d726 3bbd edf1 dfbd 15f0 5e3d 800f 31bd
000001c0: ec49 96bc 4341 fd3d 5c39 6bbc b2c8 ab3c
000001d0: 7a66 f13d 2d06 d8bd b240 2f3d 22ba 3abd
000001e0: a61f 3c3d f061 3bbb 4439 cabd 627c c33d
000001f0: 4cc3 a93d bc2f 5dbd 94a4 403d d77c b03d
00000200: 9e46 233d 0ffa c7bd 9bdf 1bbc 9dc7 c13c
00000210: 63f3 c3bd 35ca 40bd 64f1 0cbc 14fa 4bbd
00000220: 8ac1 f33c 4eb3 de3d cd3d ffbd c571 bbbd
00000230: 030f adbd 3da2 b0bc 3680 31bc 6bc1 703d
00000240: 8a4c bb3d e2cf a7bd b262 c13d 0bc9 983d
00000250: 6f20 da3d 1ac4 223b 9e19 e8bd 4dc3 20bc
00000260: 94c3 93ba 55d2 bdbd fd79 523c 26d7 aabc
00000270: f6ee 6b3d e497 d43d 8b0e 38bd efc2 ccbd
00000280: 3fba 72bd ff44 6e3d 891c 59bd 6e08 8e3d
00000290: 0d16 e83d 1e2b 44bd f883 fa3c 58d8 86bd
000002a0: 6a93 a5bd c823 ffbd 0fa9 da3d 1c45 cfbd
000002b0: b0fd a73d 20c7 21bd 1299 8abd 3509 51bd
000002c0: c621 893b 6957 3ebd a1c6 8cbd c06c a93d
000002d0: 63e2 1d3d 22db 29bc 3c79 333a 1620 e9bc
000002e0: 6d4d df3d 8505 f9bc 3d88 b73d a2fa f5bc
000002f0: cb29 bc3c c931 993c af44 e7bd 7ee9 d9bc
00000300: 6a98 c1bd abd8 bdbc ce78 7fbd 6224 dc3c
00000310: 8514 4a3c 94c4 debd be33 023d 4699 903d
00000320: ee1d 51bd fce9 a0bd 75b3 813d 9ba4 bebd
00000330: 54cb 923d e433 943c 9abd b43d 116c 273d
00000340: 6614 b9bd 018b 833d d94f e23c 3e29 ed3b
00000350: 6398 76bd 2847 b53d 79b7 0f3c 7b9f dcbc
00000360: 94b4 a73d 6b76 993d 4d01 8dbd 6b06 9fbd
00000370: ef3b aebd 2a64 b83d 5a8a 9b3d 5104 14bc
00000380: d472 8ebd 81bd 923d ad39 813d 855b 813d
00000390: 890b b5ba 05c6 353d 84af ccbd 5ac4 b43d
000003a0: 3fe9 be3d 375a 3a3d cf9f c63d a676 8e3d
000003b0: 3f34 5a3d b8a7 053d 82fd b73d e455 183d
000003c0: ed23 d83d d2c8 503d 72e9 bb3d 59a8 283c
000003d0: ea2f a0bd 7a4d 0abd 0c05 7c3d 62e3 573d
000003e0: 9f90 72bd ec83 40bd 5ce8 8fbd f752 edbd
000003f0: f428 153d e43f c1bd 3bad 803d 1fd5 ec3d
-0.004899742 -0.039943855 -0.08872948 0.097613014 0.059585787 0.12279245 0.008727693 -0.039167833
0.073409416 -0.051176555 -0.032038905 0.010067985 0.04931121 -0.121111624 -0.026392523 0.0899065
0.07308989 -0.11515808 0.04840627 -0.12361609 -0.09138079 -0.108484626 -0.08714195 -0.013171675
-0.06616464 -0.08375261 0.103662804 -0.07461579 0.05729479 0.030157862 0.07278949 -0.10952415
-0.022955688 0.04712136 -0.08512136 -0.024758838 -0.098916255 -0.10753021 -0.04603394 -0.046224993
-0.023387695 -0.09007802 -0.089819506 0.059260443 0.027945977 0.10560793 -0.011082334 -0.05939996
0.06075194 -0.0016732701 0.058693126 -0.10797546 0.06158427 0.08431111 -0.018997753 0.06330628
-0.07802832 0.046738915 0.108972564 -0.045068696 -0.045480948 0.10018119 -0.04993751 -0.059082832
0.12081761 0.016519483 -0.091853015 -0.11053974 -0.016623836 -0.073477626 0.07222416 0.004033887
0.031324852 -0.09123605 0.07472633 0.03765663 -0.001384213 0.0479595 -0.012288984 0.0783856
0.11826873 -0.019315258 0.080119126 0.021528628 0.07512775 0.09374736 0.034660734 -0.09265908
-0.10748078 -0.11095812 -0.033014353 0.09334316 0.085528664 -0.06291745 -0.038623217 0.027063176
0.08023344 0.028148351 -0.08141225 0.05780527 -0.018567158 -0.053488 0.07636429 -0.09761679
0.11529124 0.047515105 -0.016133673 -0.123086676 -0.045691337 -0.109348156 0.05442818 -0.043227673
-0.018345796 0.12365963 -0.014356937 0.020969722 0.11787124 -0.10548053 0.042786308 -0.045587666
0.04592862 -0.002859231 -0.09874204 0.095452085 0.08289203 -0.0540006 0.047031954 0.08617561
0.039862268 -0.09764492 -0.009513761 0.023654753 -0.09567907 -0.04706784 -0.008602474 -0.04979904
0.029755373 0.108740434 -0.124629594 -0.09152559 -0.08450129 -0.021561736 -0.0108337905 0.058778208
0.09145458 -0.081939474 0.09442653 0.07460221 0.106507175 0.0024836124 -0.11333011 -0.009812188
-0.0011273497 -0.09268633 0.012846467 -0.020854544 0.057600938 0.10380533 -0.044935744 -0.09998118
-0.05925965 0.05817127 -0.05300573 0.069352016 0.11332331 -0.047892682 0.030580506 -0.06584233
-0.080847576 -0.124579966 0.106767766 -0.101206034 0.08202684 -0.03949654 -0.06767477 -0.05103417
0.0041849343 -0.04647008 -0.06873823 0.082726955 0.038545977 -0.010367187 0.00068463734 -0.028457683
0.1090344 -0.03039814 0.08961532 -0.030026738 0.022969147 0.018700497 -0.11292397 -0.026600596
-0.09452899 -0.023174604 -0.062371068 0.026872817 0.012333994 -0.10877338 0.031787626 0.070604846
-0.051053934 -0.07857129 0.06333057 -0.0930874 0.07167688 0.01809115 0.08825226 0.040874545
-0.09037094 0.06422997 0.027625965 0.0072375825 -0.06020392 0.088514626 0.008771771 -0.026931515
0.081887394 0.074932896 -0.06885014 -0.07764896 -0.08507525 0.0900348 0.07594748 -0.009034232
-0.069554955 0.07165051 0.06309829 0.06316284 -0.0013812642 0.0443783 -0.099944144 0.088265136
0.09321832 0.04549619 0.0969845 0.06956224 0.053272482 0.032630652 0.089839 0.037191287
0.10553727 0.050972767 0.091753855 0.010294043 -0.07821639 -0.033765294 0.06152825 0.052707084
-0.059219953 -0.04700081 -0.07026741 -0.1158809 0.03641601 -0.09436014 0.06283041 0.11564087

lstm.weight_hh_l0 f4 [256, 64]
00000000: 6342 f4bd 04c4 e73c b2f1 93bd 95ba 453d
00000010: de74 c7bc 57a0 e03d 4be1 e93d 0e9d b53d
00000020: 88bc 973d cd4c a4bd 9bf3 e13d c738 23bd
00000030: fa67 72bd b326 f03d e802 78bd d3f4 613d
00000040: 32cd 533d 219a 9b3d 1e78 413d ba20 9b3d
00000050: d50f 7cbd 7cee 023d 1c54 ea3d 07de f1bd
00000060: a3df 8ebd 31fb 2dbd 8975 42bd 0c86 963d
00000070: b2f9 e73d e691 ae3b b19e b93d 3725 ad3d
00000080: 6c67 babd c4a8 af3d d781 9d3d 3f4d 97bd
00000090: 4531 3fbd 8c26 f03c 17be a13b c597 863d
000000a0: 32f9 d83c 24be 7fbd f95a 9abd c722 e43d
000000b0: b4b9 85bd 4097 513d d6f5 92bd 9018 7a3d
000000c0: 82da 8ebd e20f 2dbb d8a3 3cbd 8103 3cbd
000000d0: 744a b7bd 044f df3d 1d95 c43c 11d8 ed3d
000000e0: a183 0bbd 8f88 8dbd 9144 a13d e99b b3bd
000000f0: 9b8e 133d b5fd f53d 9af1 af3d 1ad6 ce3d
00000100: 0204 8f3d 15ea 773d 0702 e23d c565 8f3d
00000110: f3fa ecbd 5836 fa3c caeb 6b3d 7df8 df3d
00000120: e28d 823d 9d80 ba3b a47c 423d 1c98 f43d
00000130: 2244 40bd 63c8 dc3d 6db5 ca3d 83a4 efbd
00000140: 84fc 253d 5182 cbbd 836b 8cbd 8ec8 e0bd
00000150: 0b1d 7dbd f6e9 3dbd 4ffc e43d aa78 8f3c
00000160: 2e44 b6bd 7057 b43d 9427 fa3d c0cc 9d3d
00000170: 9025 94bd 14ca d03d 59f0 a23d 6b09 60bd
00000180: cc77 e23c 9c72 c43d 749d a1bd 1876 d0bd
00000190: 04a7 9b3d e072 47bd a32d c4bb 31d4 f23b
000001a0: 10f9 7e3d 442f 583d d3a0 403d 5781 a93d
000001b0: 170b 933d 1082 f73d 6686 d0bb d9b4 febd
000001c0: bd3a 953c 29dc af3d 1ed7 ea3d 7126 3bbd
000001d0: d72a 40bd ed64 363d 002a c63d 75ff a5bc
000001e0: 4e41 17bd 7e90 403d 3a96 ecbd 0d9b c6bc
000001f0: c071 a4bd c342 d83d 9d34 253d cad5 f43c
00000200: 17d6 0a3d 8f38 dbbd 8d1f a1bd b5e0 183c
00000210: 707b d3bd ac0f 5ebc 9958 f33c a73d b93a
00000220: fc6b a5bd fc37 913d 972b a6bc ebbc 9b3d
00000230: aa7f e23d 96d5 aa3d 1700 503c 0bf0 3b3c
00000240: 91d2 36bd 9813 f2bd 5fc8 bfbd 2855 a93d
00000250: 7a0c b2bc 6f4e 1c3d 0ea4 75bc 12e7 973d
00000260: bc04 2cbd 3cca 7b3d 98ba 3b3d 7d29 8d3c
00000270: d76a 65bd 422a ec3d 32dc 01bb 2d49 ac3d
00000280: bc36 2dbc ad7d 9abd 95b1 da3d b094 c5bc
00000290: bf25 3dbd 08a9 2bbd fb30 e43b 62ee f03d
000002a0: 128d e23c 5e3f f03d e83a f5bd 5c25 a13d
000002b0: d93e cf3d 06bf dcbd 4048 b33d 92cb be3d
000002c0: 9a0f bdbc fa80 7bbd 7c0c bbbd 5e29 813d
000002d0: 0a8e a93d a8d7 16bb 7043 d6bd e792 9fbd
000002e0: 0f3a d33d a842 283c 431a b1bd 7f9b b9bc
000002f0: be01 d8bd 7c9b 3c3d 3252 94bd 4801 dfbd
00000300: 6ef2 d73b 315c dd3d 4b3c 633d daec 4cbd
00000310: 8124 923d 7365 a53d 00d3 98bc 1377 eebd
00000320: f102 c0bd 4ae0 f83d ffab 18bd 95e8 b2bc
00000330: ac97 dcbc 96bb 1dbd 61bb c8bd 2bd2 8fbd
00000340: c832 a63d 8c8f 1b3d ea4f da3c aa44 8ebd
00000350: 1299 a83d ea53 4ebd 6890 14bc 40f0 e5bc
00000360: 2edf a23d f0cc bf3d 186f 99bd ea6d 54bd
00000370: cb46 fb3d ff4e 503d 4e1a 5f3d 0cdf 693d
00000380: dea1 36bd 8030 4abd 72a0 493d 628f c0bb
00000390: df43 9f3c 1705 b83d 617a e3bd e926 7a3d
000003a0: 94d8 bf3d 486f ddbd fd48 a5bd 390a bc3d
000003b0: 89d3 87bb 7954 de3d 9d6c 4b3d 85b4 da3d
000003c0: f9c4 8a3d 2bb9 593d 53ff d43d 6b34 d2bd
000003d0: c87c df3d 9ea2 2d3d 77bb 433c 755a 503d
000003e0: 6d08 403d 8ef2 5ebd 5cfc cdbd 9da2 babd
000003f0: 73b0 06bc 9642 803d dcfc b93c 08e0 ef3c
-0.11926725 0.02829171 -0.07223834 0.04827364 -0.024347719 0.109680824 0.11419924 0.088678464
0.07409006 -0.08022461 0.11032792 -0.03984907 -0.05918119 0.11726131 -0.060549647 0.055165123
0.05170936 0.07597757 0.047233693 0.075746015 -0.061538536 0.031965718 0.11441824 -0.118099265
-0.06976249 -0.042475883 -0.04747537 0.07349786 0.113269225 0.005327451 0.09063471 0.08454364
-0.091017574 0.08577111 0.076907806 -0.073877804 -0.046677846 0.029315256 0.0049359906 0.065719165
0.026486013 -0.06243719 -0.07536883 0.11139446 -0.06529561 0.051169634 -0.07175796 0.06105858
-0.06975271 -0.0026407172 -0.04605469 -0.04590178 -0.08949748 0.10903743 0.023996884 0.11613477
-0.034061078 -0.06910812 0.07874406 -0.08769972 0.03602467 0.120112814 0.08591004 0.100994304
0.06983186 0.060525972 0.11035543 0.07001833 -0.11571302 0.030543491 0.057597913 0.10936067
0.06374718 0.0056916014 0.047482148 0.11943075 -0.046939977 0.10780408 0.098978855 -0.117013
0.04052402 -0.09936965 -0.06856444 -0.10975753 -0.061795276 -0.0463657 0.111809365 0.017513592
-0.08899723 0.0880574 0.1221458 0.077050686 -0.07233727 0.10194793 0.07955999 -0.05469648
0.027645014 0.095921725 -0.0789136 -0.101787746 0.07600215 -0.048693538 -0.0059868856 0.007410549
0.062249243 0.05277945 0.047028374 0.08276623 0.071798496 0.12085354 -0.006363678 -0.12436838
0.018216485 0.08586914 0.114668116 -0.045690957 -0.046915855 0.044529844 0.096759796 -0.020263413
-0.036927514 0.0470128 -0.11552091 -0.024243856 -0.080295086 0.10559609 0.04033338 0.029887099
0.03389558 -0.10704147 -0.07867346 0.009330918 -0.10326278 -0.013553541 0.029705333 0.0014132754
-0.08077237 0.07090756 -0.020284457 0.076043926 0.11059506 0.083415195 0.012695334 0.011470805
-0.044634406 -0.118201435 -0.0936439 0.082681954 -0.021734465 0.038160738 -0.014992727 0.0741712
-0.041996703 0.061472163 0.045832247 0.017231697 -0.056010094 0.115314975 -0.0019815085 0.08412395
-0.010572132 -0.07543502 0.10678402 -0.024118751 -0.046178576 -0.041909248 0.0069638467 0.11764218
0.027655158 0.11730836 -0.11974126 0.07868454 0.10119409 -0.10778622 0.08754015 0.09316172
-0.023078728 -0.0614023 -0.091332406 0.06306718 0.08279045 -0.0023016725 -0.104620814 -0.07791691
0.10313808 0.010269798 -0.08647587 -0.022657154 -0.10547207 0.04604672 -0.0724224 -0.10888916
0.006590179 0.108086 0.05547742 -0.050030567 0.07135869 0.080759905 -0.0186553 -0.11643805
-0.09375561 0.12152155 -0.037273403 -0.02183942 -0.026927792 -0.038508974 -0.09801365 -0.07022508
0.081151545 0.037978694 0.026649434 -0.069466904 0.08232321 -0.050372995 -0.009067632 -0.028068662
0.079527244 0.093652606 -0.074918926 -0.051862635 0.12269362 0.050856587 0.054468445 0.05709748
-0.044587962 -0.04936266 0.04922528 -0.0058764676 0.019441543 0.08985346 -0.11107326 0.061072264
0.09367481 -0.10812241 -0.08070562 0.09181637 -0.00414509 0.10855956 0.04966413 0.106789626
0.06775851 0.053155106 0.10400262 -0.10263904 0.10912472 0.042391412 0.011946551 0.050867517
0.046883035 -0.054430537 -0.10057899 -0.09113047 -0.00822078 0.062627 0.02270358 0.029281631

lstm.bias_ih_l0 f4 [256]
00000000: b0c8 943d 4c5b 7c3d 5e83 f63d 8628 b9bb
00000010: d1ef f0bd a5be a03d db71 edbc 7519 c7bd
00000020: 9abc 0c3c 5534 bfbc b47f ddbb fa9b f5bd
00000030: 88ae e03d 71e3 213d 1656 afbd 1cde 7dbd
00000040: 12f9 ffbc 3daa c43d 86c4 ab3b 01f1 e6ba
00000050: 2c7d 053d 1643 ea3d 220a 2fbd b8f8 f63d
00000060: 31ef 6ebd 080e 9cbd 5955 163d ceeb ac3d
00000070: 2ee5 11bd accc 303d 0d75 983d c73a 4c3d
00000080: 9e78 3f3d 15c8 423d f68f 7a3c 9c96 8a3c
00000090: b2f0 29bb e64d a8bd b7f3 5ebd 0895 d63c
000000a0: 8e82 4c3d 5425 8c3c bbc2 dd3d 2117 00be
000000b0: 679e 0f3d 960e 3b3d 93ba b83d 59f2 33bd
000000c0: 40ad 3b3d cab9 82bd cc91 93bd 9961 dbbd
000000d0: b026 6f3d 505c cfbd e0ef 1dbc 13be c33d
000000e0: 6fed c7bd 816c 493d 989a ccbc b275 c73c
000000f0: b2c4 a93d ca17 d6bd 9b13 0abd 4012 4a3d
00000100: b6df a8bd 0009 debd 4c1f 583d 5d37 c23b
00000110: b4c1 e53d 295a a03d 00c5 893d 0e9f d0bc
00000120: 3261 6a3d bff3 62bd 8074 443d 181b 7abd
00000130: ed8b b3bd f0ae f43d 42c5 8cbd 3eea df3d
00000140: 461d b9bc 1482 fd3d 4f58 7bbd c74c abbd
00000150: 4780 3abc f2c0 993d a957 f9bd c947 b2bd
00000160: 6c3e 9d3b 5348 97bd 31d7 9a3c b167 dcbd
00000170: 9145 c9bd 2a2d c13d 5ae8 8cbd 9944 963d
00000180: 2203 b63d fc93 0abd 88e5 9ebd e184 cdbd
00000190: 8f50 d4bc 9413 3ebc 408d f2bd 5e85 3fbd
000001a0: edeb b43d 5449 083d 4cb1 3cbd cc9f 61bd
000001b0: c75b 1bbc 548e 26bd 3035 f0bc b79e e7bc
000001c0: 6cb3 cb3d e8a4 8b3d 859e a13c c479 4d3c
000001d0: 1515 13bd c150 d4bd 55d9 6b3c a50d f93c
000001e0: b1c1 c0bd 9187 f7bd 4af2 9abd 5530 733d
000001f0: 628c acbd 41e8 e5bc b06c 33bd f9ce ae3d
00000200: cfdd c7bc 6215 0f3d 383a f13d 5fa7 d63d
00000210: bb06 dfbd a72b cf3d baf4 af3d a952 71bd
00000220: 6d13 4f3d 1f3b 9f3c 7ac6 c4bc 778d 83bd
00000230: b8da a4bd c8a5 e63b d51d ea3d 6b00 a43c
00000240: b15c 51bb 4736 8abd 824f e3bc 0bd1 4a3d
00000250: a1ad 90bd 753e 903b d50b b93d 78f4 df3d
00000260: 4d61 063d 5d4c 873d f133 b13d d097 833c
00000270: ba5c a1bd dc32 f5bc 56e6 8fbc 0642 1b3c
00000280: 3000 45ba 3c9d a73d 98cb 163c 600d 353d
00000290: cf9e 163d bff1 2c3d 4708 de3d 6f6f 97bd
000002a0: d583 90bc efbd 68bd 1aa1 a6bd 7373 f63d
000002b0: 053d d8bd 5406 20bd 315f b13d 9929 e5bd
000002c0: ec4e a63c 3320 a73d 0d8d 09bc dcc4 d2bc
000002d0: 6ae4 873d 19ee c63d 9fc1 83bd ad31 873c
000002e0: 05e4 90bd 5569 f6bd a980 a6bd 8fa9 a03d
000002f0: 5ae4 213d 728d da3b 2a9a c8bd 1acb 6abd
00000300: 5af5 a2bd b531 ddbd b07d babd dba2 e2bd
00000310: 6192 dc3d ed1c f2bd b668 96bc 97c2 13bc
00000320: 3b7f ab3d c622 69bb fb68 ed3d d402 f13d
00000330: 6e99 0abd 0358 d23d fff8 56bd 7bdb a63d
00000340: f046 773b 6eb3 87bb 1449 ba3c 6265 67bd
00000350: fcd5 b1bd d64f 0cbd 5862 afbc e13e c9bc
00000360: ce39 6dbd 745f 713d 4f7e 9dbd 1c69 d53d
00000370: 4516 073d 91bc fb3d 91b0 8c3c 18bb 39bd
00000380: d182 5a3d cf69 edbd 120e 52bc aa75 86bd
00000390: 598b 973d 74d9 d6bd a592 b43d f31e 743d
000003a0: 9a15 7f3d 0fe6 37bd db1a 6f3d fbe7 d43d
000003b0: c0be debd dbe6 f3bd 0eb2 b33d 7b54 8d3d
000003c0: 7c11 75bc 47ca 96bc f512 11bd aa35 a73d
000003d0: 30ea 953a 3389 babd 6dac b3bd 0ab7 00bd
000003e0: 8672 7c3d 3958 973d 9a1e b53a f6e0 a4bd
000003f0: 171c cfbd 80a0 463d ecd2 b23d a5f4 1e3d
0.072648406 0.061610505 0.12036775 -0.0056505827 -0.11764491 0.078488626 -0.028984955 -0.097216524
0.008589888 -0.023340384 -0.006759608 -0.11992641 0.10970789 0.039523546 -0.085613415 -0.061979398
-0.031246696 0.09602783 0.0052419333 -0.0017619432 0.032590076 0.11438577 -0.042734273 0.12059158
-0.05833358 -0.07619864 0.036702488 0.08443414 -0.035618953 0.04316394 0.07444201 0.049860742
0.04674589 0.047554094 0.015293112 0.01691752 -0.002593082 -0.08217983 -0.054431643 0.02619411
0.049929194 0.017107643 0.108281575 -0.12508823 0.035063174 0.045668207 0.09019961 -0.043932293
0.04581952 -0.06383093 -0.07205543 -0.10711975 0.058386505 -0.10125029 -0.00963971 0.09557738
-0.09762084 0.049175743 -0.02497606 0.024348114 0.0828947 -0.10453756 -0.033710103 0.04933381
-0.082457945 -0.1084156 0.052764222 0.00592701 0.112185866 0.07829697 0.06727028 -0.025466468
0.0572216 -0.055408236 0.047962666 -0.061060995 -0.08766923 0.11947429 -0.068735614 0.1093335
-0.022596966 0.12378326 -0.061363515 -0.083642535 -0.011383123 0.075075045 -0.12174923 -0.08705098
0.004798701 -0.073868416 0.01890144 -0.10761965 -0.09827722 0.094324425 -0.06880255 0.07337303
0.08887316 -0.033832535 -0.07758623 -0.1003511 -0.02591732 -0.0116013475 -0.118433475 -0.04675805
0.08834062 0.033273056 -0.04606752 -0.055084035 -0.009482331 -0.04066308 -0.029322237 -0.028273923
0.099463314 0.06818563 0.019728908 0.012541238 -0.035908777 -0.10366965 0.014395078 0.030402014
-0.09411944 -0.12086404 -0.07565744 0.059372265 -0.084252134 -0.028064849 -0.043804824 0.08535571
-0.024397759 0.0349325 0.117786825 0.10481142 -0.108899556 0.10115748 0.085916 -0.05891672
0.050555635 0.01943737 -0.024020422 -0.06423467 -0.0804953 0.0070388056 0.11431471 0.02001973
-0.0031946118 -0.06748634 -0.027747873 0.049515765 -0.07064367 0.0044019767 0.0903546 0.109353006
0.032807637 0.06606362 0.08652485 0.0160636 -0.07879014 -0.029931478 -0.017565887 0.00947619
-0.00075149816 0.08184287 0.009203814 0.04420221 0.036772545 0.042222735 0.108414225 -0.07394301
-0.017640987 -0.05682176 -0.081361964 0.12033739 -0.105585136 -0.039068535 0.086607344 -0.11189575
0.020301305 0.081604384 -0.0083954455 -0.025728635 0.066353634 0.09713382 -0.06433415 0.01650318
-0.07074741 -0.12031809 -0.08130009 0.07844841 0.039524414 0.0066696936 -0.097950295 -0.0573226
-0.07956953 -0.108004965 -0.09106004 -0.110662185 0.10770107 -0.118219234 -0.018360477 -0.009018562
0.08373877 -0.0035573705 0.11592289 0.117681175 -0.03383773 0.10270693 -0.052483555 0.08147331
0.003773149 -0.0041412627 0.022739924 -0.05649317 -0.086833924 -0.034255825 -0.021409199 -0.024566116
-0.057916455 0.05892892 -0.07690107 0.10420439 0.032980222 0.122918256 0.017174037 -0.045344442
0.053347412 -0.11592447 -0.012820737 -0.065654114 0.07399625 -0.10490695 0.08817033 0.059599828
0.06227646 -0.044897135 0.05837522 0.10395809 -0.108762264 -0.119092666 0.087741956 0.06900879
-0.014957782 -0.018407 -0.03541847 0.081645325 0.0011437591 -0.091082 -0.08773122 -0.03142456
0.061632656 0.07389874 0.0013818324 -0.080507204 -0.101127796 0.04849291 0.087316364 0.03880753

lstm.bias_hh_l0 f4 [256]
00000000: ec70 93bd 689d 1dbd e656 df3d 836b 4ebc
00000010: 214f ecbd cce3 86bc 03d1 c7bc 8582 253c
00000020: 652b a4bd 59a8 05bc 0d27 d3bc d232 f83d
00000030: ea51 f63d 1113 033d 8ac6 a1bd 985b dbbd
00000040: a515 b13d 5347 ebbd eb98 32bd 4082 8abb
00000050: 72c0 f9bd feae ca3d f06f 963b 8182 1f3c
00000060: 1cd6 b6bd f0b9 3c3d 0294 bc3d 64b9 923b
00000070: 869c 06bd fa5b c53d 863c 12bc c430 c7bd
00000080: 3952 aa3d 05f6 adbd b3ef cc3d d866 2dbc
00000090: f854 98bd 1482 c7bd ea5e f03c 2cf8 62bd
000000a0: eeb9 4b3d 1ef3 76bd 0bfe 7d3c 08c0 dcbd
000000b0: f013 a23d 12f6 203d de47 60bd 8af6 ecbd
000000c0: b8ba b03c 8a28 9ebd a691 b13d 6797 30bc
000000d0: be89 39bb 36b9 babc 289a 7dbd ada4 ff3c
000000e0: 81dc ecbd 2cf6 23bc e816 d8bc bdfb 1c3d
000000f0: aa79 fcbd 2b24 7b3d e846 e03b d9d8 e13c
00000100: a66f b6bc 3ae1 d93d 56d7 ad3d dc6b 6abd
00000110: 7917 d5bc 3b50 d8bd cdee 21bd eddd 233d
00000120: 9e3d 3c3d 354f dabc 045b 3d3d b43a 05bd
00000130: 5fd3 97bd 8326 05bd cc76 c3bd 814f 35bd
00000140: a192 9bbd 809c bd3b 2a5c b23d 743d eebc
00000150: 6746 af3d c87e 89bd 0d39 82bd 3b63 2dbd
00000160: 93ea efbd 128d c4bc 3954 c03c 671c 9dbd
00000170: a369 f5bd 08fe bbbd 1230 b3bc 4608 32bd
00000180: 9c8f ccbd 225d 9abd e017 553d ca17 6ebd
00000190: b15e 623d 0f1b 6f3d e020 9b3c fb7b c7bd
000001a0: 2223 55bd 9253 f0bd e0a2 d23d acc1 f3bd
000001b0: 22cd 13bd ba10 86bd 6aa8 d53d f972 813c
000001c0: 9645 88bd 6539 14bd 5387 e4bc 2a30 a23d
000001d0: 1f2c 913d 5a2f 713b 03b2 dc3d 1e43 053d
000001e0: f50b 9a3d cd06 913d a6bc bc3b a5f4 96bd
000001f0: 2ed0 8a3c f663 80bd 78ac a53d 6546 6c3d
00000200: 73e3 56bd 8a46 023d 51d3 5fbd 75e3 543c
00000210: 55e7 d2bd a2ff 54bd 0ce6 f4bd 1362 d83d
00000220: 5f7a c73d e231 a43d d712 febd 93be fb3d
00000230: 1e16 dd3d afa6 2fbd 9ff0 bfbd 3353 c4bd
00000240: d2bb ea3d 1603 383d 89d9 67bd f9aa eebd
00000250: e5df f4bd 3d8e fc3d 8130 cb3d 780c 6f3d
00000260: 9bb8 a2bd 41de 90bd ef04 003e ac91 b43d
00000270: 7d74 4dbc bcba b6bc 13cb a9bd 2956 843d
00000280: 3d0a 203c 9d1b 3e3d 215e cabd 40ad 513c
00000290: de2a dd3c 0a11 b53d 4fef 35bd 1f9b e53d
000002a0: 6389 e43c 8807 f73d 90e9 9f3d 0390 0e3d
000002b0: 89ca ea3d ae02 bcbd 47d2 e2bd d2eb 443d
000002c0: 1d53 ebbd 17c8 f5bd 4694 8abc b62b 133d
000002d0: cc31 1c3d db11 1d3d 8bcb 99bd 87ba 813d
000002e0: 758f fc3d 0553 ab3d 0640 02bd 3cc9 8bbc
000002f0: f9a6 a53d 2f26 d7bd ccdf d0bd 699c d0bd
00000300: d2da c53d 9724 dd3d 1842 cf3d fd49 acbd
00000310: 1546 b2bd 2583 a2bd 56e1 f5bd 01e0 dd3d
00000320: 87da 733d d077 a83d e79a 583d 7ca8 f0bd
00000330: 159c 823c f78b c7bd 8db4 353d a71b d2bd
00000340: 4be0 9b3d ddaf f1bd a230 68bb 6108 a6bd
00000350: 674d 93bb 2985 773c 1801 263d bc6c 273d
00000360: a3ce b8bc 5670 9c3d 8d89 343d 14f7 4a3d
00000370: c1f1 e9bd 472c f6bd 4189 873c 7731 9c3c
00000380: 2f9c 4fbd e19a 60bd b82f f83d feb6 82bd
00000390: 761f 2d3c eb0a 793d 819e eebd 1775 a4bd
000003a0: 8fd8 b4bd f37a b1bd b66b 8d3d 708b c43b
000003b0: 9221 e63c d54a d83c e7ef 46bd f5a2 b73d
000003c0: 9e3b e2bc 4054 d1bd 0b62 1d3d 46b8 9e3d
000003d0: 2f46 f63d 873d a3bd 2313 d23c d56f c5bd
000003e0: e150 8cbd f56c 063d 8761 47bd 5cd9 5dbd
000003f0: 3ba1 ee3d 7463 e4bd d098 c0bd 6537 4e3d
-0.071992725 -0.038480192 0.109052464 -0.012598875 -0.1153853 -0.016466044 -0.024391657 0.010101919
-0.08016089 -0.008157813 -0.025775457 0.12119068 0.120273426 0.032000605 -0.078991964 -0.107108295
0.086467065 -0.114882134 -0.043602865 -0.004226953 -0.12194909 0.09896658 0.0045909807 0.009735704
-0.08927557 0.04607576 0.09207918 0.0044776667 -0.032864116 0.09636684 -0.008925563 -0.09726098
0.08316464 -0.0849419 0.100066565 -0.010583602 -0.074380815 -0.09741607 0.029342134 -0.055412456
0.049737863 -0.06029045 0.015502463 -0.107788146 0.07913959 0.03929717 -0.054756038 -0.11570461
0.02157341 -0.07722576 0.08670358 -0.010778285 -0.002831086 -0.022793394 -0.061914593 0.031206453
-0.11565495 -0.010007422 -0.02637811 0.038326014 -0.12327893 0.06131379 0.00684439 0.027569221
-0.022270035 0.10638662 0.08488338 -0.05723177 -0.02601217 -0.10562178 -0.03953438 0.040006567
0.0459572 -0.026649097 0.046229377 -0.032526687 -0.07413363 -0.03250743 -0.09544143 -0.044265274
-0.075963266 0.0057864785 0.08708985 -0.029082038 0.0855835 -0.06713635 -0.06358538 -0.04233096
-0.11714663 -0.023993049 0.02347766 -0.07671433 -0.11983039 -0.09179312 -0.021873508 -0.04346492
-0.09988329 -0.07537295 0.052024722 -0.058128156 0.055266086 0.058375414 0.018936574 -0.09740444
-0.05203546 -0.1173469 0.10284972 -0.11902174 -0.0360843 -0.06546159 0.10432513 0.015801894
-0.066538975 -0.03618755 -0.027896559 0.07919343 0.070884936 0.0036801905 0.107761405 0.03253471
0.07521812 0.07081375 0.0057597933 -0.07370881 0.016944971 -0.06269066 0.080895364 0.05768432
-0.052463006 0.031805553 -0.054644886 0.012993683 -0.10298029 -0.052001603 -0.119579405 0.10565581
0.09740137 0.08017327 -0.12405937 0.122922085 0.10795234 -0.04288357 -0.09372067 -0.095861815
0.11461605 0.044924818 -0.056603942 -0.11653704 -0.11956767 0.12331817 0.09921361 0.0583615
-0.07945367 -0.070736416 0.12501882 0.08816847 -0.01253998 -0.022305839 -0.082906865 0.06461746
0.009768066 0.046413053 -0.09881235 0.012797654 0.02699798 0.088411406 -0.044417676 0.112112276
0.027897542 0.12061983 0.078082204 0.03480531 0.11464412 -0.091801986 -0.110752635 0.04807646
-0.11490462 -0.12001055 -0.016916405 0.035930358 0.038133428 0.038347106 -0.07509526 0.063344054
0.1233205 0.08365444 -0.03179934 -0.01706373 0.08088488 -0.1050533 -0.10198936 -0.10186083
0.09660877 0.107979946 0.10120028 -0.0841255 -0.08704773 -0.0793517 -0.1200587 0.10833741
0.059534576 0.082259774 0.0528821 -0.11750886 0.015943566 -0.09743493 0.04436164 -0.102591805
0.0761114 -0.118011214 -0.0035429378 -0.08107067 -0.004495311 0.015107431 0.040528387 0.04087518
-0.02255947 0.07638614 0.04407649 0.04955204 -0.11423064 -0.12020164 0.01654494 0.019066555
-0.050686058 -0.054835204 0.12118477 -0.06382559 0.010566583 0.060801428 -0.11651326 -0.080301456
-0.08830368 -0.08666029 0.0690531 0.0059980676 0.02809218 0.02640287 -0.048568632 0.089666285
-0.027616318 -0.102211475 0.03842358 0.07749991 0.12025105 -0.0797072 0.02564389 -0.09640471
-0.06851364 0.032818753 -0.048676994 -0.05416237 0.11651846 -0.11151782 -0.09404147 0.050345797

fc1.weight f4 [32, 64]
00000000: 886c 0ebd 006b c13d 3c11 8cbd 24cb 99bd
00000010: 9e27 c8bd e8c4 b0bd 0019 2bbc 4092 b73b
00000020: 7c22 6b3d 0881 353d 9427 043d ec1c 1dbd
00000030: a882 e43c 6817 2e3d e248 87bd f8f0 883d
00000040: 88b8 f8bc 4e01 a33d 3a60 d3bd a495 b5bd
00000050: 1c72 173d 8efb abbd fed6 bbbd c460 4dbd
00000060: cc37 febd f23f 923d 58cd 3ebd b04c fa3d
00000070: c07f 973c 6804 963c a061 e63c 2e4c edbd
00000080: f831 bdbd aaf4 d43d 70a6 3a3c a4d4 33bd
00000090: 6826 de3d b85d 153d ec37 efbd 7c92 19bd
000000a0: 70ec 893d 8287 b23d 7085 90bd 80a8 243d
000000b0: 60c4 1d3c 4204 fc3d 4832 a2bc 4244 f1bd
000000c0: e032 fcbb c0ad 3dbd ca35 b23d 3cd7 9ebd
000000d0: d22e ea3d f803 643d c006 43bc 3a7f c3bd
000000e0: 768c 913d 94ae b1bd 5eca a93d f4a0 8bbd
000000f0: 980f d5bc 1439 70bd 7c59 333d 5085 013d
00000100: 1662 ccbd c036 f6bd 2e99 993d 9856 eabd
00000110: 1001 6a3d 284a eb3c 5644 c2bd c0ab 4b3c
00000120: 3853 fbbc 1ebe ab3d 3284 fa3d 386e 463d
00000130: 0aef ad3d d6ca cc3d 7067 1abc 10d5 babd
00000140: 1c91 aa3d 888f 4c3d 943e c2bd 20d5 3fbc
00000150: 7052 7b3d 90e9 a6bd 3cef b73d c26f 873d
00000160: 6884 9abd 7845 bf3c 2eeb cc3d cec1 efbd
00000170: a846 4d3d d00d cabd 3c3c 663d 3499 1e3d
00000180: 2271 c0bd 1850 b2bc e052 f73c 58ed a63c
00000190: 703a cb3d e4c1 1b3d 40bf f63b 4665 9dbd
000001a0: 7493 b3bd f061 a1bd e04b 9abb 88ce 7dbd
000001b0: 8072 063c 049e eb3d 2073 b73c c268 a8bd
000001c0: a8de b4bd 885c f13d f24a f9bd f65a db3d
000001d0: 6048 c4bb 8c4c fe3d 9e10 9abd 76db f13d
000001e0: 982f 77bd a69c fa3d 1216 b6bd dcbe 45bd
000001f0: ccfe 893d 96c6 f8bd 7efb e53d b0f9 cdbd
00000200: ffd2 b5bd 26f3 ddbd daa1 f4bc 5a10 5e3c
00000210: a1c3 d6ba 333a 63bd 4e8d 723d db1f a03d
00000220: 4fb1 7cbd da3e 42bd 0b42 193d 9e44 3c3b
00000230: 4b43 043d 65dc e53d d440 30bc f15a 5fbd
00000240: 6783 cb3d a7de 5ebd 5a30 d0bd 25f0 853d
00000250: b472 cbbd 31e7 93bd 8081 bcbc 4c3b c53c
00000260: 82f5 fabd 0750 f4bd cb77 b4bc 0ed7 1a3d
00000270: 9331 0ebd 2f34 ab3d a345 753d cf9f a9bd
00000280: 4c44 96bd 6524 ce3d c267 6bbd 0c5f e63d
00000290: 2efa 42bb ad24 2dbd 21cd fdbd 4faa 44bd
000002a0: c215 26bc c544 ec3d 017c 43bd 97f0 17bd
000002b0: 9d66 a13d 75a6 73bd 9e64 e53d 0a81 f4bd
000002c0: 8bcd afbd f1fb 60bd 6378 8ebd cd07 ba3d
000002d0: 764c cd3c 277c 2cbd bfd4 2bbd ac1d e33d
000002e0: c7ab 1b3d 23a7 f73d 075f a3bd dafd cabc
000002f0: b725 c33d fb9b a3bd 8706 80bd 77bc 5f3d
00000300: 895f cf3d a42a 723c 99c8 ad3d cde0 bb3a
00000310: e305 8b3d 4d68 f4bd 315e e63d bd57 b73c
00000320: 9df4 eebd 0877 b73c cf95 8b3d 4511 e4bd
00000330: b309 49bd d716 e0bd 8298 46bd 0529 963d
00000340: 1ac2 6fbd 0d28 d43d 1ecd e43c 2274 1f3d
00000350: b14f bdbd 931c efbd 7f4e c63d 8964 843d
00000360: 6ca4 c1bc ed97 e23d fa07 0d3d b2a8 0abd
00000370: 38bd 4c3d d801 babd 4393 d03d 6e12 1dbd
00000380: 14d7 843d 0d38 953d a40d 403c 2de8 b2bd
00000390: 51a8 efbd ec24 62bb ea99 59bd 6ae6 243d
000003a0: 9e6b 8ebd 943f ee3b b269 db3c 96ab 4b3d
000003b0: de60 d63d cb4e 96bd 7ddc f73d 43d9 cdbd
000003c0: 6a9b 6ebd 35f5 9f3d 8ef0 cb3d 000e 253d
000003d0: a679 c8bd 4f5e b63d 4bc5 ba3d 9e2d c43c
000003e0: fdc2 cdbd 6d41 dcbc f056 b4bd 7208 0abd
000003f0: 964d 903c 437d 72bd 49ba f6bd 7701 e8bd
-0.034771472 0.09444237 -0.06839225 -0.07509449 -0.097731814 -0.08631307 -0.010442972 0.005602151
0.057405934 0.044312507 0.032264307 -0.03835766 0.027894333 0.04250279 -0.06605698 0.06686586
-0.030361429 0.07959233 -0.10321088 -0.08866432 0.036974058 -0.083975896 -0.09171866 -0.05014111
-0.12412986 0.07141103 -0.04658255 0.12221658 0.018493533 0.018312648 0.028122723 -0.11586796
-0.092380464 0.103982285 0.011392221 -0.04390396 0.10847169 0.03646633 -0.11680588 -0.037493214
0.0673455 0.08717252 -0.07056701 0.040199757 0.009629339 0.123054996 -0.019799367 -0.11780597
-0.0076964945 -0.04630828 0.08701666 -0.077558964 0.114347115 0.055667847 -0.011903465 -0.09545751
0.07106869 -0.08675876 0.082905516 -0.06817809 -0.026008412 -0.058648184 0.04378651 0.031621277
-0.09979646 -0.120221615 0.0749992 -0.11442298 0.05712992 0.028721884 -0.0948569 0.012431085
-0.03067933 0.08385871 0.122322455 0.048444957 0.08492859 0.099996254 -0.0094240755 -0.0912267
0.08328459 0.04994157 -0.09484592 -0.011708528 0.061357915 -0.08150017 0.08981177 0.06613113
-0.07544786 0.023348555 0.100057945 -0.11706887 0.05011621 -0.09865916 0.056209788 0.038720325
-0.09396578 -0.021766707 0.030190885 0.020376846 0.099232554 0.038026705 0.007530123 -0.07685332
-0.08768359 -0.07880008 -0.004708752 -0.06196454 0.00820601 0.115047485 0.022393763 -0.08223106
-0.08831531 0.11785227 -0.12172498 0.10710709 -0.005990073 0.12416944 -0.07522701 0.11809437
-0.060348123 0.122369096 -0.08890928 -0.04827772 0.06738052 -0.12147252 0.11229609 -0.1005739
-0.08878135 -0.108373925 -0.029862333 0.013553703 -0.0016385206 -0.055475425 0.05921679 0.07818576
-0.061692532 -0.04742322 0.0374165 0.0028727422 0.032290738 0.112236775 -0.010757644 -0.054530088
0.099371724 -0.054411557 -0.10165472 0.065399446 -0.09933987 -0.07221831 -0.02301097 0.024076127
-0.12253858 -0.119293265 -0.022029778 0.03780275 -0.034715246 0.083595626 0.059880864 -0.08282434
-0.07337245 0.100655355 -0.057471998 0.112485975 -0.002975117 -0.042271305 -0.12392641 -0.04801398
-0.010137023 0.11536554 -0.04772568 -0.03709468 0.078809 -0.059484918 0.11200832 -0.11938675
-0.08584126 -0.05492777 -0.06956556 0.09083519 0.025060873 -0.04211059 -0.041950937 0.11089644
0.038005617 0.12092426 -0.079771094 -0.024779249 0.09528678 -0.07988735 -0.06251245 0.054623093
0.10125644 0.014780674 0.084855266 0.0014333964 0.06788232 -0.11933956 0.11248434 0.022380704
-0.1166775 0.022395626 0.06815683 -0.111361064 -0.049081516 -0.10941856 -0.048485287 0.073320426
-0.05853472 0.103592016 0.027929839 0.038929112 -0.092437156 -0.11675372 0.09682941 0.06464488
-0.023637973 0.11064134 0.034431435 -0.033852287 0.04998514 -0.09082383 0.10184338 -0.038347654
0.064863354 0.072860815 0.011722002 -0.0873569 -0.11702026 -0.003450687 -0.0531253 0.040258802
-0.0695412 0.0072707627 0.026783798 0.049724184 0.10467695 -0.07339247 0.12102602 -0.10051205
-0.058253683 0.078104414 0.099579915 0.040296555 -0.097888276 0.08904707 0.09119662 0.023947533
-0.10046957 -0.026886666 -0.088056445 -0.03369946 0.01761512 -0.05920149 -0.1204725 -0.113284044

fc1.bias f4 [32]
00000000: b2b9 a2bd c82a 76bd 384d e73d 905b d13d
00000010: 1896 c2bd d4ad 8f3d 2cb5 c23d e46f 6fbd
00000020: 8356 07bc 2ee4 b63d b856 43bd 40f8 99bc
00000030: fd5c 3b3d 8a66 463b 9cd5 65bd 60e7 50bd
00000040: 30a3 f83c 7006 b23d b024 b6bd 0eef e53d
00000050: c2c8 fabd 046e 773d 7453 073d 7095 efbd
00000060: 18dc 2ebd 08c4 973d 10eb bfbc a06a d5bd
00000070: 8c8e d33c 581a f4bc 0fdd b13c 74f5 ef3d
-0.07945575 -0.060099393 0.11294025 0.10222542 -0.09501284 0.07015577 0.09507212 -0.058456317
-0.008260372 0.089302406 -0.047690123 -0.018795133 0.045742977 0.003027352 -0.056111917 -0.051001906
0.030351251 0.08692634 -0.08893716 0.11227237 -0.12245323 0.060407653 0.03303857 -0.11698425
-0.042690367 0.07410437 -0.023427516 -0.10420728 0.025824808 -0.029797718 0.021711854 0.11716738

fc2.weight f4 [1, 32]
00000000: 04f4 02be 750a da3d 98f2 503d 1194 0cbd
00000010: 2db4 be3d 2431 d1bd 76d6 2dbe 75e3 fa3d
00000020: 57d4 f8bc b270 dbbd 3630 60bd a879 283e
00000030: e440 583d d70e 843d 22c6 72bd 4809 0abe
00000040: fb24 c13d ce05 7ebd d9d7 2e3e 9bc6 06be
00000050: 2a35 87bd 9749 96bc c293 08bd 7e07 cebd
00000060: ccf6 64bd c545 adbd 3800 313d 7aeb dd3d
00000070: 40b5 113b a83c 20bd 0cc3 8ebd 86b2 343e
-0.12788397 0.10646526 0.051012605 -0.034320895 0.093117096 -0.10214451 -0.16976342 0.12250415
-0.030374689 -0.10714854 -0.054733478 0.16452658 0.05279626 0.06448143 -0.059270985 -0.13480103
0.094308816 -0.062017255 0.17074527 -0.131617 -0.06601937 -0.018345637 -0.033344038 -0.10060023
-0.055899426 -0.08460573 0.0432131 0.10835929 0.0022233278 -0.039120346 -0.06970796 0.17646226
