checkpoint_500.pth (torch, 450802 bytes, 8 tensors)

embedding.weight f4 [671, 100]
000000 b1 e9 d4 3e 88 2c 07 bf f5 a6 fb 3d 53 59 36 3f
       0.41584542 -0.52802324 0.12287704 0.7123005
000010 e6 51 fd be 93 78 a3 3f 8a 92 8c be f6 d2 29 3d
       -0.49476546 1.2771171 -0.2745555 0.041460954
000020 d8 f6 3d bf 68 f2 dc 3d 51 f9 9a 3f d0 82 39 3e
       -0.7420478 0.10788423 1.2107335 0.18116307
000030 78 01 41 bf 4a 9d 20 3f a0 eb eb bf 04 b7 58 bd
       -0.75392866 0.62740004 -1.8431282 -0.052908912
000040 66 c8 90 3f 37 68 83 3f 4f 36 7e 3a b5 28 ca 3f
       1.1311157 1.0266179 0.00096974237 1.5793673
000050 4d 38 11 c0 20 1f b7 bf 8e e1 0a bf 60 e6 cf be
       -2.2690613 -1.4306374 -0.5425042 -0.4060545
000060 b5 4f 5b bf 4a 14 13 40 f3 91 06 bd 9d b9 21 3f
       -0.856685 2.2981133 -0.03285403 0.6317385
000070 5a dd 1d be 76 56 52 bf 0e 26 64 3f 78 e1 f7 bf
       -0.1541647 -0.8216318 0.89120567 -1.9365683
000080 cd b4 c2 3e 79 85 97 b9 70 95 69 3d 08 ff 8b bf
       0.38028565 -0.0002890041 0.05702728 -1.0937204
000090 e7 f3 14 bf 91 ca a2 be 72 df 61 3e 29 7d 84 3f
       -0.58184665 -0.3179517 0.22057894 1.0350696
0000a0 f6 38 b8 be 14 70 a2 3f a0 52 31 bf 12 0d ee be
       -0.35980958 1.2690454 -0.692667 -0.46494347
0000b0 b7 c5 20 40 bc e2 3f 3f 60 18 82 be 6a c6 8c bf
       2.5120676 0.74955344 -0.25409222 -1.0998051
0000c0 b1 b5 04 40 65 13 23 3f 3c c8 9f 3f d3 d4 5e bf
       2.0735896 0.6370147 1.2482982 -0.87043494
0000d0 77 47 95 be c9 1a 7f 3e 48 1e 79 be 82 7a 04 bf
       -0.29156086 0.24912561 -0.24327958 -0.5174943
0000e0 e9 71 10 3e 97 22 e0 3f 7c 71 a7 bf bf 32 b0 3e
       0.14105953 1.7510556 -1.3081508 0.34413716
0000f0 ae 13 ca be d4 df 1a bf ce c3 52 3f 34 ae 68 3f
       -0.3946814 -0.60497785 0.82330024 0.9089081
000100 6c a7 70 bf 3d 46 68 bd 1b a7 dc 3e 8b 16 a4 3e
       -0.94005466 -0.05670761 0.4309624 0.3204845
000110 2f 6a 14 bf 2c 6c d1 bf 26 88 16 bf 04 9a c4 3f
       -0.57974523 -1.6361136 -0.58801496 1.5359502
000120 34 a7 d4 bf fc 9f ca be d8 f0 67 bf fc 57 a4 be
       -1.6613526 -0.39575183 -0.90601873 -0.32098377
000130 d4 fb 15 bf ff 42 15 bf 6a be 9c be 82 6f c7 bd
       -0.58587384 -0.5830535 -0.30614024 -0.09738065
000140 93 28 66 3f c9 0e 4a bf 64 b3 11 3e d9 5d 65 bd
       0.8990566 -0.7892881 0.14228588 -0.055997703
000150 d0 21 a4 3e 79 f1 91 bf c4 cc 8c 3f b0 5c e4 bf
       0.32057047 -1.1401817 1.099999 -1.7840786
000160 e2 83 86 3e 2a b8 64 3f de 88 d1 3f c8 3c 12 3e
       0.26272494 0.8934351 1.6369894 0.14280999
000170 05 84 fd 3e 1d 5a 4e 3f 2a f0 4e be 5e 63 f4 3d
       0.49514785 0.8060625 -0.20208803 0.11933015
000180 3c 4a 7a 3f b9 22 d0 be 1d 30 80 bf e7 e9 28 bf
       0.9776952 -0.4065149 -1.0014683 -0.65981907
000190 86 92 38 3e 0c f8 3a 3f ac 69 a9 bf 4b cf 8c bd
       0.18024644 0.7303474 -1.3235373 -0.068754755
0001a0 09 6a ca 3e 41 9f bc be ae d2 cf 3c ac b8 25 3f
       0.39534023 -0.3684025 0.025369015 0.6473491
0001b0 f0 a9 37 3e 8f 09 f6 bf bd f9 85 be 40 bd 3b 3f
       0.1793592 -1.9221667 -0.26167098 0.7333565
0001c0 92 41 d6 be 61 db b5 3f fc 35 09 3f 77 00 fd be
       -0.418469 1.4207574 0.53598 -0.49414417
0001d0 3f e5 1e bf 73 5d 0c c0 26 47 b2 3e 17 61 a1 3f
       -0.6206855 -2.1932037 0.34819907 1.2607754
0001e0 78 5f c2 3e c7 d1 44 3d a6 ce ce 3d 4d b4 b7 be
       0.37963462 0.04805162 0.10098009 -0.35879746
0001f0 a5 c6 95 be 0c 9e 42 3f 1d 98 1f c0 23 61 da bf
       -0.29253116 0.7602241 -2.4936593 -1.7060894
000200 12 3a 10 bf 5b 88 d4 bf 77 9c da bf 82 16 ca 3d
       -0.5633861 -1.6604112 -1.7078999 0.09867574
000210 a0 c6 81 bf b4 fb 29 be 85 cc 4b bf 33 b0 a9 be
       -1.013874 -0.16599923 -0.7960895 -0.33142242
000220 8f 81 16 bf 9c 1f c6 bd 7f 8d a1 bf 29 e2 ee 3f
       -0.5879144 -0.09673998 -1.2621306 1.8662769
000230 ec 64 8b bf 48 c6 c0 bf 76 5e 58 bd b4 8a 50 bf
       -1.0890174 -1.5060511 -0.05282446 -0.81461644
000240 62 ad 13 bf 02 49 82 bf 40 79 e8 bf 75 5c 1e bf
       -0.57686436 -1.017853 -1.8162003 -0.6185983
000250 42 17 ea 3e d1 a3 55 bf d5 51 40 3e 8d ba 64 bf
       0.4572087 -0.8345309 0.18781216 -0.89347154
000260 b7 b5 96 be fc f9 38 bf 5e 9f 6e bf e3 b4 da 3f
       -0.29435512 -0.72256446 -0.93211925 1.7086452
000270 70 3f b7 bd 84 d0 3a bf 3d fe 8e bf f5 80 0b bf
       -0.089476466 -0.7297442 -1.1171337 -0.5449365
000280 2d 62 26 3e be ec 88 3e 6e 49 14 3e 63 5a 16 3f
       0.16248389 0.2674312 0.14481136 0.5873167
000290 85 bf 1c bf 71 cc f8 bd b3 a1 cc 3f 7f ba 10 3f
       -0.61229736 -0.12148369 1.5986847 0.5653457
0002a0 50 cb 7b 3e 77 5d 21 bf 0b b4 dc 3e 95 7b e4 be
       0.24589276 -0.6303324 0.43106112 -0.44625536
0002b0 c6 51 dc bf d5 f9 f6 3e 49 a9 4a 3f 8e 6f 93 3f
       -1.7212455 0.48237482 0.7916456 1.1518419
0002c0 35 9b 61 3f 6d 38 1b 40 e7 1a 3b 3e 93 c9 aa be
       0.8812745 2.425319 0.18271981 -0.33356914
0002d0 88 99 99 3f d8 ec 12 3f f7 bf 98 bf 14 d2 d2 bf
       1.1999979 0.57392645 -1.1933583 -1.6470361
0002e0 73 96 dc 3f ff a2 e3 be ac 0f 4c 3f 56 c7 ae 3f
       1.7233413 -0.44460294 0.79711413 1.3654583
0002f0 84 8e ae bf f0 67 ca bf 5a fc 9e be 40 32 fc 3e
       -1.3637242 -1.5812969 -0.31051904 0.49257088
000300 43 00 65 bf 38 47 bc 3f 06 6f 83 bf 2a e6 ab 3e
       -0.89453524 1.4709234 -1.0268257 0.3357404
000310 14 3e 7e be 9f 3b ee 3e 9f 13 87 bf 95 28 2c 3f
       -0.24828368 0.46529862 -1.0552863 0.67249423
000320 c2 9d 01 be cc e7 22 3f fd 0e e4 3c 5e ef a1 3e
       -0.12657836 0.63634944 0.027839178 0.31627935
000330 20 c4 05 3f 8b ea ee bf 2f 81 05 40 fc 25 0e bf
       0.5225239 -1.8665327 2.0860097 -0.5552671
000340 0b d1 b8 bf be 0e 5a bf fc ad 93 bf e8 38 05 40
       -1.4438795 -0.85178745 -1.1537471 2.0815983
000350 03 1d 96 bf c8 df 51 bf d9 d3 3a 3f a2 7b 52 bd
       -1.1727604 -0.8198209 0.72979504 -0.051387437
000360 57 1a 92 3e 55 2b 59 3e 36 5d ad 3f 2d 5a a0 3e
       0.2853572 0.21207936 1.3544071 0.313188
000370 5c e1 86 3f 1f 09 37 bf 68 04 6b bf 23 53 c9 3d
       1.0537524 -0.7149829 -0.918036 0.0983031
000380 91 bd a1 3f 13 05 ef 3e 57 b7 52 3f 5e 06 bd 3e
       1.2635976 0.4668356 0.82311004 0.3691892
000390 4a e0 2b c0 59 65 ce 3f eb 14 32 3f 26 a3 a8 be
       -2.6855645 1.6124679 0.6956317 -0.32936972
0003a0 7e 90 35 3f 24 24 73 3e f3 1b 2a 3e e9 5e a5 3e
       0.709236 0.23744255 0.16612224 0.32298973
0003b0 0c 0c 6f be 36 c3 86 bf 90 7a 44 3e 0f c7 9a be
       -0.2334444 -1.0528324 0.19187379 -0.30229995
0003c0 0d bd 22 3f b1 af 3e bf a8 7d 18 3f 4b b1 be 3e
       0.6356972 -0.74486834 0.59566736 0.3724464
0003d0 81 09 0f c0 39 8f 2d bf f7 d0 bf bf 93 fc c0 bf
       -2.234955 -0.67796665 -1.4985646 -1.507708
0003e0 6c 06 12 3f e5 34 0e c0 08 44 c4 3f c7 df 6f bd
       0.5704105 -2.2219784 1.5333261 -0.05856302
0003f0 7d b7 a1 3e 46 e4 95 bf d0 4c f1 bf 73 c9 5f bd
       0.31585303 -1.1710289 -1.8851566 -0.054635476

lstm.weight_ih_l0 f4 [256, 100]
000000 64 4a 6c bc ec 4a 19 bd fc cb ee bd 20 d5 b2 3d
       -0.014422033 -0.037424967 -0.11660001 0.087320566
000010 b9 af 3e 3d d8 13 3c 3e 65 6e c9 bc a5 60 19 bc
       0.0465543 0.18366945 -0.024588773 -0.009361421
000020 af 64 99 3d ba 3c d0 bd 35 70 97 bd 55 6f 4a 3d
       0.07489907 -0.10167833 -0.07394449 0.04942258
000030 79 4d 7b 3d c5 f5 dd bd fb 23 2c 3d 24 47 cd 3d
       0.06135318 -0.108378924 0.0420265 0.100233346
000040 61 c5 a0 3d c1 e2 15 be b0 ec 40 3d 04 df 8e bd
       0.07850147 -0.14637281 0.047100723 -0.069761306
000050 83 c0 1b be 36 9e a2 bd 24 c4 b9 bd ef 80 51 bd
       -0.15210156 -0.079403326 -0.09070614 -0.05114835
000060 b6 4e 88 bd aa 4e 07 be 21 92 9d 3d 6d e9 0b be
       -0.06655638 -0.13213602 0.076938875 -0.13663264
000070 35 cc b9 3d 2f 12 9f 3d c6 12 49 3d 15 1b ad bd
       0.090721525 0.0776714 0.04909017 -0.08452431
000080 28 88 b2 bc 2b f7 7b 3d 7f 6f 15 be 1c 5b 25 bd
       -0.02179344 0.061515015 -0.14593314 -0.04037009
000090 41 9e 9c bd 06 24 97 bd 55 61 b0 bd 83 14 9b bc
       -0.07647372 -0.07379918 -0.086123146 -0.01893068
0000a0 69 db 77 bd 50 35 25 be 53 c8 f5 bd ed 1c 61 3d
       -0.06051198 -0.16133618 -0.120010994 0.054959226
0000b0 e8 39 1b 3d 8e 51 c7 3d ad 3c 22 bc 83 ee 98 bd
       0.03789702 0.09732352 -0.009902162 -0.074673675
0000c0 e2 89 b9 3d 61 86 5f bc 60 36 62 3d aa f3 09 be
       0.09059502 -0.013642878 0.055227637 -0.13471857
0000d0 64 84 05 3e 9b cc 8f 3d 3b a6 04 bd 6c bd 91 3d
       0.13038784 0.07021447 -0.032385092 0.071162075
0000e0 cc eb 86 bd 04 b7 60 3d 4c 15 4c 3d 74 4e bc bd
       -0.065879434 0.054862037 0.049824998 -0.09194651
0000f0 96 84 6d bd a9 83 ed 3d f3 cf 1e bd 27 ec 5f bc
       -0.057987772 0.11597378 -0.038772535 -0.013667143
000100 f8 ad 92 3d 2d a4 5a bb d5 bf b1 bd cb f3 11 be
       0.07162088 -0.0033362017 -0.08679167 -0.14253156
000110 36 89 4b bd bf 66 7f bd 98 3e 8d 3d 52 c8 cd 3c
       -0.0496914 -0.062353846 0.068967044 0.025119934
000120 15 cc f3 3c 08 b5 d0 bd 72 77 f2 3d 32 31 d3 3d
       0.0297604 -0.10190779 0.11839189 0.10312118
000130 20 00 93 bb e2 20 b7 3d 3d 86 6f bc e0 53 c6 3d
       -0.004486099 0.08941819 -0.014619407 0.09683967
000140 5c c5 d5 3d 40 bf d1 bc 71 dc 70 3d 1d 58 79 3d
       0.10438034 -0.02560389 0.05880398 0.060875047
000150 c3 a5 45 3d de 95 c9 3d be 54 78 3d a4 47 6b bd
       0.048253786 0.09843038 0.06062769 -0.05744137
000160 b0 8a 0a be d3 cd 00 be 86 fd 75 bc 8a 28 e2 3d
       -0.13529468 -0.12578516 -0.015014058 0.110428885
000170 77 be a7 3d 42 13 97 bd fa b8 13 bd 7b d9 2f 3d
       0.08190625 -0.0737672 -0.03606508 0.042932015
000180 0c b4 73 3d ae 03 cd 3c 64 f7 b2 bd ce 7f e4 3d
       0.059497878 0.025026169 -0.08738592 0.11157189
000190 e3 58 27 bd 79 c1 a4 bd 93 29 56 3d d1 17 ec bd
       -0.040856253 -0.080447145 0.052285742 -0.1152798
0001a0 5b e7 fa 3d 0d 4b 00 ba 18 9d 0b bd 80 5f 34 be
       0.12251159 -0.0004893996 -0.034085363 -0.17614555
0001b0 bb f4 66 bd b8 d6 f8 bd 55 c3 47 3d bb 8e ac 3b
       -0.056385737 -0.12150329 0.048770268 0.0052660382
0001c0 f6 46 90 bd 83 3f 98 3d db ac 60 ba 37 48 09 bc
       -0.07044785 0.07433989 -0.00085706793 -0.008379034
0001d0 a5 75 2c 3e ab ca b1 bd 6a e9 f3 3c cf c7 2a bd
       0.16841753 -0.08681234 0.029774386 -0.04169446
0001e0 48 af 01 3d 85 f6 37 3d a2 c7 ae bd c5 3b 2b 3e
       0.0316613 0.044912834 -0.08534171 0.16722019
0001f0 ba 82 6f 3d dc f8 bb bd 48 bc 66 3d 61 9a a5 3d
       0.05847428 -0.091783255 0.056331903 0.08086086
000200 a8 a0 80 3d e9 98 44 bd 20 a4 49 bc ee ca 85 3d
       0.06280643 -0.04799739 -0.012307197 0.065328464
000210 b0 db 0c be 39 02 14 bd ef fb 67 3c 96 82 34 bd
       -0.13755679 -0.036134932 0.014159187 -0.04406985
000220 6a 60 f4 3b 30 be d2 3d 80 58 19 be 4a 87 0a be
       0.0074577825 0.10290182 -0.14975166 -0.13528171
000230 02 eb c1 bd c4 8f db 3c da a7 e8 ba 5c cb 80 3d
       -0.09468652 0.026801951 -0.0017750219 0.06288788
000240 3f 0c d0 3d 9d d2 4b bd 2e 6a 08 3e 7d 51 ed 3c
       0.10158586 -0.049761403 0.13321754 0.02896952
000250 2c a8 af 3d 3b 96 d1 bb 57 2c 47 bd cd 48 ba bc
       0.08576998 -0.0063960827 -0.04862627 -0.022739792
000260 99 ea ed 3b e0 da a3 bd e4 bb de 3c 07 e2 73 bd
       0.0072606322 -0.080007315 0.027189203 -0.05954173
000270 9f cd a4 3c 65 12 dc 3d d6 bf 01 bd 4b 5c 04 be
       0.020117579 0.10745696 -0.03167709 -0.12925832
000280 06 03 75 bd 3b 6a cb 3d 36 2b 14 bd 76 e8 90 3d
       -0.059817336 0.09932371 -0.03617402 0.070755884
000290 5b c2 e2 3d 0d 6a 63 bc f1 27 d9 bc 32 a7 81 bc
       0.110722266 -0.013880265 -0.026508303 -0.015826795
0002a0 62 f1 96 bd ec f2 18 be f1 e2 f9 3d 50 77 e8 bd
       -0.07370259 -0.14936417 0.12201489 -0.11350882
0002b0 e7 e6 98 3d 00 ba 6c bd 26 5f 57 bd 3e 7c 29 3c
       0.07465916 -0.05779457 -0.052580975 0.010344563
0002c0 6c 9d 17 3d 46 8d 9f bd a4 e1 7e bd 1c 1d 9e 3d
       0.037015364 -0.07790618 -0.062226906 0.07720396
0002d0 cf b6 65 3d 7e cb b8 3c dc 91 8b 3c aa da 11 bd
       0.056082543 0.02255797 0.017037325 -0.035608925
0002e0 bd 13 dd 3d 0e 93 67 bd e0 ef 9f 3d 61 90 47 bd
       0.107947804 -0.056536727 0.078094244 -0.048721675
0002f0 cf 86 10 3d af 76 5c 3c cf 30 68 bd a6 02 77 bd
       0.035284813 0.013456031 -0.056687173 -0.06030526
000300 44 32 97 bd 1b 41 4c bd 81 fe b3 bd 67 6d 12 3d
       -0.07382634 -0.049866777 -0.08788777 0.035748865
000310 28 c7 79 3d 23 2f dd bd e2 40 22 3d cd 22 77 3d
       0.060980946 -0.10800006 0.03961266 0.060335923
000320 0b 7e e2 bc 80 a1 55 bd cd 90 b3 3d 5a 72 8a bd
       -0.027647993 -0.05215597 0.08767853 -0.06760092
000330 77 5a 11 3e 1e e6 d1 3d b8 c0 b1 3d 88 47 59 3d
       0.14194666 0.102489695 0.08679336 0.053046733
000340 02 fa ab bd 24 ec be 3d d8 06 b8 3c c4 71 61 bd
       -0.083972946 0.09322384 0.0224642 -0.055040136
000350 f1 8b ab bc 00 80 4d 3c a1 70 bc bc 66 96 d7 3c
       -0.020940753 0.012542725 -0.023002924 0.026316833
000360 b1 10 b4 3d c5 7a f0 3d 7b b2 de bc 19 6b c2 bd
       0.08792246 0.117421664 -0.027184715 -0.094930835
000370 82 ce c5 bd 78 07 8a 3d 6b 2f a0 3d 85 0d 9c 3c
       -0.09658529 0.06739706 0.07821544 0.019049415
000380 a4 9d 66 3c 14 5b 8e 3d a7 8d 3f 3d 21 fb 97 3d
       0.01407567 0.069509655 0.04676595 0.07420946
000390 1e c8 63 3c 1d 0d 79 3d 0d a3 27 bd 1e 44 02 3d
       0.013902692 0.06080352 -0.04092698 0.031803243
0003a0 74 b0 81 3d 1a 4c 8b 3d 1c 35 49 3e 8e 15 56 3d
       0.06332484 0.068016246 0.19649166 0.05226665
0003b0 6d 03 24 3e c8 dc a5 3d 0c e8 5b 3d 91 eb 16 3d
       0.16016932 0.08098751 0.053688094 0.036845747
0003c0 24 fe cb 3d 73 4b 3d 3d f9 a9 d8 3d 8d 10 9d bc
       0.09960583 0.046214532 0.10579295 -0.019172931
0003d0 53 11 23 bd 6e c8 bf bb ee 5f ea 3d 4a 0d 19 3d
       -0.039811444 -0.0058527505 0.114440784 0.03736619
0003e0 ac 86 e9 bd c6 3c 50 bd 9e 58 a7 bd 1b a3 12 bd
       -0.1140264 -0.050839208 -0.08171199 -0.03580008
0003f0 7d 00 1a bd e6 7a 95 bd 17 8e 83 3d e7 4d 97 3d
       -0.037598122 -0.07298832 0.06423586 0.073879056

lstm.weight_hh_l0 f4 [256, 64]
000000 a6 19 87 bd 08 0f a4 3c 1c aa 56 bb 19 f5 6f 3d
       -0.06596689 0.020026699 -0.0032755202 0.058583353
000010 2b 4e aa bd 48 6b 44 3e 60 da 1b 3e 2e 77 63 3d
       -0.083156906 0.1918155 0.15220022 0.05553358
000020 f9 84 9b 3d fb 5e ad bd 7a 40 96 3d d4 2a 00 b9
       0.07593722 -0.08465382 0.07336517 -0.00012222986
000030 83 92 68 bd 3e 3f fc 3d 3e 6f 49 bd 65 f2 0b 3d
       -0.05678035 0.1231675 -0.049178354 0.034166712
000040 13 28 03 3c 5c 79 d1 3d 6d 83 27 3d 98 55 0f 3d
       0.00800516 0.102282256 0.04089682 0.034993738
000050 39 df c4 bd 46 5e b1 3d a3 b4 08 3e 60 6a dd bd
       -0.09612889 0.08660559 0.13350157 -0.10811305
000060 2c 8f 65 bd c4 eb d3 bc 91 4a e7 bc ae 90 8c 3d
       -0.056044742 -0.025869258 -0.028233798 0.06863533
000070 79 ab 2e 3e d2 1d b1 3c 4b 95 57 3d d5 33 e1 3d
       0.17057599 0.021620665 0.05263261 0.10996214
000080 b5 b3 c2 bd 47 3c 27 3e ae b5 88 3d 2e b8 c1 bd
       -0.09506933 0.16331588 0.06675278 -0.094589576
000090 af 98 37 bd 82 57 f0 3c 65 c6 18 bb bc f0 f7 3d
       -0.044823345 0.029338602 -0.0023311612 0.12106463
0000a0 e9 a4 0f bd 53 b0 0c bd 49 80 ee bd e5 bc 32 3e
       -0.03506938 -0.034347843 -0.11645562 0.1745487
0000b0 b1 42 6d bd 67 48 8b 3c e7 8a 8c bd 34 67 8c 3d
       -0.05792493 0.017002298 -0.06862431 0.06855622
0000c0 65 fe 99 bd 00 47 ee 3c 3c 79 90 bd 3b 09 07 bd
       -0.07519225 0.02908659 -0.070543736 -0.032967787
0000d0 c0 8b 37 bd b4 94 f3 3d a1 f7 f9 3c 28 14 78 3d
       -0.04481101 0.11893597 0.030513586 0.060566097
0000e0 24 83 4f bc 9b 58 55 bd e8 80 1f 3e 77 03 c7 bd
       -0.012665544 -0.052086454 0.15576518 -0.09717458
0000f0 e5 9a 6e 3d 35 72 0b 3e bb 1a a1 3d 90 bc 0a 3e
       0.058253188 0.13617785 0.078664266 0.13548493
000100 f9 f1 7c 3d 60 a0 8c 3d 2c 6d 64 3d cf a2 25 3d
       0.0617542 0.068665266 0.055768177 0.04043847
000110 0d 29 e9 bd d7 ed 51 3c b4 fd a6 3d d4 88 0b 3e
       -0.11384783 0.012813053 0.08153859 0.13626415
000120 81 fe aa 3d 4f 26 31 3d 32 09 47 3d dd 50 e1 3d
       0.08349324 0.043249425 0.048592754 0.110017516
000130 dc db 6c bd 57 90 08 3e b6 f0 df 3d 3a 31 16 be
       -0.05782686 0.13336311 0.10934584 -0.14667216
000140 c3 d9 7d 3d 3f 2a df bd 66 c1 d1 bc 97 57 ee bd
       0.061975252 -0.1089673 -0.025604915 -0.116378
000150 0f d4 81 bd b9 52 e4 bc 7c e1 0d 3e 50 e5 0e 3d
       -0.06339275 -0.027871476 0.13855547 0.03488666
000160 7c f2 9d bd 94 96 cf 3d 54 bc 27 3e 7f a4 52 3d
       -0.07712266 0.101361424 0.16380435 0.051426407
000170 8b d2 70 bd 7a 41 62 3d 70 c1 01 3d 8b 34 a3 bd
       -0.05879454 0.055238225 0.031678617 -0.07969006
000180 92 fc 5e 3d 17 23 b5 3d 7d 39 b6 bd 72 cf f8 bd
       0.05444009 0.088445835 -0.08897684 -0.12148942
000190 dc 58 75 3d 6e cb 86 bd 5d 8b 31 3d fc 7e ea 3c
       0.059899196 -0.0658177 0.043345798 0.028625004
0001a0 42 53 2c 3d f0 25 0f 3d d0 48 a5 3d f1 c0 0e 3e
       0.04207159 0.03494829 0.080705285 0.13940789
0001b0 45 ce 88 3d 92 ff 23 3e 6a 59 a2 3b 75 72 c2 bd
       0.06679968 0.16015461 0.0049545066 -0.09494487
0001c0 8e bb 96 3d 3d a4 fb 3c 15 56 0b 3e 7d f2 44 bd
       0.07359992 0.030717963 0.13607056 -0.048082817
0001d0 e2 58 d0 bd e1 cb fa 3c e1 f4 d4 3d b9 86 21 3d
       -0.10173203 0.030614795 0.103982694 0.039435122
0001e0 b5 8e 39 bb e8 48 68 3d c2 3c 12 be 21 a5 53 bd
       -0.002831382 0.056710154 -0.1428099 -0.05167115
0001f0 aa dd ac bd 1d 2b 0b 3e 88 c1 8b 3d 8e cc d5 3c
       -0.084407166 0.13590665 0.068240225 0.026098516
000200 5b 37 5c 3d c4 a2 a0 bd ea 47 a8 bd 09 50 63 bd
       0.05376373 -0.07843545 -0.082168415 -0.05549625
000210 0d 62 07 be 22 40 68 bb a6 df 30 3c b0 ed c6 3c
       -0.13220997 -0.0035438617 0.010795509 0.02428326
000220 2d f7 ab bd 8d 3f 39 3d d7 5e a9 bd bb 42 c7 3d
       -0.083967544 0.045226622 -0.082700424 0.09729525
000230 d5 32 96 3d 16 a5 0d 3d eb f6 57 3d 89 66 df 3c
       0.07333914 0.034581266 0.052725714 0.027270572
000240 86 39 43 bb af 76 31 be 6f 6d 1d be f0 e5 6a 3d
       -0.0029788925 -0.1733043 -0.15373777 0.05734819
000250 6a 3e 55 bd 7a 1b 53 3d 5e 12 20 bc f9 62 94 3d
       -0.052061476 0.051539876 -0.009770004 0.0724544
000260 46 5a 8d bd db 9d 8f 3d ae d7 ab 3d 83 45 ae 3c
       -0.06901984 0.070125304 0.08390747 0.02127338
000270 84 1f c8 bd d7 a1 b5 3d a2 a0 d5 3c 2c cb 6c 3d
       -0.09771636 0.08868759 0.026077572 0.057810947
000280 f8 18 1c 3d ae fb 37 bd c3 2e 31 3e 27 34 2b bc
       0.03810975 -0.044917755 0.17302994 -0.010449446
000290 f0 79 29 bd cc 1c a0 bd 50 93 61 3c 80 2f f0 3d
       -0.041376054 -0.078179926 0.013768032 0.1172781
0002a0 31 2b 07 3d 05 f6 16 3e a8 7c a9 bd 01 e5 ea 3d
       0.033000175 0.14742287 -0.082757294 0.1146946
0002b0 c6 2a 09 3e 74 ed 10 be 15 f5 ef 3d 17 4b a1 3d
       0.13395223 -0.14153081 0.117166676 0.078756504
0002c0 54 49 cf bd 5a 1f 13 bd d8 fe 93 bd d3 59 7b 3d
       -0.10121408 -0.03591857 -0.07226342 0.06136496
0002d0 b5 b4 00 3e 5d e9 12 3c e8 60 dd bd b3 ef bd bd
       0.12568934 0.008966771 -0.10809499 -0.092742346
0002e0 f0 74 98 3d 35 ef 75 bd de 2b d9 bd 32 0f 59 bc
       0.07444179 -0.06004258 -0.1060407 -0.013248252
0002f0 cb ba 9d bd 90 b3 36 3d bc 92 de bd 7e 50 00 be
       -0.077016436 0.044604838 -0.10867831 -0.12530705
000300 3e 48 8b 3d f4 9a 08 3e eb e4 af 3d 59 f8 96 bd
       0.068008885 0.1334036 0.085885845 -0.07371587
000310 db a0 3c 3d 3e a2 74 3d f6 39 04 bd a7 82 d1 bd
       0.04605184 0.05972504 -0.03228184 -0.10229998
000320 18 3e f1 bd 00 a3 c5 3d fa 8a c0 bd d1 0f 90 bd
       -0.117794216 0.096502304 -0.09401508 -0.07034267
000330 9b 60 94 3d 54 cf 82 bd dc f7 3d bc 6f 19 03 bd
       0.072449885 -0.06387201 -0.011594739 -0.032006677
000340 e7 2e f4 3d 96 c8 d9 3d 92 bf 8a 3d 73 b4 eb bd
       0.119230084 0.10633962 0.067748204 -0.11509027
000350 4a e5 6e 3d c0 ae 75 bd 3c 10 05 b9 c1 f0 f3 bc
       0.058324136 -0.059981108 -0.00012689916 -0.029777886
000360 af 90 30 3d f3 10 03 3e 11 7f 73 bd e2 0e 8b bd
       0.04310673 0.12799434 -0.05944735 -0.06789948
000370 92 42 87 3d fa fb 87 3d 66 9a de 3d f9 55 83 3c
       0.06604494 0.066398576 0.10869293 0.016032206
000380 35 a1 9b bd 0c 60 ae bb 4e 17 0c 3e d5 cf f5 3c
       -0.07599107 -0.0053215083 0.13680765 0.030006329
000390 a9 17 b1 3a 14 94 f7 3c cf 4b ff bd 72 83 67 3d
       0.001351108 0.030221976 -0.12465631 0.05652184
0003a0 79 03 cc 3d b2 c1 82 bd 8c 82 06 bc 9c 58 32 3e
       0.099616 -0.06384601 -0.008209836 0.17416614
0003b0 a1 36 aa 3b e9 26 97 3d 4e a7 85 3c 43 0f 1d 3e
       0.0051945006 0.073804684 0.016315129 0.15337853
0003c0 5a 1b 6b 3d a9 97 bc 3d f8 bf 8d 3d 23 80 27 be
       0.05739913 0.092086144 0.06921381 -0.16357474
0003d0 83 8e d1 3d 91 eb 99 3d 5a ab 89 bd a2 50 8e 3d
       0.1023226 0.07515634 -0.06722136 0.06948973
0003e0 a5 fc 25 3c 9f 3d e6 bd da 0b ab bd 16 b7 90 bd
       0.010131036 -0.11242222 -0.0835187 -0.07066171
0003f0 6e 39 2e bc b9 a7 9b 3d d7 89 33 3d c9 26 e4 bb
       -0.0106338095 0.0760035 0.043832626 -0.0069626314

lstm.bias_ih_l0 f4 [256]
000000 69 d4 ca 3d e6 d8 93 3d b2 65 2f 3e a0 69 9a 3c
       0.09903795 0.072191045 0.17128637 0.018849194
000010 4e a6 63 bd ca 1a 34 3e 47 1c f1 3c 36 b5 df ba
       -0.055578522 0.17588344 0.029432429 -0.0017067555
000020 05 1a fe 3c ed 9d 4b 3d 8d 98 ae 3d f9 b7 88 bd
       0.031018266 0.049711157 0.085251905 -0.06675715
000030 61 91 f7 3d 22 12 f3 3d 36 a4 0a bd b1 96 3a 3c
       0.12088276 0.11868693 -0.03384801 0.011388467
000040 16 e9 38 bc 3f 8e 00 3e 01 b4 0c 3d d8 c6 00 3d
       -0.011286041 0.12554263 0.034351353 0.031439632
000050 84 0e b7 3d 13 e9 1e 3e 9a 02 ef 3c 20 9e 28 3e
       0.089383155 0.15518598 0.029176045 0.1646657
000060 2a 93 6d 3c e8 a3 8b bc 3e e9 4d 3d 4a dc 03 3e
       0.014500419 -0.01704593 0.050271265 0.12877002
000070 28 22 3e 3d df eb f8 3d 92 2e 87 3d a2 9e 08 3d
       0.046419293 0.12154364 0.066006795 0.03335441
000080 2b ff d7 3d 25 ad 20 3e 47 79 1d 3e bc 2c ac 3d
       0.10546716 0.1569105 0.15378295 0.0840697
000090 46 07 92 3c 2a 78 cf bb a1 c8 80 bd 41 95 ab 3d
       0.017825734 -0.0063314633 -0.06288267 0.08378077
0000a0 a5 2b 4f 3d 92 e9 bd 3d 4c 3b 33 3e 17 26 99 bd
       0.050578732 0.092730656 0.17503089 -0.07477968
0000b0 fd 73 b5 3d 54 9e ee 3d b8 b3 cb 3d 8c 35 57 3d
       0.08860014 0.116512924 0.09946388 0.0525413
0000c0 4e eb ef 3d 2d fa c6 bc df e4 28 3c 95 69 31 bd
       0.11714803 -0.024289215 0.010308473 -0.04331358
0000d0 ba 46 01 3e 6b 1d bc bc 78 6c ac 3d 00 fe 0f 3e
       0.12624636 -0.022963246 0.08419126 0.14061737
0000e0 22 d8 41 bd 66 1a 1c 3e 95 0a 79 3c aa 14 61 3d
       -0.04732526 0.15244445 0.015200277 0.054951347
0000f0 48 19 20 3e 93 6b d5 bb a2 84 12 bd f1 b1 ec 3d
       0.15634644 -0.006513068 -0.03577102 0.11557377
000100 22 8f 4e bd ae 7b e7 bd 69 66 44 3d 46 2e d5 bb
       -0.05042947 -0.11302887 0.04794923 -0.0065057604
000110 74 d7 2d 3e 57 26 e6 3d bf 54 e0 3d f2 1e a6 3c
       0.1697672 0.112377815 0.10953664 0.020278428
000120 0f 47 85 3d c4 18 98 bd f3 01 00 3e 55 40 43 bd
       0.06507694 -0.07426599 0.12500744 -0.047668774
000130 b9 c1 4b bd 2e 25 2d 3e af c3 a8 bc 5e a0 0d 3e
       -0.049745295 0.16908714 -0.020601122 0.13830706
000140 76 03 e4 3b 5d 50 19 3e 2c 1a 48 bd ba a9 47 bd
       0.0069584204 0.14972062 -0.048853084 -0.04874585
000150 ed c5 5b 3d 18 42 f5 3d 6e 07 e4 bd 97 d9 77 bd
       0.053655554 0.11975497 -0.111342296 -0.060510244
000160 bc 1c 27 3d 86 ef c3 bc 7d a3 3e 3d e8 ec be bd
       0.040798888 -0.023917925 0.046542633 -0.0932253
000170 3d f0 1b bd 41 d4 01 3e e6 8b 2c bd b7 ed 82 3d
       -0.038070906 0.12678625 -0.042125605 0.06392997
000180 4f 07 13 3e 1a 0e 58 3d c1 76 9b 3b b6 27 e7 bc
       0.14358257 0.052747823 0.004744381 -0.028217178
000190 e2 80 49 bc 8a cb 97 3d e6 11 ea bd 5c 41 14 3b
       -0.012298794 0.07411869 -0.11429195 0.0022621965
0001a0 33 f3 cf 3d c6 0c cb 3d 41 c3 a0 3b d7 fa 7d bc
       0.101538084 0.09914546 0.0049060886 -0.015501699
0001b0 33 4b 5e 3c d8 d1 c3 3c 9c 58 e6 bc 35 0d 81 3c
       0.013567734 0.023903772 -0.028118424 0.015753368
0001c0 75 a6 14 3e 31 ba d5 3d 91 a4 03 3d 64 44 5e 3d
       0.14516623 0.10435904 0.032139365 0.05426444
0001d0 34 b4 0d 3c 0c 37 a0 bd aa b2 36 3d e4 35 51 3d
       0.008648921 -0.07822999 0.04460398 0.051076785
0001e0 b3 f7 27 bd 6f 70 9e bd b0 e7 7c bd 2c 03 ef 3d
       -0.04100771 -0.07736289 -0.061744392 0.11670527
0001f0 f5 4e 30 bd 4b 52 fa bc 3b 68 89 bd 16 50 26 3e
       -0.04304405 -0.030556818 -0.067093335 0.16241488
000200 da 1b 82 3a 7b 98 68 3d 54 b2 23 3e fb f3 a1 3b
       0.0009926513 0.05678604 0.15985996 0.004942415
000210 00 53 47 be 1d 0b 49 3e d5 c3 98 3d 09 ff 83 bd
       -0.19465256 0.19633146 0.07459227 -0.064451285
000220 19 84 78 3d f6 90 19 bc 4c ea ed bd 8a fa ae bd
       0.060672853 -0.00937294 -0.11616954 -0.0854388
000230 6e 94 2e bd d0 e5 87 bd 69 ed 4c 3e bc 78 53 3d
       -0.042622022 -0.0663563 0.2001244 0.051628813
000240 67 7b f1 3c b9 5d 57 bc 82 4f 8d bd a4 ab 32 bc
       0.029477788 -0.013144904 -0.068999305 -0.01090518
000250 e1 44 17 be 06 29 91 bc e3 2d 2d 3e 13 36 e8 3d
       -0.14772369 -0.017719757 0.16912036 0.11338439
000260 f4 bd c8 bc e8 a3 e7 3d d5 29 0f 3e fb 89 20 bd
       -0.02450464 0.113105595 0.13980801 -0.03919409
000270 4b 56 ed bd bc 0e 12 3c 4f 4c d1 3c 14 4a 3a bc
       -0.11588725 0.008914646 0.025549082 -0.011370201
000280 92 e1 05 be 3c fe 48 3e 98 f9 8a 3d 49 1f 00 3e
       -0.1307433 0.19628233 0.067858875 0.12511934
000290 a9 78 ca 3c be df 05 bd c4 6a a4 3d 66 fe 78 bd
       0.024715738 -0.03268408 0.080281764 -0.06078949
0002a0 d5 02 da 3a 01 68 14 3d 36 23 d0 bc 69 3c 35 3e
       0.0016632924 0.036232 -0.025407415 0.17698826
0002b0 aa 12 34 bd 5f 58 89 bd 12 1d d5 3c a8 b5 18 be
       -0.043963112 -0.067063086 0.026014838 -0.14913046
0002c0 b8 7e 05 bd a7 7d ff 3d b5 5c c1 bd d1 03 74 bd
       -0.03259155 0.12475138 -0.094415106 -0.059573952
0002d0 f4 ac 1a 3e de 88 2a 3e 57 12 17 be 06 16 5a bd
       0.15105039 0.16653773 -0.1475309 -0.05324366
0002e0 80 65 fc bd 3b c2 3e be 03 c7 89 3c b2 4c 1d 3e
       -0.12324047 -0.1862878 0.016818529 0.15361288
0002f0 7b 54 eb 3d 0d d1 aa bd 6c 51 07 be 73 88 c5 bd
       0.11490723 -0.083406545 -0.13214654 -0.09645166
000300 75 6c 05 bb 60 ed b8 bd 47 93 18 bd da 58 9d bd
       -0.0020358835 -0.09029651 -0.03724983 -0.07682963
000310 94 4a 3d 3e eb 35 fc bc 40 e5 80 3d 1b 8c e6 3d
       0.1848548 -0.030787429 0.06293726 0.11257192
000320 0f 50 ef 3d 45 e9 96 3d df cd 51 3e 19 4f 17 3e
       0.11685192 0.073687114 0.2048869 0.14776267
000330 b8 f8 4a 3c 77 0a 2b 3e 44 5d 3f 3d 0a 41 12 3e
       0.012388401 0.16703211 0.046719804 0.14282623
000340 6b 44 2a 3d a9 18 42 3d d7 7e b1 3d 6d dc b2 bb
       0.041569155 0.0473868 0.08666771 -0.0054584057
000350 7d 4e 25 bc 86 68 c1 3c eb 45 77 3d 3a 4a f3 3c
       -0.010089514 0.023609411 0.060369413 0.02969848
000360 31 a8 32 3d 73 ca 00 3e d2 fd 72 bd 0c 08 1b 3e
       0.04361743 0.12577228 -0.059324093 0.15139788
000370 70 de 05 3e e2 7b 4c 3e 41 0c 53 3d 59 27 69 bd
       0.13073134 0.19969133 0.051525358 -0.05692229
000380 79 d4 ee 3d 2e 4f 3e 3c fd 74 f9 3d 66 74 83 3c
       0.1166162 0.011615558 0.12180517 0.016046714
000390 42 41 e6 3d 31 c4 60 3c 72 18 d5 3d 35 80 0b 3e
       0.11242916 0.013718651 0.10405053 0.13623126
0003a0 9b c2 af 3d a0 70 55 3d 54 f7 d4 3d dd a6 26 3e
       0.0858204 0.05210936 0.103987366 0.16274591
0003b0 55 dc 4f bd 50 a5 72 bd ca 8a ce 3d 8a 8f 36 3e
       -0.050747234 -0.059239686 0.10085066 0.17828193
0003c0 a3 55 43 3d d2 2f d9 3c f3 8c 95 3d 11 4c 32 3e
       0.04768909 0.02651206 0.073022746 0.1741183
0003d0 55 89 b1 3d d9 25 b4 3b be 2d 8b 3c ba cc e0 3b
       0.08668772 0.005497676 0.016989585 0.006860343
0003e0 3f fc 2f 3e 6c d5 33 3e e2 2f 63 3d 9c 40 e8 bc
       0.17186068 0.17561883 0.055465586 -0.02835112
0003f0 53 e4 0a bd 5b be 1c 3e a5 6d ab 3d 6e 57 e8 3d
       -0.033909153 0.1530699 0.083705224 0.11344801

lstm.bias_hh_l0 f4 [256]
000000 6c ca 3a bd f1 8d e4 bc 73 cf 23 3e 0e fc 42 3c
       -0.0456032 -0.027899714 0.15997104 0.011900915
000010 f1 64 5a bd 04 be a5 3d 8a 5e 0b 3d f3 4a d8 3d
       -0.05331892 0.08092883 0.034025706 0.105611704
000020 f0 78 6c bd fe e6 84 3d c9 a6 87 3d 71 8b 32 3e
       -0.057732522 0.06489371 0.066236086 0.17436005
000030 61 9a 06 3e f4 a9 e3 3d 35 0a df bc 6f 33 0a bd
       0.13144828 0.111164 -0.027226547 -0.033740457
000040 c3 f6 d9 3d 1d d5 ae bd c7 75 6d bc 29 5c ed 3c
       0.10642769 -0.08536742 -0.014493412 0.02897461
000050 80 70 85 bd 07 1f 0f 3e b1 ac 9c 3d c9 67 5c 3d
       -0.06515598 0.1397668 0.07650126 0.053809915
000060 7f b0 86 bc 01 82 d7 3d f0 5d d8 3d 80 f0 47 3d
       -0.016441582 0.10522843 0.10564792 0.048813343
000070 d1 6a 49 3d c1 f0 32 3e 1c 38 8e bc dd fe e8 bd
       0.049174134 0.17474653 -0.01736074 -0.11376736
000080 8f 4a 11 3e e3 00 c8 3c 1d 48 74 3e 6c b4 67 3d
       0.14188598 0.024414485 0.23855634 0.056568548
000090 4b 07 5d bd c3 ae b0 bc c1 23 ab 3c 5a 7c 0e 3b
       -0.053962033 -0.021567708 0.020891072 0.00217416
0000a0 07 63 4e 3d 75 35 7b 3c 95 73 a8 3d b5 6f 6b bd
       0.05038741 0.015332569 0.082251705 -0.05747958
0000b0 51 dc 07 3e 13 92 e1 3d 9f 55 3a bd 7c 8a 9d bc
       0.13267638 0.110141896 -0.04549181 -0.019231074
0000c0 5c 43 be 3d a4 5a 1a bd 00 20 2d 3e c0 33 59 3d
       0.092901915 -0.037684098 0.16906738 0.05302787
0000d0 d8 2d 85 3d 54 4d 63 3d d3 ba 02 3d 29 27 9c 3d
       0.065028846 0.055493668 0.03191645 0.07624657
0000e0 26 db 85 bd df ff be 3d f5 11 62 3c ca 2a 8d 3d
       -0.0653594 0.09326147 0.013798227 0.06892927
0000f0 76 17 4c bd 8b 29 23 3e 65 be 9c 3b 03 1f c0 3d
       -0.04982706 0.15933816 0.004783439 0.09380915
000100 9f e1 1f 3c 8a 6e d0 3d e2 fa a3 3d 45 ac 8e bd
       0.009758382 0.10177334 0.080068365 -0.069664516
000110 d1 4e 01 3d 0d 84 92 bd fc 0b 33 3b 76 9e af 3d
       0.031569306 -0.07154093 0.0027320376 0.08575146
000120 87 6a 5c 3d 6d 65 3a bd 28 77 fc 3d ee bf 9c bc
       0.05381253 -0.045506883 0.12327415 -0.019134488
000130 9b 50 14 bd 83 20 8c 3c de c4 41 bd c9 89 7a bc
       -0.036209684 0.017105347 -0.047306888 -0.01529164
000140 21 16 3e bd f5 f0 01 3d 39 fb cb 3d 7d 88 be 3b
       -0.046407823 0.031723935 0.09960026 0.0058146105
000150 ad 3c 1a 3e 84 f6 b7 bc 9a d1 59 bd 70 5a 81 bc
       0.15062208 -0.022456415 -0.053178407 -0.015790194
000160 0d 30 a6 bd b5 a4 d4 3c 02 62 51 3d 3e 43 7f bd
       -0.08114634 0.025957445 0.05111886 -0.062319987
000170 60 38 74 bd 50 05 73 bd 7a 66 9d 3b ee b5 58 bd
       -0.059624076 -0.05933124 0.004803476 -0.052907877
000180 3e 08 39 bd 40 9f 37 3c 6d 94 09 3e 7f 78 65 3c
       -0.045173876 0.011207402 0.13435526 0.014005779
000190 61 13 8d 3d be 8d 13 3e 5a 0e bd 3c 75 2e 46 bd
       0.06888462 0.14409539 0.023078132 -0.04838415
0001a0 9c 14 1f bd f6 d6 52 bd e3 83 1d 3e 30 b1 a2 bd
       -0.038838014 -0.051474534 0.15382342 -0.07943952
0001b0 93 8d 55 bc 7f 8c 6a ba 8b 1f d8 3d 74 0f 75 3d
       -0.013034242 -0.0008947327 0.10552891 0.05982919
0001c0 ba b0 aa bc 9e ca 6c b7 7a b9 7d bc 20 a3 f7 3d
       -0.020836223 -1.4113872e-05 -0.015486116 0.120916605
0001d0 31 6d ec 3d e3 8c ee 3c 18 48 0d 3e 32 f2 59 3d
       0.11544264 0.029119914 0.13797033 0.05320949
0001e0 ed 68 03 3e ef 1d ea 3d 01 29 a1 3c 69 26 86 bc
       0.12832995 0.11431491 0.019672872 -0.016375737
0001f0 e9 31 6e 3d 85 7e 85 bd 28 f5 6b 3d 2e fa 09 3e
       0.058153067 -0.06518272 0.057606846 0.13474342
000200 60 c7 dd bc a2 c9 5b 3d 1d f9 4d bc af eb b1 bd
       -0.027072608 0.05365909 -0.0125716 -0.08687531
000210 4f 43 41 be 64 d5 30 3d 70 0b 06 be 60 0c cd 3d
       -0.18873332 0.043172255 -0.130903 0.10012126
000220 ae 32 dc 3d 01 62 52 3d c7 65 5d be 81 51 d0 3d
       0.10751854 0.051362995 -0.21620856 0.10171796
000230 4a 53 15 3e 8b 23 ee bd e3 9c 01 bc ee 96 83 bd
       0.14582554 -0.11627873 -0.00791094 -0.06425272
000240 c0 d2 16 3e 16 4c cb 3d 66 68 c8 bd 7c 34 35 be
       0.14728832 0.099266216 -0.097855374 -0.17695802
000250 00 5e 49 be 14 40 cf 3d 37 40 36 3e be 8f 7f 3d
       -0.19664764 0.10119644 0.17797934 0.062392943
000260 5f 0c 0c be c5 1a c2 bc cd 94 36 3e 75 cd 06 3d
       -0.13676594 -0.023694405 0.178302 0.032910783
000270 34 50 4b bd 7c 7f 87 3c e1 fc 22 bd 56 49 33 3d
       -0.049637035 0.016540281 -0.039791945 0.04377111
000280 e1 37 f6 bd 85 b6 24 3e f6 7b 24 bd 8e ed bf 3d
       -0.12022377 0.1608525 -0.04015728 0.09371482
000290 c4 cb 74 3c 42 42 5d 3c 2b 95 94 bd b0 45 00 3e
       0.01494116 0.013504567 -0.07255014 0.12526584
0002a0 b8 56 41 3d 3e cd 5a 3e f2 40 09 3e 6a 4d bb 3d
       0.047201842 0.21367356 0.13403681 0.09145625
0002b0 22 7f 34 3e e5 57 f5 bd 19 75 2f be b1 a1 31 3c
       0.17626622 -0.11979655 -0.17134513 0.010841773
0002c0 24 d3 2b be b1 6a 9d bd 25 d0 d2 bd 65 a5 08 3b
       -0.16779763 -0.076863654 -0.10293607 0.0020850536
0002d0 6d 8e fb 3d 7e ac dc 3d 4e 17 22 be ae ce d1 bb
       0.12283025 0.10775088 -0.15829203 -0.006402812
0002e0 fa 0d 91 3d c6 df 90 3c 67 d2 87 3d 14 fb 6d 3d
       0.07082744 0.017684828 0.06631928 0.058100775
0002f0 9a 04 20 3e 05 d0 47 be 40 74 0b be a0 5f 10 be
       0.15626755 -0.19512947 -0.13618565 -0.14098978
000300 67 52 32 3e 74 b4 00 3e 0b bb 1e 3e f9 ff 4d bd
       0.17414246 0.12568837 0.15501039 -0.050292943
000310 1b 1b 22 bc 86 62 04 3c ce c3 1e bd 38 72 6b 3e
       -0.009894158 0.00808013 -0.038760953 0.2299279
000320 16 be bd 3d 20 55 23 3e 1b 40 11 3e 23 0d b3 bd
       0.09264772 0.15950441 0.1418461 -0.0874274
000330 a7 a5 7e 3d fe 9d 07 bd b2 02 13 3e 15 ea 28 bd
       0.062169697 -0.033109657 0.14356497 -0.041238863
000340 39 48 e9 3d 56 28 88 bd 0e 56 77 3d cf 0d f6 bc
       0.113907285 -0.066483185 0.060384803 -0.030035881
000350 55 f7 93 3d b4 72 95 3d 20 7c fa 3d a5 d8 c2 3d
       0.07224909 0.072972685 0.12230706 0.09513978
000360 5e bd a1 3d c3 aa 12 3e 60 88 7c 3d 7b 22 c6 3d
       0.07897447 0.14322953 0.061653495 0.096745454
000370 e0 ff 86 bc 0b e2 31 bd 99 78 50 3d 15 64 f5 3b
       -0.016479433 -0.043428462 0.05089626 0.0074887373
000380 e3 27 4e 3c 45 e6 94 3d a0 f9 82 3e 19 6f 92 3c
       0.012582752 0.07270483 0.25581074 0.017875241
000390 bc b3 48 3d c1 bb 37 3e c6 18 ce bd 85 84 70 bb
       0.048999533 0.17942716 -0.10063319 -0.0036700082
0003a0 c5 a0 84 bd 01 83 29 3c 9e d5 ea 3d 6f ae 84 3d
       -0.06475977 0.010346175 0.114665255 0.06478583
0003b0 09 59 b0 3d e9 a6 b0 3d 6f 3e 11 bd ca b6 4b 3e
       0.08610732 0.086255856 -0.035459932 0.19893947
0003c0 36 7c 0f 3d 6e ab 6a bd bd 63 16 3e 60 0d 2e 3e
       0.035030566 -0.057292394 0.14686485 0.1699729
0003d0 f4 bb 52 3e 22 38 8a 3c 59 7e 05 3e 0e 0f 6e bd
       0.20579511 0.01687247 0.13036479 -0.058119826
0003e0 b2 dc 2a 3d 87 c4 09 3e 3e 2b b1 3b b8 7b 03 bb
       0.041714378 0.13453875 0.005406766 -0.0020062756
0003f0 98 25 3c 3e 5f 6f e3 bb 14 fe c7 bd ce f8 ff 3d
       0.18373716 -0.0069407667 -0.097652584 0.124986276

fc1.weight f4 [32, 64]
000000 bb 9d ab bc ef 4a c2 3d be 64 6d bc c1 6e 21 be
       -0.020949235 0.09486949 -0.014489351 -0.15764906
000010 92 40 09 be 02 24 50 3c 56 fa 57 bd 5c f5 e1 bd
       -0.13403538 0.012703897 -0.052728973 -0.11033127
000020 d1 50 88 3d 0a 88 ef bc c1 98 39 bd 68 75 7a bd
       0.066560395 -0.029239673 -0.045311693 -0.061147124
000030 16 3d 8e 3d d9 3c 4f bd 0c 3d 82 3c 9d 91 1a 3e
       0.06945245 -0.05059514 0.01589825 0.1509461
000040 f7 60 e5 3c 7b 74 db 3d 30 2a 2c be 36 f0 0c be
       0.028000338 0.10715576 -0.16812968 -0.13763508
000050 2a 87 be bc e5 f2 fb bd a9 98 ec 3b e8 94 c1 bd
       -0.02325781 -0.12302188 0.007220347 -0.0945223
000060 84 8f 53 be 91 c2 9f 3d 01 a9 17 bc 50 0b 8e 3d
       -0.20660216 0.078007825 -0.009256602 0.069357514
000070 ef 63 69 bd cc 29 8e 3d 9c 5e 0d 3d fd 11 01 be
       -0.05698007 0.06941566 0.034514055 -0.12604518
000080 b0 58 36 be ee 1f 44 3e 3c a0 d3 3d 53 db f6 3c
       -0.17807269 0.19152805 0.10333297 0.030133879
000090 ee 4f fe 3d 6e da a9 bd f3 e8 29 be b0 56 9d bd
       0.12417589 -0.08293615 -0.1659277 -0.0768255
0000a0 37 4a bb 3d a5 50 4d 3e a6 d8 69 bb 77 04 88 3d
       0.09145015 0.20050295 -0.003568211 0.066414766
0000b0 26 4a dd 3d ad 79 96 3d dd 3e 66 bd 6f a1 5d be
       0.10805158 0.073474266 -0.056212295 -0.21643613
0000c0 39 1d bb bd 53 c5 73 bc f2 3d 5f bc 48 b3 13 be
       -0.09136433 -0.014878589 -0.013625609 -0.14423859
0000d0 37 6e 6f 3e 9b 6b 27 3e 33 83 15 be 19 ec d5 bd
       0.23381887 0.16349642 -0.1460083 -0.10445423
0000e0 dd 62 08 bd bc 8f 32 be 26 4b 0a 3e 2d dc 22 bc
       -0.03329741 -0.17437643 0.1350523 -0.009940189
0000f0 3e 70 1d 3d 1e 74 21 be 4a dc 0b 3a 94 c1 dd bc
       0.03843712 -0.15766951 0.0005335255 -0.027069844
000100 ed a4 b1 bd e8 ec 03 be 64 70 88 3d 0a 43 e1 bd
       -0.08674035 -0.12883341 0.06662062 -0.10999115
000110 af cd 3b 3d 43 8d 8b 3b 6d 6e 8f bd 65 a2 91 3c
       0.045850452 0.004258783 -0.07003484 0.017777631
000120 6c cc 16 bd 67 39 be 3d 0f fb 17 3e 55 17 9c 3d
       -0.036816046 0.092882924 0.14841865 0.07621638
000130 a8 ab 9d 3d 44 14 f0 3d 41 ee 67 ba 3f 83 b9 bd
       0.076987565 0.11722615 -0.0008847453 -0.09058236
000140 90 c1 42 3d 0e 44 07 3d 09 1b a3 bd e7 70 9a bc
       0.047547877 0.033023886 -0.07964141 -0.018852664
000150 85 db ab 3d 64 b5 8f bd d3 c0 8c 3d 35 53 72 3d
       0.083914794 -0.070170194 0.06872716 0.059161384
000160 76 a8 31 bd 73 48 a3 3c ee 50 df 3d 0d 6f e1 bd
       -0.043373547 0.019932007 0.10904108 -0.110075094
000170 53 8b 9e 3d 4c 94 f3 bd 3a 6c 26 3d 9e df 5d 3d
       0.07741418 -0.1189352 0.040630557 0.054168336
000180 28 00 9a bd a1 91 3f bd 30 a4 ed 3b 5e 4d 55 3b
       -0.07519561 -0.046769742 0.0072522387 0.0032547335
000190 44 27 bf 3d 02 6b 80 3d 1f 34 05 3d 1e 14 76 bd
       0.09333661 0.0627041 0.03252041 -0.06007778
0001a0 bc d5 af bd 11 71 c1 bd a6 d9 b5 bb 14 31 9e bd
       -0.085856885 -0.09445394 -0.0055496274 -0.07724205
0001b0 1e 94 e0 39 b6 e9 dc 3d 06 40 cc 3c 29 41 89 bd
       0.00042834965 0.10786764 0.024932873 -0.067018814
0001c0 5f 49 ce bd 04 25 da 3d 7f 77 c8 bd 1c d8 e6 3d
       -0.10072588 0.106515914 -0.09788417 0.11271688
0001d0 15 6d 94 bc f3 a6 d4 3d db 54 38 bd 5f 89 b5 3d
       -0.01811842 0.103834055 -0.0450028 0.08864092
0001e0 1e 89 1d bd ce cd 03 3e 92 65 9d bd 04 22 82 bd
       -0.038460843 0.12871477 -0.076853886 -0.06354144
0001f0 f3 91 6f 3d 61 3a 04 be 28 8e 10 3e be 1b 8f bd
       0.058488797 -0.12912895 0.14116728 -0.06987713
000200 b7 10 04 be b3 d4 cc bd 62 9b 5a bd 1a db 02 3d
       -0.12897001 -0.10001507 -0.05337084 0.031947233
000210 21 e3 09 bd 5d 10 ad bd f7 82 b6 3d 4c e6 eb 3d
       -0.033663873 -0.08450387 0.08911698 0.11518535
000220 22 fd 14 bd 28 c4 63 bc d0 9d 63 3d 1e cf dd 3c
       -0.03637422 -0.013901748 0.055570424 0.0270763
000230 97 44 8f 3c f4 84 1d 3e a2 ce 48 bd 20 33 d5 bd
       0.01748876 0.15382749 -0.049025185 -0.10410142
000240 df bc 36 3d 8a b1 8d bd 8c 62 a2 bd 5d 01 63 3d
       0.044613715 -0.069186285 -0.079289526 0.055421222
000250 b8 11 8c bd 25 0a 52 bd 0f 97 a5 bd b6 b4 35 3d
       -0.06839317 -0.051279206 -0.08085453 0.044361793
000260 a1 13 5e bd 18 ab c4 bd 97 b5 53 3b 4a 73 9b 3d
       -0.05421794 -0.09602946 0.003230428 0.07590349
000270 47 93 af 3c f6 b8 34 3d 4b 38 87 3d d2 86 a3 bd
       0.021432532 0.044121705 0.06602534 -0.07984699
000280 34 42 b1 bd 8f 25 34 3d 01 f4 03 be 49 3d 82 3d
       -0.08655205 0.04398113 -0.12886049 0.063593455
000290 38 fd 01 bd c3 c3 92 3c 07 cc da bd 43 e8 73 bc
       -0.03173563 0.017915612 -0.106834464 -0.0148869185
0002a0 18 2a 33 bd c5 d2 97 3d fc 2f 88 bd b6 cc b9 bc
       -0.043741316 0.07413248 -0.06649777 -0.022680622
0002b0 bb c7 54 3d 39 10 02 bd 7b 77 f2 3d c5 c4 96 bd
       0.05194829 -0.031753752 0.11839195 -0.073617496
0002c0 92 e7 05 bd 96 ac ad bd 57 33 91 bc 60 fe 15 3e
       -0.032691546 -0.08480184 -0.017724676 0.14647818
0002d0 27 ff 88 bc 7b fe ae bd b0 ae a0 bb 05 0a 84 3d
       -0.016723229 -0.08544632 -0.004903637 0.064472236
0002e0 fd 6a b8 3d f5 fb 3b 3e c5 91 8a bd 36 e2 28 bd
       0.090047814 0.18357833 -0.067660846 -0.041231357
0002f0 e8 3f 70 3d b6 62 58 bd f8 62 2b bd 9a a8 cf 3d
       0.058654696 -0.052828513 -0.04184243 0.1013958
000300 2a 39 09 3e b3 94 65 ba 0d 34 01 3e 89 cc 11 bd
       0.13400713 -0.00087578146 0.12617512 -0.03559545
000310 2d cd 5a 3d 08 3b cf bc 75 6f 96 3d c5 86 46 bd
       0.053418327 -0.025296703 0.073454775 -0.04846837
000320 55 a1 0f be d9 b3 0b bd 83 74 3a 3b 03 2c 0d be
       -0.14026387 -0.034107063 0.0028450794 -0.1378632
000330 c8 24 a8 bc 7b aa 52 be ee 8a 82 3c 65 b2 02 3e
       -0.020525351 -0.20572846 0.015935387 0.12763365
000340 42 81 4e 3c 3c ca 12 3e 14 9e 63 bc 9b fe 5a bc
       0.01260406 0.14334959 -0.013892669 -0.013366367
000350 56 0b 2b be 79 8a 19 be 61 82 4e 3e 0f 25 1b 3d
       -0.16703543 -0.1499423 0.20166923 0.03787714
000360 2d bb ea bd 6f f0 d5 3d fe 47 19 3d f5 ee a2 bd
       -0.11461482 0.1044625 0.037422173 -0.07955734
000370 f3 21 4e bc 98 ea ec bc 91 3d ca 3d 20 af b8 bc
       -0.012581336 -0.028920457 0.09875024 -0.022544444
000380 4d 47 9c 3c c3 1e 36 3e c8 1a f0 3d b3 3d ac 3b
       0.019076968 0.17785172 0.11723858 0.0052563786
000390 bf 66 df bd e1 4b d8 bd d6 d0 91 bd 01 ec 13 3c
       -0.10908269 -0.10561348 -0.071199104 0.009028436
0003a0 5a 0f 44 bd cf f8 bd 3d 5f 86 90 3d 39 b0 5b 3d
       -0.047866203 0.09275972 0.07056879 0.053634856
0003b0 38 8f 23 3e cd 51 e1 bd 2d 3a d8 3d 6d 7a 43 be
       0.15972602 -0.110019304 0.10557971 -0.1908967
0003c0 72 07 ef bd d3 ec dc 3d 3f d1 00 3c 47 6e 15 bd
       -0.11671342 0.10787358 0.007862388 -0.03648212
0003d0 15 4d 4e bc 55 da 43 3e 1c a5 18 bc 67 1e 31 3d
       -0.01259162 0.19126256 -0.009316709 0.043241885
0003e0 e0 88 59 be 55 c3 02 be 92 d6 2e bd 8a 07 12 3d
       -0.2124362 -0.12769826 -0.0426851 0.03565172
0003f0 97 a4 95 3d ee d2 03 be 86 74 1f be 49 d7 3a be
       0.07306784 -0.12873432 -0.15571794 -0.18246187

fc1.bias f4 [32]
000000 ad 3c 6f bc 5b 47 9d bd ed 93 b0 3d d5 7b 36 3e
       -0.014601869 -0.076796256 0.086219646 0.17820676
000010 02 5e f8 bd e5 79 20 3e aa 77 3c 3e 57 92 c2 bd
       -0.121273056 0.15671499 0.18405023 -0.09500568
000020 3d 9d b3 3d 25 b3 2c 3e 03 8c 48 3b 8a 77 9c 3c
       0.08770225 0.16865213 0.0030601032 0.01909997
000030 0d 2f 3f 3d 12 d2 36 3d 1c ed 0c 3c 5c 55 24 3c
       0.04667573 0.044633932 0.008601453 0.010030117
000040 d7 09 6b 3d 79 8d 3f 3e f9 2f 27 bd 0f 75 28 3e
       0.05738243 0.18706311 -0.040817235 0.16450904
000050 4a 23 06 be ec 8d 36 3e e1 e2 fd 3d 7e 16 67 bd
       -0.13099399 0.17827576 0.12396789 -0.056417935
000060 cd b3 0a 3c 74 b4 24 3e 92 25 2d bd 8f c9 1f bd
       0.008465719 0.16084462 -0.042272158 -0.03901058
000070 70 65 8d 3d 53 2c 91 3d 80 2e c6 3d 7c 05 04 3e
       0.06904113 0.07088532 0.09676838 0.12892717

fc2.weight f4 [1, 32]
000000 bb 72 99 be 22 4d cb 3d 36 5a 19 3d b1 0a 1c be
       -0.29970345 0.09926821 0.037439547 -0.15238453
000010 ad 13 89 3d a5 35 7a be 62 04 a7 be 3b ae c7 3d
       0.06693206 -0.24434526 -0.3262053 0.09750029
000020 9c 08 1d be 44 c9 66 be 13 c6 2a be 31 b3 92 3e
       -0.15335315 -0.22537714 -0.16677122 0.28652337
000030 b1 47 e2 3d 07 52 37 3e 6a 60 05 be 65 70 7c be
       0.1104883 0.17902385 -0.1302506 -0.2465225
000040 f2 6a 3d 3e 7c ed 57 be 3a f7 97 3e 40 1b 52 be
       0.18497828 -0.21086687 0.29680806 -0.20518208
000050 3a 98 97 bd 66 38 18 be 60 b4 0b be 67 40 54 be
       -0.07402082 -0.14865264 -0.13643026 -0.20727693
000060 80 d4 12 be 56 42 75 be 04 9b 0a 3d 5b f0 6e 3e
       -0.14338875 -0.23951086 0.03383924 0.23333876
000070 2a 10 c1 3d db 20 2a be 58 66 5a be 94 6d 8c 3e
       0.09426911 -0.16614096 -0.21328104 0.2742735
