checkpoint_300.pth (torch, 450802 bytes, 8 tensors)

embedding.weight f4 [671, 100]
00000000: b1e9 d43e 882c 07bf f5a6 fb3d 5359 363f
00000010: e651 fdbe 9378 a33f 8a92 8cbe f6d2 293d
00000020: d8f6 3dbf 68f2 dc3d 51f9 9a3f d082 393e
00000030: 7801 41bf 4a9d 203f a0eb ebbf 04b7 58bd
00000040: 66c8 903f 3768 833f 4f36 7e3a b528 ca3f
00000050: 4d38 11c0 201f b7bf 8ee1 0abf 60e6 cfbe
00000060: b54f 5bbf 4a14 1340 f391 06bd 9db9 213f
00000070: 5add 1dbe 7656 52bf 0e26 643f 78e1 f7bf
00000080: cdb4 c23e 7985 97b9 7095 693d 08ff 8bbf
00000090: e7f3 14bf 91ca a2be 72df 613e 297d 843f
000000a0: f638 b8be 1470 a23f a052 31bf 120d eebe
000000b0: b7c5 2040 bce2 3f3f 6018 82be 6ac6 8cbf
000000c0: b1b5 0440 6513 233f 3cc8 9f3f d3d4 5ebf
000000d0: 7747 95be c91a 7f3e 481e 79be 827a 04bf
000000e0: e971 103e 9722 e03f 7c71 a7bf bf32 b03e
000000f0: ae13 cabe d4df 1abf cec3 523f 34ae 683f
00000100: 6ca7 70bf 3d46 68bd 1ba7 dc3e 8b16 a43e
00000110: 2f6a 14bf 2c6c d1bf 2688 16bf 049a c43f
00000120: 34a7 d4bf fc9f cabe d8f0 67bf fc57 a4be
00000130: d4fb 15bf ff42 15bf 6abe 9cbe 826f c7bd
00000140: 9328 663f c90e 4abf 64b3 113e d95d 65bd
00000150: d021 a43e 79f1 91bf c4cc 8c3f b05c e4bf
00000160: e283 863e 2ab8 643f de88 d13f c83c 123e
00000170: 0584 fd3e 1d5a 4e3f 2af0 4ebe 5e63 f43d
00000180: 3c4a 7a3f b922 d0be 1d30 80bf e7e9 28bf
00000190: 8692 383e 0cf8 3a3f ac69 a9bf 4bcf 8cbd
000001a0: 096a ca3e 419f bcbe aed2 cf3c acb8 253f
000001b0: f0a9 373e 8f09 f6bf bdf9 85be 40bd 3b3f
000001c0: 9241 d6be 61db b53f fc35 093f 7700 fdbe
000001d0: 3fe5 1ebf 735d 0cc0 2647 b23e 1761 a13f
000001e0: 785f c23e c7d1 443d a6ce ce3d 4db4 b7be
000001f0: a5c6 95be 0c9e 423f 1d98 1fc0 2361 dabf
00000200: 123a 10bf 5b88 d4bf 779c dabf 8216 ca3d
00000210: a0c6 81bf b4fb 29be 85cc 4bbf 33b0 a9be
00000220: 8f81 16bf 9c1f c6bd 7f8d a1bf 29e2 ee3f
00000230: ec64 8bbf 48c6 c0bf 765e 58bd b48a 50bf
00000240: 62ad 13bf 0249 82bf 4079 e8bf 755c 1ebf
00000250: 4217 ea3e d1a3 55bf d551 403e 8dba 64bf
00000260: b7b5 96be fcf9 38bf 5e9f 6ebf e3b4 da3f
00000270: 703f b7bd 84d0 3abf 3dfe 8ebf f580 0bbf
00000280: 2d62 263e beec 883e 6e49 143e 635a 163f
00000290: 85bf 1cbf 71cc f8bd b3a1 cc3f 7fba 103f
000002a0: 50cb 7b3e 775d 21bf 0bb4 dc3e 957b e4be
000002b0: c651 dcbf d5f9 f63e 49a9 4a3f 8e6f 933f
000002c0: 359b 613f 6d38 1b40 e71a 3b3e 93c9 aabe
000002d0: 8899 993f d8ec 123f f7bf 98bf 14d2 d2bf
000002e0: 7396 dc3f ffa2 e3be ac0f 4c3f 56c7 ae3f
000002f0: 848e aebf f067 cabf 5afc 9ebe 4032 fc3e
00000300: 4300 65bf 3847 bc3f 066f 83bf 2ae6 ab3e
00000310: 143e 7ebe 9f3b ee3e 9f13 87bf 9528 2c3f
00000320: c29d 01be cce7 223f fd0e e43c 5eef a13e
00000330: 20c4 053f 8bea eebf 2f81 0540 fc25 0ebf
00000340: 0bd1 b8bf be0e 5abf fcad 93bf e838 0540
00000350: 031d 96bf c8df 51bf d9d3 3a3f a27b 52bd
00000360: 571a 923e 552b 593e 365d ad3f 2d5a a03e
00000370: 5ce1 863f 1f09 37bf 6804 6bbf 2353 c93d
00000380: 91bd a13f 1305 ef3e 57b7 523f 5e06 bd3e
00000390: 4ae0 2bc0 5965 ce3f eb14 323f 26a3 a8be
000003a0: 7e90 353f 2424 733e f31b 2a3e e95e a53e
000003b0: 0c0c 6fbe 36c3 86bf 907a 443e 0fc7 9abe
000003c0: 0dbd 223f b1af 3ebf a87d 183f 4bb1 be3e
000003d0: 8109 0fc0 398f 2dbf f7d0 bfbf 93fc c0bf
000003e0: 6c06 123f e534 0ec0 0844 c43f c7df 6fbd
000003f0: 7db7 a13e 46e4 95bf d04c f1bf 73c9 5fbd
0.41584542 -0.52802324 0.12287704 0.7123005 -0.49476546 1.2771171 -0.2745555 0.041460954
-0.7420478 0.10788423 1.2107335 0.18116307 -0.75392866 0.62740004 -1.8431282 -0.052908912
1.1311157 1.0266179 0.00096974237 1.5793673 -2.2690613 -1.4306374 -0.5425042 -0.4060545
-0.856685 2.2981133 -0.03285403 0.6317385 -0.1541647 -0.8216318 0.89120567 -1.9365683
0.38028565 -0.0002890041 0.05702728 -1.0937204 -0.58184665 -0.3179517 0.22057894 1.0350696
-0.35980958 1.2690454 -0.692667 -0.46494347 2.5120676 0.74955344 -0.25409222 -1.0998051
2.0735896 0.6370147 1.2482982 -0.87043494 -0.29156086 0.24912561 -0.24327958 -0.5174943
0.14105953 1.7510556 -1.3081508 0.34413716 -0.3946814 -0.60497785 0.82330024 0.9089081
-0.94005466 -0.05670761 0.4309624 0.3204845 -0.57974523 -1.6361136 -0.58801496 1.5359502
-1.6613526 -0.39575183 -0.90601873 -0.32098377 -0.58587384 -0.5830535 -0.30614024 -0.09738065
0.8990566 -0.7892881 0.14228588 -0.055997703 0.32057047 -1.1401817 1.099999 -1.7840786
0.26272494 0.8934351 1.6369894 0.14280999 0.49514785 0.8060625 -0.20208803 0.11933015
0.9776952 -0.4065149 -1.0014683 -0.65981907 0.18024644 0.7303474 -1.3235373 -0.068754755
0.39534023 -0.3684025 0.025369015 0.6473491 0.1793592 -1.9221667 -0.26167098 0.7333565
-0.418469 1.4207574 0.53598 -0.49414417 -0.6206855 -2.1932037 0.34819907 1.2607754
0.37963462 0.04805162 0.10098009 -0.35879746 -0.29253116 0.7602241 -2.4936593 -1.7060894
-0.5633861 -1.6604112 -1.7078999 0.09867574 -1.013874 -0.16599923 -0.7960895 -0.33142242
-0.5879144 -0.09673998 -1.2621306 1.8662769 -1.0890174 -1.5060511 -0.05282446 -0.81461644
-0.57686436 -1.017853 -1.8162003 -0.6185983 0.4572087 -0.8345309 0.18781216 -0.89347154
-0.29435512 -0.72256446 -0.93211925 1.7086452 -0.089476466 -0.7297442 -1.1171337 -0.5449365
0.16248389 0.2674312 0.14481136 0.5873167 -0.61229736 -0.12148369 1.5986847 0.5653457
0.24589276 -0.6303324 0.43106112 -0.44625536 -1.7212455 0.48237482 0.7916456 1.1518419
0.8812745 2.425319 0.18271981 -0.33356914 1.1999979 0.57392645 -1.1933583 -1.6470361
1.7233413 -0.44460294 0.79711413 1.3654583 -1.3637242 -1.5812969 -0.31051904 0.49257088
-0.89453524 1.4709234 -1.0268257 0.3357404 -0.24828368 0.46529862 -1.0552863 0.67249423
-0.12657836 0.63634944 0.027839178 0.31627935 0.5225239 -1.8665327 2.0860097 -0.5552671
-1.4438795 -0.85178745 -1.1537471 2.0815983 -1.1727604 -0.8198209 0.72979504 -0.051387437
0.2853572 0.21207936 1.3544071 0.313188 1.0537524 -0.7149829 -0.918036 0.0983031
1.2635976 0.4668356 0.82311004 0.3691892 -2.6855645 1.6124679 0.6956317 -0.32936972
0.709236 0.23744255 0.16612224 0.32298973 -0.2334444 -1.0528324 0.19187379 -0.30229995
0.6356972 -0.74486834 0.59566736 0.3724464 -2.234955 -0.67796665 -1.4985646 -1.507708
0.5704105 -2.2219784 1.5333261 -0.05856302 0.31585303 -1.1710289 -1.8851566 -0.054635476

lstm.weight_ih_l0 f4 [256, 100]
00000000: 98f3 ebbc 2182 1fbd 0054 e7bd 80ea bf3d
00000010: f794 5e3d bf32 243e 7b0a 15bd aaea 673b
00000020: ab2a a93d c52d acbd 613d 79bd b9e5 283d
00000030: 37a6 543d d77f eebd 1cfc 903c d191 a83d
00000040: 7bd8 8c3d 74da 10be 5f70 3f3d b133 9ebd
00000050: 5216 0fbe 1233 c6bd 51d1 bcbd 2546 6abd
00000060: ade9 9dbd aae1 eebd c1fc 983d b9fd 06be
00000070: 867b 943d 0321 7d3d b99d 643d 2ad9 babd
00000080: f0cc 14bd 28ab 913d ea65 05be d0d9 1fbd
00000090: 5345 a9bd 2a60 a7bd cb46 a8bd 4f04 a9bb
000000a0: dca4 4fbd 8472 19be 0a4b e3bd bb73 553d
000000b0: 3d5d 3f3d 9727 b83d 48ce 54bb 3bf5 8fbd
000000c0: a6ce a63d 6e4f 343a 404e 4a3d c4db 01be
000000d0: a25d f23d 9ef0 9a3d 90f0 98bc d935 af3d
000000e0: bca2 8bbd 1f47 fa3c c473 4d3d 3dcd bdbd
000000f0: ecf7 5cbd e02e f73d 955b 00bd 11c7 a2bc
00000100: 2f77 b43d 4632 1cbc 3c72 90bd 165d ffbd
00000110: fdbb 5bbd 9d2a 6bbd bf2e be3d c698 b9ba
00000120: 9768 9f3c a8e9 dbbd c7ab e33d 4fa2 bb3d
00000130: 9c18 8f3c d48b b03d f31a 513b 58ed b63d
00000140: e9df ec3d b04a fcbc a2fc 423d 7922 813d
00000150: d6a5 853d f9d9 c63d b9d9 553d aef5 92bd
00000160: bf15 01be af7e 08be a825 18bd 9145 f13d
00000170: fc3f 953d 5f0e 91bd a4a1 2fbd 8ffa 233d
00000180: 4e03 9b3d d5f8 d33c 0d22 a4bd 6376 db3d
00000190: c7fe 51bd eb50 a5bd 232e 4a3d 7ba3 efbd
000001a0: 97b3 ea3d 21b3 47bb 7590 bebc 15be 26be
000001b0: 04e5 8dbd 6bda 04be 47d8 693d 7b16 15ba
000001c0: b37d 6cbd 8596 983d 277f 373c e24a e9bb
000001d0: c4fa 1c3e 82fb c1bd d779 193d b41c 53bd
000001e0: 27d8 153d 5397 053d fef0 abbd c7bd 2f3e
000001f0: 663a 8a3d 2230 a0bd 031e 6a3d 97cd bf3d
00000200: a5b8 953d e2ad 55bd 3df8 39bc 9c41 863d
00000210: f525 0bbe 6dd4 21bd 0906 f23c 700c 36bd
00000220: f386 ca3b 6e68 db3d a66a 0cbe 4677 0bbe
00000230: 57ae d7bd 6830 a43c bcf1 59bc 2023 643d
00000240: eeb7 b93d 421a 72bd 54d1 043e cc65 293d
00000250: 8e6f 973d 6f80 cc3b c1da 84bd 1d9f 4abc
00000260: 2c22 5a3c 5342 c2bd bf7d 053d 55a1 6bbd
00000270: 8201 9f3c 15f0 bf3d 8510 4abd 9614 fcbd
00000280: 8801 66bd ba2c ae3d b1ba f1bc 901f 663d
00000290: 83d7 db3d d5d5 79bc c50a 8cbc 7e36 c2bc
000002a0: 6299 a8bd ae78 13be eada 063e e27a d5bd
000002b0: 646c b53d a296 81bd bda4 3bbd da95 623b
000002c0: c721 263d ff47 8fbd 1263 85bd e3ce af3d
000002d0: fad4 823d 7979 d13c de56 ae3b b263 0ebd
000002e0: 1f2b f73d a9b2 2dbd 3f3b 853d 389e 82bd
000002f0: a7d9 3d3d bc34 753c 7aaf 92bd 7602 41bd
00000300: 51bc 7abd feab 29bd a31f a1bd 3f4a c83c
00000310: 0c8b 373d 10e9 c2bd f365 dc3c 943e 633d
00000320: 6b9b 24bd 0d69 59bd 9a29 ad3d 43e5 a0bd
00000330: 6cb5 f83d a4c0 cd3d 30f6 c23d a742 513d
00000340: bf9f c9bd 123b bc3d 0fec e23c 39aa 12bd
00000350: 486f a3bc c89a e43c 4e5a 36bc 8833 863c
00000360: 7050 b63d bc31 e33d 9791 06bd f581 c3bd
00000370: 6b20 c6bd d32b 973d e404 983d df9a 2e3c
00000380: c4ff 603c f977 ab3d 6f6e 203d 75bc ac3d
00000390: aec8 fc3c a140 3f3d 1dcf 42bd e926 183d
000003a0: 56e1 8d3d b019 873d 0ede 353e 174e 843d
000003b0: 1a23 223e 6ad0 b63d d366 7c3d 174a e63c
000003c0: 1715 b73d f20c 523d db56 d03d 53af 20bc
000003d0: f7ff 43bd b9b0 24bb f5ee f63d d118 283d
000003e0: 5c16 f3bd 3f7e 54bd 5821 bdbd f85f 63bd
000003f0: cfca e6bc 389c aebd 3b38 863d bf6b 913d
-0.028802678 -0.03894246 -0.112953186 0.09370899 0.054341283 0.16034983 -0.036386948 0.0035387673
0.082600914 -0.08407167 -0.06084955 0.041234706 0.051916327 -0.11645477 0.01769834 0.08230937
0.06877228 -0.14145833 0.046738025 -0.07724703 -0.13973358 -0.0967771 -0.092196114 -0.0571958
-0.07710586 -0.11664136 0.07470084 -0.13182725 0.07250123 0.06179906 0.05581448 -0.09123452
-0.036328256 0.071127236 -0.13027158 -0.03902608 -0.08265176 -0.08172639 -0.08216628 -0.0051579843
-0.05069433 -0.1498509 -0.11098297 0.052112322 0.04671978 0.08991926 -0.0032471586 -0.07029196
0.08144884 0.0006878291 0.04939103 -0.1268149 0.11834265 0.07565425 -0.018669397 0.085551925
-0.068181485 0.030551491 0.05015923 -0.09267662 -0.053947374 0.120694876 -0.03133734 -0.019870313
0.08811795 -0.0095334705 -0.070530385 -0.124689266 -0.053646076 -0.057413686 0.0928626 -0.001415991
0.019459052 -0.10737926 0.11116748 0.09161817 0.01746779 0.0862042 0.0031906932 0.089319885
0.11566145 -0.030797333 0.04760421 0.06305403 0.06525771 0.09709544 0.05220959 -0.07175766
-0.12605952 -0.13329576 -0.037145287 0.11780847 0.07287595 -0.07082819 -0.042878762 0.040033873
0.0756899 0.025875488 -0.08014307 0.1071594 -0.051268365 -0.080720745 0.049360406 -0.11701103
0.11460035 -0.003047176 -0.023262242 -0.16283448 -0.06928447 -0.12973945 0.057091024 -0.0005687249
-0.057737064 0.07450584 0.011199749 -0.0071195224 0.15330034 -0.094717994 0.03746971 -0.051541045
0.036583092 0.032615017 -0.08395575 0.17162238 0.0674942 -0.078216806 0.057157528 0.09365385
0.07310609 -0.05216778 -0.0113506885 0.06555483 -0.13588698 -0.039509226 0.029543893 -0.044445455
0.006180638 0.10713278 -0.13712558 -0.13619718 -0.105312996 0.020042613 -0.013302263 0.05569756
0.09068285 -0.059107073 0.12970477 0.041356847 0.07394324 0.0062408964 -0.064870365 -0.012367037
0.013313811 -0.094853066 0.032590624 -0.057526905 0.019409899 0.09371964 -0.04933216 -0.12308614
-0.056153804 0.08504625 -0.029507967 0.056182444 0.10734465 -0.015248735 -0.017094979 -0.023707625
-0.082323804 -0.14401504 0.13169447 -0.10423829 0.088585645 -0.06327559 -0.045811404 0.0034574182
0.040559556 -0.06996154 -0.06513037 0.085843824 0.06388278 0.025570618 0.005320414 -0.034763046
0.120687716 -0.04240671 0.06505441 -0.06377834 0.046350148 0.014966186 -0.07162376 -0.047121488
-0.06121475 -0.04142379 -0.07867362 0.024449466 0.04481034 -0.095171094 0.026904082 0.0554796
-0.04018728 -0.0530787 0.084552005 -0.07856228 0.121439785 0.10046509 0.09519613 0.051088955
-0.09844922 0.09190954 0.027700452 -0.03580687 -0.019950524 0.027905837 -0.011129929 0.016381994
0.08902061 0.110934705 -0.03285369 -0.09546272 -0.09674152 0.07381406 0.07422808 0.010657041
0.013732854 0.08372492 0.039167818 0.08434383 0.03085741 0.046692494 -0.0475608 0.037146483
0.06927745 0.065966964 0.17760488 0.06460207 0.15833703 0.089264706 0.0616215 0.0281115
0.089395694 0.051281877 0.10172816 -0.009807426 -0.04785153 -0.002512975 0.12057296 0.04103929
-0.11869499 -0.05187821 -0.092348754 -0.055511445 -0.028172879 -0.0852589 0.06553694 0.07100629

lstm.weight_hh_l0 f4 [256, 64]
00000000: 8a2c 8ebd 3802 9a3c 9fdb 12bc 84da 8f3d
00000010: 27ef 92bd 004b 353e 9e00 163e a61b 9a3d
00000020: ee56 993d dcf5 99bd 913e 973d 013b 13bc
00000030: 1e73 3dbd ef28 003e 5706 75bd ecf8 bf3c
00000040: 4aa9 cb3c e18a b73d 2809 333d 05b5 2b3d
00000050: 2408 b2bd fa6e a03d 49c7 003e 7afc d4bd
00000060: 635f 49bd ee13 a2bc 6f25 dcbc 201a 7e3d
00000070: 62cc 283e 88af fa3b c780 863d 1980 c23d
00000080: b98e d8bd 21f5 1a3e d624 813d 021b babd
00000090: f5fc 2fbd 4b1b b53c 7a53 ffbb ebd6 fc3d
000000a0: 6cc1 4cbc 184b 23bd 71c3 f4bd 9c1c 2b3e
000000b0: dd64 78bd 5e36 a93c 3e99 9cbd 52ac a73d
000000c0: 92c9 81bd 5fdd d93c ce35 74bd e8ee e1bc
000000d0: b3fa 56bd f717 f73d 8521 263d 6da4 883d
000000e0: 18c2 99bc b5c0 6fbd b0e7 0e3e a9a5 abbd
000000f0: 5d8b 383d bba6 053e 64a5 b53d 9805 eb3d
00000100: 34d4 893d 3489 a73d bb60 8e3d 11a1 de3c
00000110: 7911 fcbd 070f cb3c 42e7 893d cddc f73d
00000120: 3b8b c13d 0e15 f43c 342e 133d df4f c63d
00000130: 340b 47bd ef09 f63d fc60 f23d fd44 08be
00000140: 4230 923d 05da c4bd 0cd5 1fbd 945d ffbd
00000150: da54 99bd 5849 11bd 10cb 193e a4ab d53c
00000160: f50b b9bd b7ad c63d d540 263e c66a 373d
00000170: 5e92 96bd 9110 903d 75a5 323d a199 b1bd
00000180: 3b48 373d a4ee cb3d 060a 99bd 9ba2 debd
00000190: 8f1e 823d 3b77 a3bd c08e 023d 3f85 693c
000001a0: 9b00 6b3d e074 3e3d 173c bf3d f044 f73d
000001b0: e57c a43d db0a 163e a2f7 0bbc 3cb9 dfbd
000001c0: 5bcd 7b3d 4a2d 333d 265b fa3d febb 7abd
000001d0: cad6 b3bd 1957 333d 3a3e ba3d 112b f43c
000001e0: 6805 8abc eda4 303d ee39 05be 7583 23bd
000001f0: 5d73 91bd b1d7 f93d 979e 643d d57c 483c
00000200: 50cf 4f3d 7c68 92bd abb1 93bd 0cea 70bd
00000210: b461 06be 623c 9a3b 52bc 343c 70ba 843c
00000220: 943e b0bd e628 143d c2c3 aabd e10b b03d
00000230: 3ff3 8e3d c254 013d 2314 6a3d 97ef 193d
00000240: 2ac0 0bbc d7d3 26be a5e7 25be 8624 763d
00000250: 3fc1 62bd e4ee 513d 566e babb 9a63 803d
00000260: 05c0 a2bd 8e3e 643d 0cb6 a33d 9f78 c13c
00000270: 771a dbbd 4873 cf3d 4d4d 203c 4cc1 983d
00000280: c93f 173d a7c7 1fbd 5fd9 363e 68db 72bb
00000290: 0fe9 41bd 496c adbd ebad 643c 3d89 e63d
000002a0: d239 323d 84f3 1a3e 77f4 9abd 37bd c03d
000002b0: ef5e 0f3e 3427 18be 2b7a dc3d 12ee 8a3d
000002c0: 720a c9bd 21f7 13bd 7e08 a5bd 1c5f 4e3d
000002d0: dd37 063e b1eb 563c 6a7b eabd 2c24 c1bd
000002e0: 6da6 8d3d a976 7cbd de74 c5bd cf8e d6bc
000002f0: c50f 94bd 068e 2b3d e484 f2bd 511f 09be
00000300: 0fd0 7d3d f46e 0d3e 6e96 c23d 5a41 a5bd
00000310: a424 843d d377 8b3d 3824 11bd 8383 e2bd
00000320: f0d3 f6bd 0a34 b73d 2d98 bbbd 81bf a4bd
00000330: f175 933d 4ad9 89bd 8207 40bc da32 b9bc
00000340: 61f8 f23d 435c eb3d 1b52 6a3d f4ea cdbd
00000350: dad3 5f3d 630e 61bd acf1 b93b db3c 1abd
00000360: 3eb1 0e3d a56c d53d b07f 85bd 1e9e 90bd
00000370: ebad 703d 7395 9f3d ee23 b13d 66f2 f33c
00000380: 45b8 9ebd 9d19 96bb 7024 133e 6ee8 1e3d
00000390: 514d 253c 4cdf c93c 269c f7bd bfa0 3d3d
000003a0: 7adf e43d 8411 75bd 0c72 84bb d7f9 0e3e
000003b0: 8d32 363c 10a4 883d d681 1d3c 3723 123e
000003c0: 67ac 5c3d 9025 b03d 1f2b 823d 10a3 2fbe
000003d0: c3bc e03d 9757 9a3d d567 96bd f797 7e3d
000003e0: 07ff e03c f28a c4bd 92c6 97bd f6d0 a5bd
000003f0: d352 16bc e7f8 913d fcd4 0c3d db00 d4bb
-0.06942089 0.018799886 -0.008963495 0.070241004 -0.07174521 0.17704391 0.14648673 0.07524805
0.07487284 -0.07517597 0.073849805 -0.008986236 -0.046252362 0.12515615 -0.0598205 0.023434125
0.024860997 0.08962036 0.043709904 0.04192068 -0.08692959 0.07833667 0.12576021 -0.103997186
-0.049163233 -0.019784894 -0.026873318 0.062036633 0.16484216 0.0076503195 0.06567531 0.09497089
-0.10574097 0.15132572 0.06305854 -0.090871826 -0.042965848 0.02210774 -0.0077919336 0.1234568
-0.012497287 -0.039866537 -0.1195134 0.16710132 -0.060643066 0.020655807 -0.07646416 0.08187164
-0.063372746 0.026594816 -0.059621625 -0.02757974 -0.05248518 0.12065118 0.04055931 0.06671987
-0.018769309 -0.05853339 0.1395557 -0.083812065 0.045054782 0.13051884 0.088694364 0.11475676
0.06729928 0.08180466 0.069520436 0.027176412 -0.1230802 0.024787439 0.06733562 0.12102661
0.09450384 0.029795196 0.035932735 0.09683203 -0.04859467 0.120136134 0.118349046 -0.13307567
0.07138111 -0.096118964 -0.039021537 -0.124690205 -0.07486887 -0.035470337 0.15018868 0.026082821
-0.09035484 0.09701102 0.16235669 0.04477956 -0.07352136 0.0703441 0.043614823 -0.086718805
0.04474662 0.099576265 -0.07472615 -0.10870858 0.06353485 -0.07981726 0.03187442 0.01425296
0.057373624 0.04649818 0.09337633 0.12073696 0.08031634 0.14652579 -0.008542927 -0.109240025
0.06147514 0.043744363 0.122244164 -0.06121444 -0.08781202 0.043784235 0.090939 0.029805692
-0.016848281 0.043126035 -0.1301038 -0.03992029 -0.07102082 0.12199343 0.055815306 0.0122367935
0.050734818 -0.07148835 -0.07211622 -0.058816954 -0.13123208 0.004706905 0.011031227 0.016202182
-0.08605686 0.036171816 -0.08338119 0.08596016 0.06979989 0.031574972 0.05714811 0.037582006
-0.008529702 -0.16291748 -0.16201647 0.060093425 -0.055360075 0.051253214 -0.0056894226 0.062689975
-0.07946781 0.05572372 0.07993707 0.023617087 -0.10698407 0.1012941 0.009784055 0.074587435
0.036926065 -0.039008763 0.17856358 -0.0037057046 -0.047341403 -0.084679194 0.013957481 0.11256645
0.043512173 0.15131956 -0.07566159 0.0941109 0.14001058 -0.14858705 0.10765489 0.067836896
-0.098164454 -0.036124352 -0.080582604 0.050383672 0.13107248 0.013117717 -0.114493206 -0.09430727
0.06916509 -0.0616366 -0.09641431 -0.026191143 -0.0722957 0.04188349 -0.11841753 -0.13390853
0.061966 0.13811857 0.095013484 -0.080691054 0.06452301 0.06809964 -0.03543493 -0.1106024
-0.120521426 0.089454725 -0.091598846 -0.08044339 0.0720023 -0.06730898 -0.01172054 -0.022607256
0.11863781 0.11492207 0.057207208 -0.100545794 0.054645397 -0.05494536 0.0056745615 -0.037655693
0.034837 0.10421113 -0.06518495 -0.070614085 0.05875961 0.07792177 0.08649431 0.02977867
-0.077499904 -0.00458069 0.14369369 0.03879588 0.010089234 0.024642609 -0.1209033 0.046295878
0.11175437 -0.059831157 -0.0040419158 0.13962494 0.011120451 0.066719174 0.009613475 0.14271246
0.053875353 0.086009145 0.06355881 -0.17152047 0.109735034 0.07536238 -0.07344023 0.062156644
0.027465357 -0.09596814 -0.07410921 -0.08096497 -0.00917502 0.071275525 0.034382805 -0.0064698285

lstm.bias_ih_l0 f4 [256]
00000000: d706 c53d a79a a53d 719b 2d3e 9d92 953c
00000010: 1b59 7fbd 814b 293e 6213 c83c cfc0 8dbc
00000020: 3a68 b33c 1a54 0a3d 7c0b 973d 777a 70bd
00000030: 430f ee3d 5258 e23d 2203 22bd 355b aabb
00000040: 9123 72bc db9f 033e 39d7 193d 74a0 fb3c
00000050: 991c b33d 6b6e 1b3e 48f0 f93c 323c 213e
00000060: 48a1 383c efd9 7dbd b7b0 4b3d 5e39 fe3d
00000070: a91f 693d 5018 fd3d 5897 9c3d 90d3 d93c
00000080: 9fbf be3d 6911 173e 1cd4 203e 7905 953d
00000090: 9611 a33c 4838 e3bb 0a58 70bd 9c83 9f3d
000000a0: a8d8 5f3d aabf b53d c362 243e a10d dabd
000000b0: 0e6b b53d 9ff7 cb3d 8341 c03d 87f6 263d
000000c0: 7c69 f23d 9e88 b0bc e4bf 3ebb eafb 0ebd
000000d0: 1b89 f73d 0963 07bd e176 a53d e172 0f3e
000000e0: 6f57 32bd cf5a 103e d4ac f9ba fe7b 623d
000000f0: 6112 163e 8c81 efbc ea0d ebbc 4115 db3d
00000100: f980 56bd cb92 d6bd cdb0 603d 1673 4ebb
00000110: a841 263e 620f e03d 404a e73d c895 293a
00000120: e2f2 4d3d ae1b 9ebd 855f ea3d 4b30 31bd
00000130: 5125 6fbd bf29 233e 08d4 cabc 46c3 0b3e
00000140: 917b 81ba 7f94 203e 565b 31bd 6190 53bd
00000150: 7411 573d 3455 f53d 17f7 dfbd 3316 65bd
00000160: ff48 403d d770 6fbd 1b6c 343d f5ca c7bd
00000170: 91b4 edbc 706c 0d3e 3080 28bd f89a 883d
00000180: ea97 013e e75c 553d 5974 463c fc08 0ebd
00000190: 2265 c2bb c2ad 9f3d f80e e0bd a43b 68bb
000001a0: 4c08 d83d 2ef0 c73d d5ff 6fba 9e4a 63bd
000001b0: 7d80 733c a458 623c f159 1bbd 0dfe 6d3c
000001c0: 400b 113e 9693 d53d 7c1d c93c 299c 833d
000001d0: e0ce 0a3c cbe5 a5bd daf2 2e3d e353 593d
000001e0: c941 17bd e744 9abd b124 8fbd 864c da3d
000001f0: 1782 33bd 4959 6ebd 8afb 67bd 98eb 273e
00000200: f8a6 6fbc 84b0 713d 60e5 203e f06f 393c
00000210: 563a 36be f3a0 443e f1e9 a23d 4f25 b1bd
00000220: 827a 783d 8fbe 02bc 897c dcbd d57e a1bd
00000230: 87cc 43bd 0839 72bd bdb2 493e c446 2f3d
00000240: b29e ac3c b039 75bc db72 75bd 5a91 68bb
00000250: 1e54 0fbe 58d2 c6ba dcda 263e d87f f43d
00000260: f99f 9bbc e5bc c73d 4d1a 0a3e 5d4c 02bd
00000270: e586 eabd f14c 3d3c 4686 ba3c d3b8 853b
00000280: 9f3b ebbd 7027 433e 230d 883d 61de ec3d
00000290: 9e65 c13c 2f97 c8bc be31 aa3d 4a6f 80bd
000002a0: 4cb5 7eba 4154 c53c 6e64 27bd 9340 283e
000002b0: 3899 66bd d67a b7bd f9a7 0c3d d77c 10be
000002c0: aea8 b7bc 198b fd3d 8939 b1bd 15d1 7abd
000002d0: 33fc 143e 766c 263e 3741 09be 3e0b 5bbd
000002e0: 6883 f5bd f113 37be ea7e 473c 3add 183e
000002f0: cefd db3d 7d7c 91bd 0166 06be d84c bebd
00000300: 79b7 73bc 1e01 b0bd 94e6 15bd a696 9bbd
00000310: 9b1b 363e d72e 0dbd 4853 833d 8642 b23d
00000320: 0bc2 cd3d de13 733d ae24 4e3e 7d38 213e
00000330: d2ac 4cbb 7b0a 273e 78bc 0f3d 456c 113e
00000340: 59ea 023d 2224 4e3d 73b3 bc3d b54f 2abc
00000350: eba9 4ebc 04a5 783c 7b22 5d3d 40db b53c
00000360: 9108 2e3d f516 a73d 150a 83bd 90d6 163e
00000370: 1db5 0c3e a5ba 3c3e d634 243d 58df 82bd
00000380: 032d e33d 64e1 73b9 72f1 ff3d f772 1c3c
00000390: 42c0 e03d d14f 403c 62c9 dc3d 2916 ff3d
000003a0: 6659 b63d f6f6 403d ad3b e13d 4f9c 033e
000003b0: 380d 3abd 6240 a0bd d403 c53d 204f 273e
000003c0: 1bb0 453d c264 ef3c e433 753d 3432 353e
000003d0: f2bd 9b3d 4bd7 05bc ea71 503c 61fb f53b
000003e0: 67bf 253e 96bc 333e d9db d63c 39f1 09bd
000003f0: 5bb6 16bd 0b05 ff3d cd66 b93d bf3b e33d
0.09620445 0.08086138 0.16953827 0.018258387 -0.062340837 0.16532709 0.024423305 -0.017303852
0.021900285 0.03377161 0.07375237 -0.05871054 0.11624005 0.11052002 -0.03955377 -0.005198861
-0.0147789875 0.12853949 0.037558768 0.030716158 0.08745689 0.1517884 0.030510083 0.15745619
0.011268921 -0.061975416 0.049729075 0.12413286 0.05691496 0.12358153 0.07646054 0.026590139
0.093138926 0.14752735 0.15705913 0.072764345 0.019905847 -0.0069341995 -0.05867771 0.07788774
0.05464998 0.08874448 0.160533 -0.10647131 0.0885831 0.09959339 0.09387495 0.04076245
0.11836526 -0.02154952 -0.0029106075 -0.034908213 0.12086698 -0.03305343 0.08079315 0.14008667
-0.043540414 0.1409714 -0.0019048699 0.05529403 0.14655448 -0.029236577 -0.028693158 0.10697413
-0.05236909 -0.10477217 0.05485611 -0.0031501702 0.16235983 0.10940434 0.11293459 0.00064691575
0.05028046 -0.07720123 0.11444 -0.043258946 -0.058385197 0.15933894 -0.024759308 0.1364871
-0.0009878745 0.15681647 -0.043299995 -0.051651362 0.05250688 0.11979142 -0.109358005 -0.055929374
0.046944614 -0.05845722 0.04404841 -0.09755508 -0.029016765 0.13810897 -0.041137874 0.06670183
0.12655607 0.05209055 0.0121127 -0.034676537 -0.005932466 0.077968135 -0.10940355 -0.003543594
0.105484575 0.097626075 -0.00091552484 -0.055491082 0.014862177 0.013815079 -0.03792757 0.014525902
0.14164448 0.104285404 0.024550192 0.064262696 0.008472174 -0.0810047 0.04271207 0.053058516
-0.036927972 -0.07532673 -0.0698942 0.10659127 -0.043825235 -0.058190618 -0.05663637 0.16398466
-0.014627211 0.05900623 0.157125 0.011318192 -0.17795691 0.19202022 0.07954777 -0.08649694
0.060663708 -0.007980003 -0.10765941 -0.078855194 -0.047802474 -0.05913642 0.1969709 0.042792097
0.021071766 -0.014967367 -0.059923988 -0.0035487027 -0.13996932 -0.0015168888 0.16294426 0.11938447
-0.01899718 0.09752826 0.13486595 -0.031811107 -0.1145151 0.011553989 0.022769105 0.0040808707
-0.11485981 0.19058013 0.06643131 0.11565853 0.023608025 -0.024486152 0.08310269 -0.06271227
-0.00097163464 0.024088027 -0.04086726 0.16430883 -0.056298465 -0.08958976 0.03433988 -0.14110123
-0.0224193 0.123800464 -0.08653552 -0.061234552 0.14549331 0.16252312 -0.13403784 -0.05347752
-0.119879544 -0.17878701 0.012176255 0.14928141 0.10741769 -0.071038224 -0.13124849 -0.092920005
-0.014875286 -0.08593963 -0.03659685 -0.07597093 0.17783968 -0.034468498 0.06412369 0.087040946
0.100467764 0.05934512 0.2013118 0.15744205 -0.0031230939 0.16312592 0.035091847 0.14201458
0.031961773 0.050327428 0.09213915 -0.01039498 -0.012613754 0.015176062 0.05398796 0.022199273
0.04248864 0.081586756 -0.06398407 0.14730287 0.13740964 0.18430574 0.04008945 -0.06390256
0.1109257 -0.0002325825 0.12497224 0.009548894 0.1097417 0.01173778 0.10780598 0.124553986
0.0890377 0.04711052 0.109977104 0.12852596 -0.045422763 -0.0782478 0.09619871 0.16338778
0.04826365 0.02922285 0.05986394 0.17694932 0.076045886 -0.008169006 0.012722472 0.0075067733
0.16186295 0.17552409 0.026227878 -0.033677313 -0.036795 0.12452134 0.09052811 0.1109538

lstm.bias_hh_l0 f4 [256]
00000000: 8c65 46bd f886 9dbc 3205 223e 034e 393c
00000010: b917 76bd 6f1f 903d 33b4 ed3c 9459 b83d
00000020: e7e8 88bd 2c84 483d 6033 603d cbc8 3a3e
00000030: 5ad9 013e 24f0 d23d 07e4 06bd 8124 4ebd
00000040: 6fcf d23d dbb1 a8bd 04e9 38bc f26e e73c
00000050: 6b62 89bd 5fa4 0b3e 2068 9f3d fddf 3e3d
00000060: 6a29 a1bc fefb 763d ad41 d73d 2cf2 343d
00000070: 5268 743d fb06 353e 7154 e2bb 48d9 f6bd
00000080: c3aa 043e 1c46 763c f2a2 773e eb65 393d
00000090: 1e82 54bd c99e b5bc 4596 cd3c 7bb7 73bb
000000a0: 0a10 5f3d 4ae6 393c 89c2 8a3d 679f b6bd
000000b0: e0d7 073e 5eeb be3d f739 51bd 8b08 febc
000000c0: 8ac1 c03d dc21 0fbd ba96 1f3e 6ba1 7b3d
000000d0: ec52 743d 00f9 393d 389f e93c e610 9b3d
000000e0: 9735 7cbd 9e80 a73d f9b8 58bb 70de 8d3d
000000f0: 0e33 74bd c0e4 0b3e f255 423c 5382 ae3d
00000100: 441a 003c 6d57 e13d 1320 b23d fdcc 87bd
00000110: 17ef c53c 029b 98bd b5dd c83b e769 873d
00000120: 4ecf 1f3d 416b 46bd c7d2 e63d af3f 71bc
00000130: 35b4 37bd c414 f13b 0ccd 52bd f92d 8cbc
00000140: 6ea2 5ebd 7701 1f3d a65a d73d e6a6 3e3b
00000150: 920f 193e 01aa b7bc efb0 51bd 50a7 37bc
00000160: ec99 99bd e69a 0cbc 9f2a 473d ad7f 88bd
00000170: 6c22 4fbd a3a4 44bd 12c4 bd3b 755b 4dbd
00000180: e8c5 7ebd 71da 2c3c fd1f 113e 1248 f73b
00000190: 2f1d 9a3d df7e 173e 061a e53c 48f6 5dbd
000001a0: 6bea 0ebd 1e10 59bd c68d 173e 2597 f4bd
000001b0: 4e58 40bc cef3 33bc bd08 c43d 5808 703d
000001c0: 4b8a c7bc 2c0c b8b8 5a08 bdbc 910e 063e
000001d0: 8b10 ec3d cfd1 d73c 2858 0b3e 3110 623d
000001e0: 6396 073e 7749 ee3d 4acb 3c3c 1201 d9bc
000001f0: c7fe 6a3d 8e16 bebd 0865 8b3d b095 0b3e
00000200: 48de 2ebd abe1 643d 77c8 7abc f7dc a4bd
00000210: a52a 30be d12c 1f3d 66f8 00be 1be6 9f3d
00000220: e52d dc3d 9b16 583d e5ae 54be 34cd dd3d
00000230: 4705 103e 3d5a dfbd ea47 35bc e7af 95bd
00000240: 2e37 0e3e 9b90 c73d 52d2 b5bd 07ac 2dbe
00000250: 3d6d 41be 056f f03d 30ed 2f3e 9c11 8c3d
00000260: 9e68 06be 6adb 20bd 4585 313e 100b 253d
00000270: 7eb1 45bd 9a1e 9d3c e35f 2ebd f392 723d
00000280: 57b0 d5bd b9df 1e3e db54 2abd 5c8d ac3d
00000290: b1a5 623c 6dc9 b13c 31ce 8ebd 449b fc3d
000002a0: ce8b 363d c75d 4e3e 70d8 f23d b955 a13d
000002b0: 7bdd 273e 2dbd 11be bfee 26be 5097 9a3c
000002c0: 8768 21be 3f5d 9fbd f9ac c2bd ac89 de39
000002d0: d92c f03d b773 d43d 2e46 14be 5778 d9bb
000002e0: 12f0 973d 2d52 ce3c 05a1 7c3d 2a3d 5c3d
000002f0: 4e59 183e c125 3bbe d188 0abe dec1 0cbe
00000300: a12c 253e 972a 053e 3b66 1f3e 927b 4abd
00000310: 1e85 8abc f725 903b bfe7 19bd 734d 513e
00000320: 1230 9c3d 71a5 143e ea96 0d3e 563a 9fbd
00000330: b01c 3f3d 039e 17bd 831a 073e 313d 2cbd
00000340: 399b d53d 9b22 82bd a6df 863d 483f 0fbd
00000350: e4cb 8e3d 322d 843d 6a6a ed3d e87c b33d
00000360: 8d6d 9f3d 9ad7 ca3d 0172 693d 8bbf bd3d
00000370: 5a95 20bc 02e7 70bd 2fa1 213d 614a 053a
00000380: 36d8 e13b e144 793d c098 843e 6368 3a3c
00000390: bab1 3d3d 7eb4 353e d667 c6bd 2773 7bbc
000003a0: f413 7cbd d938 af3b f719 f73d 8e65 fa3c
000003b0: 9140 bb3d 2db9 893d 5d4c 24bd 6076 3c3e
000003c0: a8d6 113d fa90 5fbd 38ea 083e 83f3 303e
000003d0: 46d6 473e 2c18 523b be1f 013e 3469 6bbd
000003e0: 45e9 013d b0ab 093e 2539 c3bc 2845 f0bb
000003f0: 1931 393e 415d 11bd ec04 babd 1fdd fa3d
-0.048436686 -0.019229397 0.15822294 0.011310103 -0.060081217 0.070372455 0.02901659 0.09001461
-0.066850476 0.048954174 0.054736495 0.18240659 0.1268057 0.102997094 -0.032932308 -0.05032778
0.10293471 -0.08237048 -0.011286024 0.028251145 -0.06708225 0.13636921 0.07783532 0.04660033
-0.019673068 0.060298912 0.105105735 0.044176266 0.0596698 0.17678444 -0.006907039 -0.12053162
0.12955765 0.015031364 0.24183252 0.045263212 -0.051881902 -0.022170441 0.025096068 -0.003718822
0.054458655 0.011346409 0.06775386 -0.08917122 0.13265944 0.093222365 -0.05108067 -0.031009933
0.09411915 -0.0349444 0.15584841 0.061433237 0.059649393 0.04540348 0.028518304 0.075715825
-0.061574545 0.08178829 -0.0033069237 0.06927192 -0.059619002 0.1366148 0.011861311 0.08520951
0.007818762 0.11003003 0.08697524 -0.06630895 0.024161858 -0.074514404 0.006129945 0.06611996
0.03901606 -0.04844213 0.11270671 -0.014724656 -0.044849593 0.007357212 -0.05146508 -0.017111765
-0.054354124 0.038819756 0.10515337 0.0029091178 0.14947346 -0.022419931 -0.051194128 -0.011209324
-0.075000614 -0.008581853 0.04862463 -0.06664977 -0.050569937 -0.048008572 0.0057911957 -0.05013605
-0.062200457 0.010550127 0.14172359 0.0075464332 0.075250976 0.14794491 0.02796651 -0.05418995
-0.034891527 -0.052993886 0.14800176 -0.11942891 -0.0117398035 -0.010983421 0.09571979 0.058601707
-0.024357935 -8.776071e-05 -0.023075271 0.13091494 0.11526593 0.026345162 0.13607848 0.055191223
0.13240962 0.11635106 0.011523077 -0.026489768 0.05737188 -0.09281646 0.068063796 0.1363132
-0.042692453 0.055879276 -0.015306584 -0.08049958 -0.17203768 0.0388611 -0.12594756 0.07807561
0.10750941 0.052755933 -0.20769842 0.10830155 0.14064513 -0.109058835 -0.011064509 -0.07308941
0.13888237 0.09744378 -0.08878006 -0.16960154 -0.18889327 0.11739925 0.17180324 0.06839296
-0.13125846 -0.03927175 0.17335995 0.040293753 -0.048264973 0.019179631 -0.042571913 0.059222173
-0.10434025 0.15515031 -0.04158483 0.084254 0.013833449 0.021702493 -0.06972922 0.12334302
0.044566922 0.2015296 0.118576884 0.078776784 0.16393082 -0.14232321 -0.16302012 0.01887098
-0.1576253 -0.07781457 -0.09505648 0.00042445713 0.11727304 0.10373633 -0.14479896 -0.00663666
0.07418837 0.025185669 0.061676998 0.053769268 0.14877817 -0.1827612 -0.13528754 -0.1374583
0.16130306 0.13004528 0.15566342 -0.049434252 -0.016909178 0.004399057 -0.037574526 0.20439701
0.07626356 0.14516236 0.138271 -0.077747986 0.046658218 -0.037015926 0.13193707 -0.042050544
0.10429997 -0.06354257 0.06585626 -0.03497246 0.06972483 0.06453933 0.115925625 0.08764058
0.07784567 0.09904404 0.05699349 0.092650495 -0.009801233 -0.058814056 0.039460357 0.00050846307
0.0068922294 0.060856704 0.2589779 0.011377427 0.04631207 0.17744634 -0.09687774 -0.015347279
-0.061542466 0.005347353 0.12065499 0.030566003 0.091431744 0.067247726 -0.04011189 0.18404531
0.035605103 -0.05458162 0.13370597 0.17280392 0.19515333 0.0032057865 0.12609765 -0.057473376
0.031716604 0.134444 -0.02383096 -0.007332463 0.18085136 -0.035489324 -0.0908297 0.12249207

fc1.weight f4 [32, 64]
00000000: 905d 01bd c912 b43d fed8 38bd aea7 e4bd
00000010: c110 dfbd c0d5 f0bc 2c69 18bd aa40 70bd
00000020: 5db8 983d 331e 013c 7412 a2bb 48ce 5abd
00000030: 3de2 2c3d a0fa 93bc 865a 3fbc ad7c d23d
00000040: 9c52 7e3c fc79 af3d 81b0 0ebe a7fb e8bd
00000050: c68f d33b 2ec0 e8bd 1292 e3bc 4f7d cbbd
00000060: 8a49 37be b078 9e3d fc81 cebc 56c3 b43d
00000070: dc8e 3ebd e150 413d 88a8 ef3c bab6 f5bd
00000080: ff7f 17be b60c 243e ee49 9b3d 7eb2 81bc
00000090: 8882 fb3d e10c f7bc e268 11be 968e 8fbd
000000a0: a40d 993d 9b01 203e 34c0 3cbd a4c7 213d
000000b0: d995 893d a11c ea3d 7f0a 00bd b71a 3ebe
000000c0: a343 6fbd 0c3d c8bc 78fa df3c 4496 fabd
000000d0: 89b2 433e c57d ed3d 08fc babd c93f c6bd
000000e0: 26bb 49bc ee7e 10be 19f1 c03d 0762 22bd
000000f0: 2d85 183b 1243 cfbd dbc4 c13c 25db 0b3c
00000100: 9ea5 b1bd 9be5 03be b37e 883d d84c e1bd
00000110: 22c0 3b3d 21b0 8c3b 1077 8fbd 9a7b 913c
00000120: 12cd 16bd f338 be3d 27f1 173e 7214 9c3d
00000130: 8aad 9d3d 980a f03d 1290 60ba 2176 b9bd
00000140: 00c9 423d d74d 073d bb2a a3bd a79d 9abc
00000150: cdce ab3d f0be 8fbd 0cd2 8c3d 9c47 723d
00000160: a1b9 31bd a35c a33c 7d50 df3d ee7e e1bd
00000170: ac80 9e3d 8a8e f3bd f871 263d 0bcc 5d3d
00000180: 740d 9abd 496e 3fbd 3a2e ee3b 82d7 563b
00000190: f72c bf3d ff59 803d ef24 053d 3b1c 76bd
000001a0: 24d1 afbd 336c c1bd 9b2f b5bb 442a 9ebd
000001b0: d2b9 e839 adec dc3d 252f cc3c c54a 89bd
000001c0: 0e52 cebd cd31 da3d 4687 c8bd 46d8 e63d
000001d0: d948 94bc 78b9 d43d 2479 38bd 8388 b53d
000001e0: 7991 1dbd 34ca 033e e65c 9dbd dd1f 82bd
000001f0: f9a4 6f3d f13f 04be db8c 103e 6e23 8fbd
00000200: e1f2 eebd 9ae3 c2bd abfc 54bd 5e99 e93c
00000210: 632b cdbc 2b99 a9bd 7a58 9b3d 0da0 d73d
00000220: 8b78 47bd d68f e0bc eadf 603d edb7 d93c
00000230: e6a0 d33c f525 173e d7aa 18bd 601b c3bd
00000240: e216 653d 6f4f 88bd e1e4 b2bd 5144 813d
00000250: f582 91bd 6eb8 7ebd 5746 94bd 0f26 0c3d
00000260: 3a80 8bbd 4f34 dabd daa9 afbb fc90 903d
00000270: de20 f13b 2f9d 433d f1bd 873d 6d52 a8bd
00000280: 7d3f a0bd 7c63 423d 7dcc f4bd 3742 963d
00000290: f4a8 aabc 8688 893b 3b2c debd de29 d3bc
000002a0: 0bfe f3bc 7360 a23d 6866 83bd 0494 febc
000002b0: 1a91 683d 7710 2ebd 49e9 e13d 44c1 b0bd
000002c0: 66cf 40bd bbe0 9cbd d7f3 efbc 5d02 0c3e
000002d0: 0ed8 0cbc caaa 95bd c325 f4bb bd7d 9d3d
000002e0: 23aa a53d eb17 313e bafb 9bbd b4ec 21bd
000002f0: b02c 7a3d f98f 61bd 1a10 31bd a467 b53d
00000300: cb51 053e 2afa a73b a621 f83d f892 08bd
00000310: 4423 883d 606f f1bc 1740 973d 7063 3ebd
00000320: ee27 04be b415 dcbc f7c2 2e3c cfd8 16be
00000330: e549 fbbc 14d4 47be 8cb9 573b dcf8 003e
00000340: b23f f03b e9d9 113e 3b54 82bc f895 93bb
00000350: b14d 26be 2e7d 0ebe c5f7 453e c44e 073d
00000360: 519b dfbd 105c e73d 6118 f33c 0e11 a3bd
00000370: d06e 89bc 21e6 02bd d501 e03d d2ba c2bc
00000380: edef ca3c 3e4e 293e 64d8 e53d 1bda d7bb
00000390: 9466 d6bd f09a c9bd ae2e 8bbd 720e 4c3c
000003a0: 7e0e 5ebd e560 ad3d 16b6 743d 4af7 583d
000003b0: 970b 243e 8b3e bcbd dfe2 ea3d 55ff 35be
000003c0: 0c7e edbd 231a dd3d 200c 383c ca4f 09bd
000003d0: d4b8 85bc e1c2 383e 5c0f a539 e28a 2e3d
000003e0: db80 55be 1253 e8bd 1112 63bd 8d3e eb3c
000003f0: ddf5 903d 0db0 ffbd 1363 19be 5e90 36be
-0.03158337 0.087926455 -0.045128815 -0.11164795 -0.108918674 -0.029398799 -0.037209675 -0.05865542
0.074570395 0.007880735 -0.0049460474 -0.05341938 0.042207945 -0.018063843 -0.011679297 0.10277686
0.015522625 0.085681885 -0.13934518 -0.11376124 0.006456348 -0.1136478 -0.027779613 -0.0993601
-0.17899147 0.07737863 -0.025208466 0.0882632 -0.04652296 0.047196273 0.029255167 -0.11997743
-0.1479492 0.16020474 0.0758246 -0.015832182 0.12280756 -0.030157508 -0.14200166 -0.07009618
0.07473305 0.15625612 -0.046081737 0.039497033 0.06718034 0.11431242 -0.03126001 -0.18564878
-0.058414113 -0.024443172 0.027341112 -0.12235692 0.19111075 0.11596254 -0.091301024 -0.09680135
-0.012312686 -0.1411092 0.09420986 -0.039644267 0.0023272738 -0.101202145 0.023653438 0.008536135
-0.08674167 -0.12880556 0.06664791 -0.11000985 0.04583753 0.004293457 -0.07005131 0.017759133
-0.036816664 0.09288206 0.14838086 0.07621087 0.076991156 0.117207706 -0.000856639 -0.090557344
0.04755497 0.03303322 -0.079671346 -0.018874003 0.083890535 -0.0701884 0.06876001 0.059150323
-0.04338992 0.019941634 0.10904024 -0.11010538 0.07739386 -0.118924215 0.040636033 0.05414967
-0.07522097 -0.046736035 0.007268694 0.0032782261 0.09334748 0.062671654 0.032505926 -0.060085516
-0.08584812 -0.094444655 -0.0055293567 -0.07722905 0.00044388935 0.1078733 0.024924824 -0.06703714
-0.100742444 0.1065403 -0.09791426 0.1127172 -0.018101143 0.10386938 -0.045037404 0.08863928
-0.03846881 0.12870103 -0.076837346 -0.06353734 0.05850694 -0.12915017 0.14116232 -0.069891796
-0.11667419 -0.09516068 -0.051998775 0.028515514 -0.025045102 -0.082811676 0.07585235 0.10528574
-0.048698943 -0.027412336 0.05490104 0.02657696 0.025833558 0.14760573 -0.0372723 -0.09526706
0.055930026 -0.06655776 -0.087350614 0.063118584 -0.07105056 -0.062187605 -0.07239979 0.034215983
-0.06811567 -0.10654508 -0.005360824 0.070589036 0.0073586544 0.047757324 0.06628025 -0.082188465
-0.078246094 0.047458157 -0.119530655 0.07336848 -0.020832516 0.004197183 -0.1084828 -0.0257768
-0.029784223 0.079285525 -0.06416017 -0.031076439 0.056779005 -0.04249617 0.11030824 -0.086306125
-0.04707279 -0.076600514 -0.029291077 0.13672777 -0.008596433 -0.07307966 -0.0074507906 0.07689998
0.08089092 0.1729428 -0.076163724 -0.03953238 0.061077774 -0.055068944 -0.043228246 0.088576585
0.13019483 0.0051262574 0.12115793 -0.033343285 0.066473514 -0.029472053 0.07385271 -0.04648155
-0.12905857 -0.026865818 0.0106666 -0.14731143 -0.030674884 -0.19514495 0.003291699 0.12594932
0.007331812 0.14243282 -0.015909305 -0.0045039617 -0.16240574 -0.1391494 0.19332798 0.0330341
-0.10918296 0.112968564 0.02967471 -0.07962237 -0.016776472 -0.03195775 0.109378494 -0.023770723
0.024772609 0.16533753 0.11222914 -0.0065872795 -0.10468784 -0.09844005 -0.06796013 0.012454616
-0.05421304 0.08465747 0.059743963 0.05297021 0.16020046 -0.091916166 0.114690535 -0.17773183
-0.11596307 0.10796001 0.01123336 -0.03352336 -0.016323484 0.1804309 0.00031482696 0.042612918
-0.20849936 -0.113439694 -0.05543715 0.02871635 0.07078145 -0.12484751 -0.149792 -0.17828509

fc1.bias f4 [32]
00000000: 4bc8 2bbd 7842 9dbd 173d ae3d 5522 2d3e
00000010: 708b f6bd 4b43 193e bbce 303e b91f bfbd
00000020: 7167 9e3d 7cce 253e f6c2 0ebd c6c1 553c
00000030: f00e 2b3d 5c7a 233d 59c4 1fba 4163 1fbb
00000040: d0ad 513d 6aa7 303e 3bfd 34bd efdd 203e
00000050: fe1e 08be 5801 2c3e 93cf e93d 0f9b 8cbd
00000060: e650 adbb 7d57 133e afef 39bd 0723 3ebd
00000070: dc17 363d 54b9 873d 15ea a13d c91a 023e
-0.04193906 -0.076786935 0.08507746 0.16907628 -0.12038314 0.14967076 0.17266361 -0.093322225
0.07734574 0.16192049 -0.034853898 0.0130466875 0.041762292 0.039911613 -0.0006094627 -0.0024320635
0.05119115 0.17251363 -0.044186812 0.15709661 -0.13293073 0.16797388 0.11416545 -0.068655126
-0.005289185 0.14388843 -0.045394596 -0.046420123 0.044456348 0.066271454 0.07905976 0.1270553

fc2.weight f4 [1, 32]
00000000: 0d34 56be 7d50 cb3d 6ecb e03c bde4 14be
00000010: b841 8a3d cf5c 73be a44e 98be 7e54 c83d
00000020: 565c 16be c454 5fbe 9bd7 afbd 8cdc 833e
00000030: 2068 a83d 6d05 1d3e d01e 00be b52d 77be
00000040: 99d2 263e f52a 38be 881a 903e d023 4cbe
00000050: 8504 91bd 1254 12be 264a 05be e562 4dbe
00000060: 7dd6 0abe ebdf 4fbe 8c29 ec3c 597a 593e
00000070: a9e9 673d 6983 27be 102b 2fbe bce0 863e
-0.20918293 0.09927461 0.027440753 -0.14540382 0.06750816 -0.23765872 -0.29747498 0.097817406
-0.14683661 -0.2180968 -0.08586045 0.257542 0.08222985 0.15334101 -0.12511754 -0.2413853
0.16291274 -0.17985137 0.28145242 -0.19935536 -0.0708094 -0.14289883 -0.13016567 -0.20057257
-0.13558383 -0.20300262 0.028828405 0.21238078 0.05661932 -0.16358723 -0.17106271 0.26343334
