checkpoint_200.pth (torch, 450802 bytes, 8 tensors)

embedding.weight f4 [671, 100]
0	0x3ed4e9b1	0.41584542
1	0xbf072c88	-0.52802324
2	0x3dfba6f5	0.12287704
3	0x3f365953	0.7123005
4	0xbefd51e6	-0.49476546
5	0x3fa37893	1.2771171
6	0xbe8c928a	-0.2745555
7	0x3d29d2f6	0.041460954
8	0xbf3df6d8	-0.7420478
9	0x3ddcf268	0.10788423
10	0x3f9af951	1.2107335
11	0x3e3982d0	0.18116307
12	0xbf410178	-0.75392866
13	0x3f209d4a	0.62740004
14	0xbfebeba0	-1.8431282
15	0xbd58b704	-0.052908912
16	0x3f90c866	1.1311157
17	0x3f836837	1.0266179
18	0x3a7e364f	0.00096974237
19	0x3fca28b5	1.5793673
20	0xc011384d	-2.2690613
21	0xbfb71f20	-1.4306374
22	0xbf0ae18e	-0.5425042
23	0xbecfe660	-0.4060545
24	0xbf5b4fb5	-0.856685
25	0x4013144a	2.2981133
26	0xbd0691f3	-0.03285403
27	0x3f21b99d	0.6317385
28	0xbe1ddd5a	-0.1541647
29	0xbf525676	-0.8216318
30	0x3f64260e	0.89120567
31	0xbff7e178	-1.9365683
32	0x3ec2b4cd	0.38028565
33	0xb9978579	-0.0002890041
34	0x3d699570	0.05702728
35	0xbf8bff08	-1.0937204
36	0xbf14f3e7	-0.58184665
37	0xbea2ca91	-0.3179517
38	0x3e61df72	0.22057894
39	0x3f847d29	1.0350696
40	0xbeb838f6	-0.35980958
41	0x3fa27014	1.2690454
42	0xbf3152a0	-0.692667
43	0xbeee0d12	-0.46494347
44	0x4020c5b7	2.5120676
45	0x3f3fe2bc	0.74955344
46	0xbe821860	-0.25409222
47	0xbf8cc66a	-1.0998051
48	0x4004b5b1	2.0735896
49	0x3f231365	0.6370147
50	0x3f9fc83c	1.2482982
51	0xbf5ed4d3	-0.87043494
52	0xbe954777	-0.29156086
53	0x3e7f1ac9	0.24912561
54	0xbe791e48	-0.24327958
55	0xbf047a82	-0.5174943
56	0x3e1071e9	0.14105953
57	0x3fe02297	1.7510556
58	0xbfa7717c	-1.3081508
59	0x3eb032bf	0.34413716
60	0xbeca13ae	-0.3946814
61	0xbf1adfd4	-0.60497785
62	0x3f52c3ce	0.82330024
63	0x3f68ae34	0.9089081
64	0xbf70a76c	-0.94005466
65	0xbd68463d	-0.05670761
66	0x3edca71b	0.4309624
67	0x3ea4168b	0.3204845
68	0xbf146a2f	-0.57974523
69	0xbfd16c2c	-1.6361136
70	0xbf168826	-0.58801496
71	0x3fc49a04	1.5359502
72	0xbfd4a734	-1.6613526
73	0xbeca9ffc	-0.39575183
74	0xbf67f0d8	-0.90601873
75	0xbea457fc	-0.32098377
76	0xbf15fbd4	-0.58587384
77	0xbf1542ff	-0.5830535
78	0xbe9cbe6a	-0.30614024
79	0xbdc76f82	-0.09738065
80	0x3f662893	0.8990566
81	0xbf4a0ec9	-0.7892881
82	0x3e11b364	0.14228588
83	0xbd655dd9	-0.055997703
84	0x3ea421d0	0.32057047
85	0xbf91f179	-1.1401817
86	0x3f8cccc4	1.099999
87	0xbfe45cb0	-1.7840786
88	0x3e8683e2	0.26272494
89	0x3f64b82a	0.8934351
90	0x3fd188de	1.6369894
91	0x3e123cc8	0.14280999
92	0x3efd8405	0.49514785
93	0x3f4e5a1d	0.8060625
94	0xbe4ef02a	-0.20208803
95	0x3df4635e	0.11933015
96	0x3f7a4a3c	0.9776952
97	0xbed022b9	-0.4065149
98	0xbf80301d	-1.0014683
99	0xbf28e9e7	-0.65981907
100	0x3e389286	0.18024644
101	0x3f3af80c	0.7303474
102	0xbfa969ac	-1.3235373
103	0xbd8ccf4b	-0.068754755
104	0x3eca6a09	0.39534023
105	0xbebc9f41	-0.3684025
106	0x3ccfd2ae	0.025369015
107	0x3f25b8ac	0.6473491
108	0x3e37a9f0	0.1793592
109	0xbff6098f	-1.9221667
110	0xbe85f9bd	-0.26167098
111	0x3f3bbd40	0.7333565
112	0xbed64192	-0.418469
113	0x3fb5db61	1.4207574
114	0x3f0935fc	0.53598
115	0xbefd0077	-0.49414417
116	0xbf1ee53f	-0.6206855
117	0xc00c5d73	-2.1932037
118	0x3eb24726	0.34819907
119	0x3fa16117	1.2607754
120	0x3ec25f78	0.37963462
121	0x3d44d1c7	0.04805162
122	0x3dcecea6	0.10098009
123	0xbeb7b44d	-0.35879746
124	0xbe95c6a5	-0.29253116
125	0x3f429e0c	0.7602241
126	0xc01f981d	-2.4936593
127	0xbfda6123	-1.7060894
128	0xbf103a12	-0.5633861
129	0xbfd4885b	-1.6604112
130	0xbfda9c77	-1.7078999
131	0x3dca1682	0.09867574
132	0xbf81c6a0	-1.013874
133	0xbe29fbb4	-0.16599923
134	0xbf4bcc85	-0.7960895
135	0xbea9b033	-0.33142242
136	0xbf16818f	-0.5879144
137	0xbdc61f9c	-0.09673998
138	0xbfa18d7f	-1.2621306
139	0x3feee229	1.8662769
140	0xbf8b64ec	-1.0890174
141	0xbfc0c648	-1.5060511
142	0xbd585e76	-0.05282446
143	0xbf508ab4	-0.81461644
144	0xbf13ad62	-0.57686436
145	0xbf824902	-1.017853
146	0xbfe87940	-1.8162003
147	0xbf1e5c75	-0.6185983
148	0x3eea1742	0.4572087
149	0xbf55a3d1	-0.8345309
150	0x3e4051d5	0.18781216
151	0xbf64ba8d	-0.89347154
152	0xbe96b5b7	-0.29435512
153	0xbf38f9fc	-0.72256446
154	0xbf6e9f5e	-0.93211925
155	0x3fdab4e3	1.7086452
156	0xbdb73f70	-0.089476466
157	0xbf3ad084	-0.7297442
158	0xbf8efe3d	-1.1171337
159	0xbf0b80f5	-0.5449365
160	0x3e26622d	0.16248389
161	0x3e88ecbe	0.2674312
162	0x3e14496e	0.14481136
163	0x3f165a63	0.5873167
164	0xbf1cbf85	-0.61229736
165	0xbdf8cc71	-0.12148369
166	0x3fcca1b3	1.5986847
167	0x3f10ba7f	0.5653457
168	0x3e7bcb50	0.24589276
169	0xbf215d77	-0.6303324
170	0x3edcb40b	0.43106112
171	0xbee47b95	-0.44625536
172	0xbfdc51c6	-1.7212455
173	0x3ef6f9d5	0.48237482
174	0x3f4aa949	0.7916456
175	0x3f936f8e	1.1518419
176	0x3f619b35	0.8812745
177	0x401b386d	2.425319
178	0x3e3b1ae7	0.18271981
179	0xbeaac993	-0.33356914
180	0x3f999988	1.1999979
181	0x3f12ecd8	0.57392645
182	0xbf98bff7	-1.1933583
183	0xbfd2d214	-1.6470361
184	0x3fdc9673	1.7233413
185	0xbee3a2ff	-0.44460294
186	0x3f4c0fac	0.79711413
187	0x3faec756	1.3654583
188	0xbfae8e84	-1.3637242
189	0xbfca67f0	-1.5812969
190	0xbe9efc5a	-0.31051904
191	0x3efc3240	0.49257088
192	0xbf650043	-0.89453524
193	0x3fbc4738	1.4709234
194	0xbf836f06	-1.0268257
195	0x3eabe62a	0.3357404
196	0xbe7e3e14	-0.24828368
197	0x3eee3b9f	0.46529862
198	0xbf87139f	-1.0552863
199	0x3f2c2895	0.67249423
200	0xbe019dc2	-0.12657836
201	0x3f22e7cc	0.63634944
202	0x3ce40efd	0.027839178
203	0x3ea1ef5e	0.31627935
204	0x3f05c420	0.5225239
205	0xbfeeea8b	-1.8665327
206	0x4005812f	2.0860097
207	0xbf0e25fc	-0.5552671
208	0xbfb8d10b	-1.4438795
209	0xbf5a0ebe	-0.85178745
210	0xbf93adfc	-1.1537471
211	0x400538e8	2.0815983
212	0xbf961d03	-1.1727604
213	0xbf51dfc8	-0.8198209
214	0x3f3ad3d9	0.72979504
215	0xbd527ba2	-0.051387437
216	0x3e921a57	0.2853572
217	0x3e592b55	0.21207936
218	0x3fad5d36	1.3544071
219	0x3ea05a2d	0.313188
220	0x3f86e15c	1.0537524
221	0xbf37091f	-0.7149829
222	0xbf6b0468	-0.918036
223	0x3dc95323	0.0983031
224	0x3fa1bd91	1.2635976
225	0x3eef0513	0.4668356
226	0x3f52b757	0.82311004
227	0x3ebd065e	0.3691892
228	0xc02be04a	-2.6855645
229	0x3fce6559	1.6124679
230	0x3f3214eb	0.6956317
231	0xbea8a326	-0.32936972
232	0x3f35907e	0.709236
233	0x3e732424	0.23744255
234	0x3e2a1bf3	0.16612224
235	0x3ea55ee9	0.32298973
236	0xbe6f0c0c	-0.2334444
237	0xbf86c336	-1.0528324
238	0x3e447a90	0.19187379
239	0xbe9ac70f	-0.30229995
240	0x3f22bd0d	0.6356972
241	0xbf3eafb1	-0.74486834
242	0x3f187da8	0.59566736
243	0x3ebeb14b	0.3724464
244	0xc00f0981	-2.234955
245	0xbf2d8f39	-0.67796665
246	0xbfbfd0f7	-1.4985646
247	0xbfc0fc93	-1.507708
248	0x3f12066c	0.5704105
249	0xc00e34e5	-2.2219784
250	0x3fc44408	1.5333261
251	0xbd6fdfc7	-0.05856302
252	0x3ea1b77d	0.31585303
253	0xbf95e446	-1.1710289
254	0xbff14cd0	-1.8851566
255	0xbd5fc973	-0.054635476

lstm.weight_ih_l0 f4 [256, 100]
0	0xbcba135b	-0.022714308
1	0xbd436dd2	-0.047712155
2	0xbdc93215	-0.098240055
3	0x3db2dc34	0.08733407
4	0x3d2db5b1	0.042409603
5	0x3e18f68b	0.14937799
6	0xbd032454	-0.032017067
7	0xb95568b4	-0.00020352268
8	0x3db3a21b	0.087711535
9	0xbd9e46e0	-0.07728362
10	0xbd68a099	-0.056793783
11	0x3cc0a0d6	0.023514193
12	0x3d451cfd	0.04812335
13	0xbe0131b2	-0.12616614
14	0x3c1f125f	0.00970897
15	0x3da1cffb	0.07900997
16	0x3da04566	0.07825737
17	0xbdf0ed08	-0.1176396
18	0x3d17874a	0.036994256
19	0xbdc019ef	-0.093799464
20	0xbe01e10d	-0.12683506
21	0xbdc66d0b	-0.09688767
22	0xbda3278c	-0.07966527
23	0xbd488351	-0.048953358
24	0xbd8e9f71	-0.06964005
25	0xbdd1db09	-0.10246856
26	0x3db3f3a1	0.08786703
27	0xbde344b9	-0.11097092
28	0x3dabd594	0.08390346
29	0x3d92d7d3	0.071700715
30	0x3d888de1	0.06667686
31	0xbdd0b3cc	-0.101905435
32	0xbcce1519	-0.025156545
33	0x3d974085	0.07385353
34	0xbdfb4a77	-0.122700624
35	0xbcff15c4	-0.031138308
36	0xbdae9f2c	-0.085264534
37	0xbdb16390	-0.08661568
38	0xbda2d67f	-0.07951068
39	0xbc68bf05	-0.014205699
40	0xbcd9a0c9	-0.026565926
41	0xbe0bcc98	-0.13652265
42	0xbdc3ae29	-0.09554703
43	0x3d864ea6	0.0655797
44	0x3d2a3c12	0.041561194
45	0x3dbec328	0.09314567
46	0x3b605056	0.0034227571
47	0xbd856cc2	-0.065148845
48	0x3d66b1c7	0.056321885
49	0x3c530208	0.012878902
50	0x3d2db67e	0.042410366
51	0xbdef27fb	-0.116775475
52	0x3dbfd34d	0.09366474
53	0x3db284b9	0.08716721
54	0xbcaaac07	-0.020833982
55	0x3da189b2	0.078875914
56	0xbda93b18	-0.08263224
57	0x3d09140f	0.033466395
58	0x3d9968f3	0.074907206
59	0xbd9dedb6	-0.077113554
60	0xbd4320bb	-0.047638636
61	0x3de0fac7	0.10985332
62	0xbccd14cc	-0.02503433
63	0xbd304c87	-0.043041732
64	0x3dcb32f1	0.09921826
65	0xba25a993	-0.0006319519
66	0xbda63133	-0.08114853
67	0xbdf52dad	-0.119716026
68	0xbd49b9f2	-0.049249597
69	0xbd6103ea	-0.054935373
70	0x3db8452e	0.0899757
71	0x3bce1b6f	0.0062898914
72	0x3d001fbd	0.031280268
73	0xbdedc92e	-0.116106376
74	0x3dcddb94	0.10051647
75	0x3daeb54e	0.08530675
76	0x3c8f9f30	0.017531961
77	0x3d93c491	0.072152264
78	0xbb994959	-0.004677933
79	0x3dc2d04e	0.09512387
80	0x3dfa2fa5	0.12216119
81	0xbd1f4ed7	-0.038893547
82	0x3d5cad43	0.053876173
83	0x3d67670f	0.05649477
84	0x3d8d80a8	0.06909305
85	0x3de463d5	0.11151854
86	0x3d340e8c	0.043959185
87	0xbd9f03b4	-0.07764378
88	0xbdf34374	-0.118781
89	0xbdf491f1	-0.119418986
90	0xbcc9378f	-0.024562625
91	0x3ddcd048	0.10781914
92	0x3d99fc66	0.07518844
93	0xbd982b0c	-0.074300855
94	0xbce409d7	-0.027836723
95	0x3cfe1bed	0.031019175
96	0x3db3c98e	0.08778678
97	0x3c898b79	0.016790139
98	0xbd984920	-0.074358225
99	0x3db25712	0.087080136
100	0xbd3dbbc7	-0.046321657
101	0xbd8d00c6	-0.06884913
102	0x3d57ba6f	0.05266803
103	0xbde79ade	-0.113088354
104	0x3e04bb07	0.1296197
105	0x3b75019d	0.0037384995
106	0xbd26eecc	-0.04075508
107	0xbe13472e	-0.14382622
108	0xbd678c90	-0.056530535
109	0xbdf0bc98	-0.117547214
110	0x3d84ca55	0.06483904
111	0xbc24d2b6	-0.010060003
112	0xbd4eeb2e	-0.050517254
113	0x3dc0fa9d	0.09422801
114	0x3b050ef8	0.0020303112
115	0xbb95d684	-0.0045726914
116	0x3e162092	0.14660862
117	0xbde12f6c	-0.10995373
118	0x3d2350f9	0.039872143
119	0xbd3f2dcd	-0.04667454
120	0x3d41a6d5	0.047278244
121	0x3ccdbe94	0.025115289
122	0xbdbef59d	-0.09324191
123	0x3e26c521	0.16286136
124	0x3d9159ae	0.07097183
125	0xbdb555d5	-0.08854262
126	0x3d59fe34	0.053220943
127	0x3dc8abf7	0.09798425
128	0x3d474467	0.048649218
129	0xbd99de19	-0.07513065
130	0xbc060901	-0.008180858
131	0x3d7bc28c	0.06146483
132	0xbddc0c3d	-0.10744522
133	0xbd181159	-0.03712592
134	0x3cfc1f95	0.030776778
135	0xbd1c5087	-0.038162734
136	0x3b0101aa	0.001968483
137	0x3de5ba66	0.11217193
138	0xbe09f506	-0.13472375
139	0xbdea6231	-0.1144451
140	0xbde3494b	-0.11097964
141	0x3c0b349b	0.008496429
142	0xbc789954	-0.015173275
143	0x3d1d5af4	0.038416818
144	0x3dda860d	0.106700994
145	0xbda17ded	-0.078853466
146	0x3de16ed1	0.11007465
147	0x3d6c9ce4	0.05776681
148	0x3dc79774	0.09745684
149	0x3c91d878	0.017803416
150	0xbd93dbd2	-0.07219662
151	0xbc525c5b	-0.012839402
152	0x3d009014	0.031387404
153	0xbdcbb48a	-0.099465445
154	0x3d1638ff	0.03667545
155	0xbd299536	-0.041402064
156	0x3d105e26	0.035246037
157	0x3db504ae	0.08838783
158	0xbd666098	-0.056244463
159	0xbdcf6bd4	-0.101279885
160	0xbd66638c	-0.05624728
161	0x3d931403	0.07181551
162	0xbcbe7f90	-0.023254186
163	0x3d8f8ccd	0.070092775
164	0x3dfaa32c	0.12238154
165	0xbcce7b56	-0.025205296
166	0xbc2bfb16	-0.010496875
167	0xbd097efd	-0.03356837
168	0xbdc9128e	-0.09817992
169	0xbe04186d	-0.12899943
170	0x3dfa9410	0.12235272
171	0xbdf8e1d6	-0.1215245
172	0x3da5c107	0.08093458
173	0xbd85256b	-0.065012775
174	0xbd0edf65	-0.034881014
175	0xbc7dbafb	-0.015486474
176	0x3d05db58	0.032679886
177	0xbd63a05a	-0.055572845
178	0xbd47928d	-0.048723746
179	0x3d983912	0.0743276
180	0x3d8d68cc	0.06904754
181	0x3c09be69	0.008407214
182	0x3b79649d	0.0038054355
183	0xbd0f5e2d	-0.035001922
184	0x3ddce4f1	0.107858546
185	0xbd1c77f9	-0.038200352
186	0x3da1fbf6	0.07909386
187	0xbd66e095	-0.056366522
188	0x3cf4b7e0	0.029872835
189	0xbbb90af0	-0.005647056
190	0xbdc147f5	-0.09437553
191	0xbd32b473	-0.04362912
192	0xbd92bf44	-0.07165387
193	0xbd092e7f	-0.033491608
194	0xbd9673e3	-0.073463224
195	0x3d2187a3	0.039435994
196	0x3d1b474c	0.03790979
197	0xbdb1783b	-0.0866551
198	0x3cbeba72	0.023282263
199	0x3da6e124	0.08148411
200	0xbd39e1e6	-0.04538145
201	0xbd780831	-0.060554687
202	0x3daa56c8	0.083173335
203	0xbdb70fa1	-0.08938528
204	0x3dda4f02	0.10659601
205	0x3d9b8e92	0.075955525
206	0x3db7a700	0.089673996
207	0x3d5f2a26	0.054483555
208	0xbdd18de9	-0.10232145
209	0x3dc7189b	0.0972149
210	0x3cd43400	0.025903702
211	0xbcef3736	-0.029201131
212	0xbcfec23b	-0.031098476
213	0x3d3fcd65	0.04682674
214	0xbc1b282d	-0.009470028
215	0xbbae1221	-0.0053122197
216	0x3dd142ee	0.10217844
217	0x3dc32aa1	0.09529615
218	0xbd133f77	-0.035949197
219	0xbdcdde5a	-0.10052176
220	0xbdab2b33	-0.08357849
221	0x3d7ff671	0.062490884
222	0x3d9df33a	0.077124074
223	0x3c55016c	0.013000827
224	0x3b48f745	0.0030664962
225	0x3db1eadf	0.08687376
226	0x3d303190	0.043016016
227	0x3dc2a2a1	0.09503675
228	0x3d005270	0.03132862
229	0x3d40b3f9	0.047046635
230	0xbd54b070	-0.051926076
231	0x3d50a5e1	0.050939444
232	0x3daab974	0.083361536
233	0x3d98bb5a	0.074576095
234	0x3e294c7c	0.16533083
235	0x3d62efa3	0.055404317
236	0x3e07557e	0.13216206
237	0x3dbac4ea	0.091195896
238	0x3d9551ec	0.07291016
239	0x3d419901	0.047265057
240	0x3d9f65a4	0.07783058
241	0x3d462372	0.048373647
242	0x3dd031b6	0.101657316
243	0x39ecccee	0.00045166112
244	0xbd336efe	-0.043807022
245	0xbc8d8690	-0.017276078
246	0x3dd23919	0.10264797
247	0x3d2264ef	0.03964704
248	0xbdd0b61b	-0.10190984
249	0xbd5ca42a	-0.053867497
250	0xbdbef0cd	-0.09323273
251	0xbd9208fc	-0.0713062
252	0xbcb938a8	-0.022610024
253	0xbdac1b49	-0.08403642
254	0x3d693411	0.05693442
255	0x3da28530	0.0793556

lstm.weight_hh_l0 f4 [256, 64]
0	0xbda312e0	-0.079625845
1	0x3ccf311f	0.025291977
2	0xbcd3c594	-0.025851049
3	0x3daeefa8	0.085418046
4	0xbd57ca14	-0.05268295
5	0x3e145ea6	0.1448923
6	0x3e0431d2	0.1290963
7	0x3db905f9	0.09034342
8	0x3d90a8b3	0.07063427
9	0xbd9e7cf2	-0.07738675
10	0x3dc4e45e	0.0961387
11	0xbceb904e	-0.028755333
12	0xbd6ebd12	-0.05828578
13	0x3e0fef32	0.1405609
14	0xbd90ebd0	-0.07076228
15	0x3d17900f	0.03700262
16	0x3cc91a8d	0.024548793
17	0x3da5421b	0.08069249
18	0x3d548816	0.051887594
19	0x3d71a6ef	0.05899709
20	0xbd907178	-0.070528924
21	0x3d86654f	0.06562292
22	0x3deaf308	0.11472136
23	0xbdd91ad4	-0.1060082
24	0xbd12b083	-0.035812866
25	0xbca674aa	-0.020319302
26	0xbd36c8d3	-0.044625115
27	0x3d93ead0	0.07222521
28	0x3e2f1e11	0.17101313
29	0x3b766910	0.0037599243
30	0x3da42b58	0.0801608
31	0x3dc38afe	0.09547995
32	0xbdc3ac15	-0.095543064
33	0x3e00de2b	0.1258475
34	0x3d7ea9f6	0.062173806
35	0xbdcbe699	-0.099560924
36	0xbd4f9a90	-0.05068451
37	0x3cfc7dfb	0.03082179
38	0xba6573da	-0.000875292
39	0x3def1603	0.1167412
40	0x39cbefdd	0.0003889789
41	0xbd54e102	-0.051972397
42	0xbddb0201	-0.106937416
43	0x3e14e0f0	0.14538932
44	0xbd7751d5	-0.060380775
45	0x3d076bb7	0.03306171
46	0xbdb5d476	-0.08878414
47	0x3d9db5b6	0.07700674
48	0xbd88e388	-0.06684023
49	0x3c3879e8	0.011259533
50	0xbd44f3ed	-0.04808419
51	0xbccd24e3	-0.025042003
52	0xbd984f74	-0.074370295
53	0x3de4cd5f	0.11171984
54	0x3d6dde22	0.05807317
55	0x3d97f1eb	0.07419189
56	0xbcad87f5	-0.021182993
57	0xbd662958	-0.056191772
58	0x3e006167	0.12537156
59	0xbdb8bcc3	-0.090203784
60	0x3d004e17	0.031324472
61	0x3e067bba	0.13133135
62	0x3dbb909a	0.0915844
63	0x3de0e646	0.10981421
64	0x3d8e9ca6	0.06963472
65	0x3d942db7	0.07235282
66	0x3d952525	0.072824754
67	0x3c823d83	0.015898472
68	0xbdfc9f9f	-0.12335133
69	0x3d06eb2f	0.032939132
70	0x3d751100	0.059830666
71	0x3dd62bc2	0.10457565
72	0x3da09ee0	0.07842803
73	0x3d1af557	0.03783163
74	0x3d029bc0	0.031886816
75	0x3de9c474	0.114144236
76	0xbd6fa012	-0.058502264
77	0x3df48925	0.11940221
78	0x3df87023	0.121307634
79	0xbe1f0e56	-0.15532812
80	0x3dae3cf8	0.085077226
81	0xbdc0d23f	-0.09415101
82	0xbd332f5f	-0.04374635
83	0xbdf92e4e	-0.12167035
84	0xbda235f7	-0.07920449
85	0xbd7bf36c	-0.061511442
86	0x3e0fe78d	0.14053173
87	0x3c301614	0.010747451
88	0xbddb45d3	-0.10706677
89	0x3da6d903	0.081468605
90	0x3e1bda35	0.15219958
91	0x3d33f339	0.043933127
92	0xbd95811d	-0.07300017
93	0x3daaa162	0.083315626
94	0x3d0ca09c	0.034332857
95	0xbd9ff10d	-0.07809649
96	0x3d2bfb9b	0.041987997
97	0x3ddf024a	0.108891085
98	0xbd99f4a6	-0.07517366
99	0xbdc504e6	-0.09620075
100	0x3da3d471	0.07999504
101	0xbdab6b72	-0.08370103
102	0x3d0331d7	0.032029953
103	0xbc80b0d3	-0.015709316
104	0x3d5fc727	0.054633286
105	0x3d5e854d	0.054326344
106	0x3d858aa9	0.06520588
107	0x3de27dd6	0.110591576
108	0x3d91bc15	0.07115952
109	0x3e0c1d48	0.13683045
110	0xbc161839	-0.009161049
111	0xbdefcf98	-0.11709517
112	0x3d820683	0.06348898
113	0x3d72ef20	0.05931008
114	0x3dcf8970	0.10133636
115	0xbd867d9d	-0.065669276
116	0xbd99bfbf	-0.07507276
117	0x3d4ed97c	0.050500378
118	0x3dad7bc9	0.08470876
119	0x3cfcb23a	0.030846704
120	0xbd24b3fb	-0.040210705
121	0x3d2aeb7a	0.041728474
122	0xbe09758b	-0.13423745
123	0xbd29e4dd	-0.041478027
124	0xbd83b4ab	-0.06430944
125	0x3deb3b40	0.114859104
126	0x3d564770	0.05231422
127	0x3cbc216a	0.022965152
128	0x3d382470	0.044956625
129	0xbd8fddde	-0.0702474
130	0xbd954eec	-0.07290444
131	0xbd05b4ab	-0.032643
132	0xbe004cf2	-0.12529352
133	0x3afe300d	0.0019392982
134	0x3cb3a435	0.021928886
135	0x3c7919da	0.015203917
136	0xbda894c3	-0.08231499
137	0x3d1b017a	0.037843205
138	0xbd9bae4a	-0.076016024
139	0x3dc817b7	0.09770148
140	0x3da17e03	0.07885363
141	0x3d170863	0.036873233
142	0x3d66fdfa	0.056394555
143	0x3c9d5440	0.019205213
144	0xbbda1c4e	-0.006656206
145	0xbe22ff1b	-0.15917628
146	0xbe0bcce3	-0.13652377
147	0x3d79b594	0.060964182
148	0xbd5bfdb1	-0.053708736
149	0x3d5d5f48	0.054045945
150	0x3b40f4b6	0.0029442734
151	0x3d793d31	0.060849372
152	0xbda3b1b6	-0.0799288
153	0x3d7890e4	0.060685053
154	0x3d98d4a7	0.07462435
155	0x3cc6665a	0.024218727
156	0xbdbdffc0	-0.09277296
157	0x3dbca1a2	0.092105165
158	0xbb952d35	-0.0045525082
159	0x3da5d46c	0.08097157
160	0x3d0ee76f	0.03488868
161	0xbd225cf5	-0.039639432
162	0x3e1266dd	0.14297052
163	0xbbc41140	-0.0059835017
164	0xbd198e0c	-0.037488982
165	0xbda98378	-0.08277029
166	0x3cd5e20a	0.02610876
167	0x3df27784	0.11839202
168	0x3cbcf125	0.023064205
169	0x3e18c1bd	0.14917655
170	0xbda29cee	-0.07940088
171	0x3dc070cf	0.093965165
172	0x3ddab41d	0.10678885
173	0xbe1910ad	-0.14947768
174	0x3df8adef	0.1214255
175	0x3da2464d	0.07923565
176	0xbd9b90bf	-0.075959675
177	0xbd1a7193	-0.03770597
178	0xbdb58cc5	-0.0886474
179	0x3d3f7b53	0.04674847
180	0x3e07f88e	0.1327841
181	0x3c774cde	0.01509401
182	0xbde01477	-0.10941403
183	0xbd9fb2ba	-0.07797761
184	0x3da78e27	0.0818141
185	0xbd5688ea	-0.052376665
186	0xbdcff9c9	-0.101550646
187	0xbcdcb505	-0.026941786
188	0xbdb030ed	-0.08603082
189	0x3d223cd2	0.039608784
190	0xbdc82294	-0.0977222
191	0xbdebfcaa	-0.11522801
192	0x3d2c144b	0.04201154
193	0x3e0817ae	0.13290283
194	0x3dbb8ce0	0.09157729
195	0xbd8c371e	-0.0684645
196	0x3d9ca69a	0.07648964
197	0x3d8e4a5e	0.06947778
198	0xbd0ec0c3	-0.0348518
199	0xbde35425	-0.11100034
200	0xbdbbd183	-0.091708206
201	0x3dd8594e	0.105639085
202	0xbdaebd5b	-0.085322104
203	0xbda13744	-0.07871869
204	0x3d6b384a	0.05742673
205	0xbd846015	-0.06463639
206	0xbc848bc1	-0.016179921
207	0xbd1573d8	-0.03648743
208	0x3decfa46	0.11571173
209	0x3de9cbde	0.11415838
210	0x3da5d406	0.08097081
211	0xbdc546c5	-0.09632639
212	0x3d8b5c02	0.068046585
213	0xbd823ed1	-0.063596375
214	0x3c06212d	0.008186621
215	0xbc993471	-0.018701764
216	0x3d4d9031	0.05018634
217	0x3dcc6649	0.09980447
218	0xbd6f1a06	-0.058374427
219	0xbda80a2b	-0.082050644
220	0x3dba393b	0.09092947
221	0x3d944a84	0.07240775
222	0x3d7e5e7f	0.062101837
223	0x3d6d93a1	0.058002118
224	0xbdaafefe	-0.08349417
225	0xbc94775c	-0.018123321
226	0x3dddd7c5	0.108321704
227	0x3d1ab2d8	0.037768215
228	0x3ce17e93	0.027526176
229	0x3d4c4b6e	0.049876623
230	0xbddd040d	-0.10791788
231	0x3d2ee216	0.04269608
232	0x3df50c9b	0.11965295
233	0xbd98e24c	-0.07465038
234	0xbbd627aa	-0.00653549
235	0x3e00bc2c	0.12571782
236	0xbc57431a	-0.013138557
237	0x3d7c063f	0.061529394
238	0x3cc83408	0.024438873
239	0x3e065d21	0.13121463
240	0x3d8210fa	0.06350894
241	0x3d9f1ff7	0.07769769
242	0x3d8c4c62	0.06850506
243	0xbe11684f	-0.14199947
244	0x3dce4df5	0.10073463
245	0x3d940922	0.072283044
246	0xbd65dc3d	-0.05611824
247	0x3d7ba8e9	0.061440382
248	0x3d22974f	0.03969508
249	0xbdbbeefe	-0.091764435
250	0xbd896a16	-0.067096874
251	0xbdc19481	-0.09452153
252	0xbc1d2e3e	-0.0095935445
253	0x3d61d3bb	0.055133563
254	0x3d22d965	0.039758105
255	0x3c76bbff	0.01505947

lstm.bias_ih_l0 f4 [256]
0	0x3d9e09cc	0.07716712
1	0x3dae5176	0.08511631
2	0x3e2b8a87	0.16752063
3	0x3c66e55c	0.0140927695
4	0xbd8d784a	-0.06907709
5	0x3e1e1d52	0.15440872
6	0xbb0abec2	-0.002117083
7	0xbd5167c9	-0.051124368
8	0x3ca7a91e	0.020466384
9	0x3cc5e5ec	0.024157487
10	0x3d9c8b22	0.07643725
11	0xbd9f5c72	-0.077813044
12	0x3df36865	0.11885146
13	0x3ddd48cd	0.10804901
14	0xbd285630	-0.04109782
15	0xbd0b7ce5	-0.034054656
16	0xbc702875	-0.014658083
17	0x3dfc6b8b	0.123252
18	0x3cf14019	0.02944951
19	0x3cf694a6	0.030100178
20	0x3db5d9e1	0.08879448
21	0x3dfdf06b	0.12399372
22	0x3c99b273	0.018761849
23	0x3e1b2e1b	0.15154307
24	0x3c467e62	0.012115093
25	0xbd9c950f	-0.07645618
26	0x3d53d44c	0.051716134
27	0x3dfe79d2	0.12425579
28	0x3d1dafe2	0.038497813
29	0x3dc7d5c1	0.09757567
30	0x3d903aa9	0.070424385
31	0x3ce5bd8d	0.028044486
32	0x3db3d0d2	0.08780064
33	0x3e107e7a	0.14110747
34	0x3df9c505	0.121957816
35	0x3d98c7dc	0.07459995
36	0x3c0da1a4	0.008644495
37	0xbc826893	-0.015919005
38	0xbda65009	-0.08120734
39	0x3d7a7aee	0.06115239
40	0x3d2bb68b	0.041922133
41	0x3db38663	0.087658666
42	0x3e141aed	0.14463396
43	0xbdf29bf5	-0.11846153
44	0x3d92fbcc	0.07176933
45	0x3db3578f	0.08756935
46	0x3db2e011	0.087341435
47	0x3cf8b239	0.03035842
48	0x3dd17a5b	0.102284156
49	0xbca826e6	-0.02052636
50	0xbc9ca839	-0.019123184
51	0xbd4771aa	-0.048692383
52	0x3decad2c	0.115564674
53	0xbd29517d	-0.04133748
54	0x3d9d4577	0.07679265
55	0x3e0434ec	0.12910813
56	0xbd53d8d6	-0.051720463
57	0x3e026eac	0.1273753
58	0xbc9eb1ef	-0.019371955
59	0x3d6f3409	0.058399234
60	0x3e10d6e2	0.14144471
61	0xbd5a5472	-0.05330319
62	0xbcf79c06	-0.030225765
63	0x3da24ebc	0.07925174
64	0xbd97d198	-0.07413024
65	0xbdc48af1	-0.095968135
66	0x3d63ae83	0.05558635
67	0xbb34f126	-0.0027609556
68	0x3e1f27bc	0.15542501
69	0x3dd9a924	0.10627964
70	0x3dc7957d	0.097453095
71	0xbd06f5c7	-0.032949235
72	0x3d613324	0.054980412
73	0xbd83c911	-0.06434835
74	0x3de8217b	0.11334511
75	0xbd779d66	-0.06045284
76	0xbd67ecbe	-0.05662226
77	0x3e20e83e	0.15713593
78	0xbcb7eab2	-0.022450779
79	0x3deab0a1	0.114594705
80	0x3bc29336	0.005937959
81	0x3e24e94a	0.16104618
82	0xbd577f58	-0.05261168
83	0xbd595098	-0.053055376
84	0x3d73952c	0.059468433
85	0x3dd7e1de	0.105411276
86	0xbdd69ce5	-0.10479144
87	0xbd959e82	-0.073056236
88	0x3d54324f	0.05180579
89	0xbd800b58	-0.06252164
90	0x3d327409	0.04356769
91	0xbdbdbdd5	-0.09264723
92	0xbd5719e4	-0.052514926
93	0x3dea6593	0.11445155
94	0xbd5a785b	-0.053337436
95	0x3d7f4c15	0.062328417
96	0x3df7372e	0.120710716
97	0x3d53b748	0.051688462
98	0xbbfa1e9b	-0.007633043
99	0xbcfafc09	-0.030637758
100	0xbc797389	-0.0152253
101	0x3d9396fa	0.07206531
102	0xbe075615	-0.13216431
103	0xbc9d706a	-0.019218642
104	0x3db97a72	0.09056558
105	0x3dcbf2ae	0.09958397
106	0xbcb28ef4	-0.021796681
107	0xbd8578b8	-0.06517166
108	0x3c0436c9	0.008069702
109	0xbc15c3ed	-0.009140951
110	0xbd382faa	-0.04496733
111	0x3c68e536	0.014214804
112	0x3dfb244e	0.12262784
113	0x3de81583	0.11332228
114	0x3ce8227c	0.028336756
115	0x3d8232ec	0.06357369
116	0x3c472e77	0.012157074
117	0xbda0e53f	-0.07856225
118	0x3d355f16	0.044280134
119	0x3d38f185	0.045152206
120	0xbd1fa48c	-0.038975284
121	0xbdb7f538	-0.08982319
122	0xbdacc335	-0.0843567
123	0x3dda23fe	0.10651396
124	0xbd39d237	-0.045366492
125	0xbd8efb41	-0.06981517
126	0xbd6d9047	-0.05799892
127	0x3e0b5be5	0.13609274
128	0xbc35286b	-0.011057
129	0x3d861e61	0.06548763
130	0x3e241a33	0.16025619
131	0x3c4107fa	0.011781687
132	0xbe2ad61b	-0.16683237
133	0x3e432338	0.19056404
134	0x3d8dda12	0.06926359
135	0xbdb19680	-0.08671284
136	0x3d4e5349	0.050372396
137	0xbbfd1687	-0.0077236327
138	0xbdd4e573	-0.103953265
139	0xbd8f86c8	-0.07008129
140	0xbd396dd4	-0.045270756
141	0xbd8057cc	-0.06266746
142	0x3e4cf8ff	0.2001686
143	0x3d2b9664	0.04189147
144	0x3cf0ed92	0.029410157
145	0xbc686f1b	-0.014186646
146	0xbd5537dc	-0.052055225
147	0xbbf2fc74	-0.0074153487
148	0xbe1418cc	-0.14462584
149	0xbc65773c	-0.0140054785
150	0x3e267153	0.16254167
151	0x3dda17ec	0.10649094
152	0xbcbf8000	-0.023376465
153	0x3db00956	0.08595531
154	0x3e0a52b0	0.13508105
155	0xbd217e82	-0.039427288
156	0xbdf06fb1	-0.117400534
157	0x3bf9de40	0.007625371
158	0x3caad12d	0.020851696
159	0x3c3599b1	0.011084006
160	0xbdd1b216	-0.10239045
161	0x3e400c53	0.18754701
162	0x3d957acb	0.072988115
163	0x3df455c3	0.1193042
164	0x3cc6a331	0.024247738
165	0xbcf835cf	-0.030299095
166	0x3dced39c	0.10098955
167	0xbd8b506e	-0.0680245
168	0x3c168656	0.009187302
169	0x3c9fe43a	0.019518007
170	0xbd50928d	-0.05092101
171	0x3e1e0eca	0.15435329
172	0xbd61dca6	-0.055142067
173	0xbdb3db82	-0.08782102
174	0x3d24e4f2	0.0402574
175	0xbe105433	-0.1409462
176	0xbcf3a31e	-0.029740866
177	0x3e0720b5	0.1319607
178	0xbdb02187	-0.08600145
179	0xbd84efa8	-0.06491023
180	0x3e13d0a8	0.14435065
181	0x3e29728a	0.165476
182	0xbe034cf0	-0.12822318
183	0xbd047582	-0.032338627
184	0xbe00490e	-0.12527868
185	0xbe3d5c7a	-0.18492308
186	0x3a7d9a48	0.0009674174
187	0x3e1a6a6d	0.1507966
188	0x3ddd1886	0.10795693
189	0xbd73ce22	-0.059522755
190	0xbe09eeb5	-0.13469966
191	0xbdbf29ed	-0.093341686
192	0xbd47e0e5	-0.04879846
193	0xbda4b241	-0.08041812
194	0xbd2b1ac4	-0.041773573
195	0xbdad6006	-0.08465581
196	0x3e2d70ba	0.16937533
197	0xbd42c9fc	-0.04755591
198	0x3d206a4f	0.039163884
199	0x3d33e701	0.043921474
200	0x3dc78736	0.09742586
201	0x3d47d402	0.04878617
202	0x3e4ee92b	0.20206134
203	0x3e0fefaf	0.14056276
204	0xbbd4b2d3	-0.006491044
205	0x3e22378b	0.158415
206	0x3ce21ffb	0.02760314
207	0x3de2a4d0	0.11066592
208	0x3cb1a956	0.021687191
209	0x3d3faa0d	0.046793032
210	0x3d991a41	0.07475711
211	0xbc97c1cd	-0.018525029
212	0xbc31aac2	-0.0108439345
213	0xbc3501bb	-0.011047776
214	0x3d3327a1	0.043738965
215	0x3c65f829	0.014036217
216	0x3d0509ef	0.032480177
217	0x3d84a2e1	0.06476379
218	0xbd80b6a3	-0.06284835
219	0x3e133ad9	0.14377917
220	0x3de41ed5	0.11138693
221	0x3e20af4d	0.15691872
222	0x3cbcad3d	0.023031825
223	0xbd82ad8c	-0.06380758
224	0x3dc7cd5e	0.097559676
225	0xbb8789ea	-0.0041363137
226	0x3db8f88e	0.09031783
227	0x3bd88a53	0.0066082864
228	0x3dbe2074	0.09283534
229	0xbb924be5	-0.0044646137
230	0x3da80af4	0.08205214
231	0x3dd151d7	0.10220688
232	0x3d8530b4	0.0650343
233	0x3d2f3a6e	0.042780332
234	0x3dc53f1a	0.09631176
235	0x3df05967	0.11735802
236	0xbd839367	-0.06424599
237	0xbda7ee9d	-0.08199809
238	0x3db8f4e0	0.09031081
239	0x3e1967b3	0.14980964
240	0x3cee7e42	0.029112939
241	0x3cf83231	0.03029737
242	0x3d1fd6d7	0.039023247
243	0x3e1eadca	0.15495983
244	0x3d8bf72e	0.06834255
245	0xbcb8b399	-0.022546576
246	0x3ba80291	0.005127259
247	0xbbd3e0c4	-0.006466003
248	0x3e14d6ac	0.14535016
249	0x3e2385da	0.15969029
250	0x3bc209cf	0.0059215794
251	0xbd07b5c0	-0.033132315
252	0xbd33a021	-0.043853883
253	0x3dc31f60	0.09527469
254	0x3db38b07	0.08766752
255	0x3daf5769	0.08561594

lstm.bias_hh_l0 f4 [256]
0	0xbd8a2fd0	-0.06747401
1	0xbc75576c	-0.014974456
2	0x3e1ff448	0.1562053
3	0x3bea1c3f	0.0071444805
4	0xbd88d799	-0.06681747
5	0x3d738622	0.05945409
6	0x3b2247dc	0.002476207
7	0x3d662bc7	0.056194093
8	0xbd8bd8ae	-0.06828438
9	0x3d212307	0.039340045
10	0x3d6b32b7	0.057421412
11	0x3e27392e	0.16330406
12	0x3e0485e6	0.12941703
13	0x3dcde09f	0.10052609
14	0xbd0d3718	-0.03447637
15	0xbda22afe	-0.07918356
16	0x3dd30ed4	0.103055626
17	0xbdb385fe	-0.08765791
18	0xbc9ee2d8	-0.019395277
19	0x3ce26322	0.02763516
20	0xbd86a526	-0.06574468
21	0x3dde5c52	0.108574525
22	0x3d8758af	0.06608712
23	0x3d26a7a1	0.040687207
24	0xbc9a3adc	-0.018826894
25	0x3d3babdf	0.045818206
26	0x3ddb537b	0.10709282
27	0x3d35731e	0.044299237
28	0x3d28f88c	0.041252658
29	0x3e1a65b4	0.15077859
30	0xbc540fa6	-0.012943184
31	0xbdf3dec2	-0.11907722
32	0x3dfe66b9	0.124219365
33	0x3c0d172d	0.008611483
34	0x3e53b159	0.20673122
35	0x3d40eab8	0.047098845
36	0xbd81513f	-0.063143246
37	0xbcff3949	-0.031155245
38	0x3b2831ba	0.0025664405
39	0xbca78f82	-0.020454172
40	0x3d2aeded	0.04173081
41	0x3c281bfe	0.01026058
42	0x3d5465ba	0.051854827
43	0xbdcf2dbb	-0.10116144
44	0x3ded4084	0.11584571
45	0x3da64b4e	0.08119832
46	0xbd6bfcdd	-0.057614196
47	0xbd29a1b0	-0.041413963
48	0x3d9fd269	0.078038044
49	0xbd0af100	-0.03392124
50	0x3e0efcb1	0.13963582
51	0x3d432ba9	0.04764906
52	0x3d5e9b08	0.054347068
53	0x3d180a8d	0.037119437
54	0x3cc8d98b	0.024517795
55	0x3d8494f1	0.06473721
56	0xbd8edb80	-0.0697546
57	0x3d8ba853	0.06819215
58	0xbcaa2e41	-0.020774009
59	0x3d943a74	0.072377115
60	0xbd849095	-0.06472889
61	0x3de67fa9	0.11254818
62	0x3c2939b8	0.010328703
63	0x3d6b7799	0.057487104
64	0xbc646e7a	-0.013942355
65	0x3df35f46	0.11883406
66	0x3db39ef1	0.0877055
67	0xbd8700f0	-0.06591976
68	0x3c8d1fc5	0.017227063
69	0xbd9f0140	-0.0776391
70	0xbc193750	-0.009351566
71	0x3d0537ac	0.032523796
72	0x3d330f91	0.043716017
73	0xbd11c602	-0.035589226
74	0x3de494bd	0.11161182
75	0xbd02bd05	-0.031918544
76	0xbd307ba2	-0.043086655
77	0x3ba8e43d	0.0051541612
78	0xbd495865	-0.049156565
79	0xbd1fc2c0	-0.039004087
80	0xbd42442f	-0.047428306
81	0x3d305492	0.043049403
82	0x3dc448a7	0.0958417
83	0x3ac5472c	0.0015051118
84	0x3e203086	0.1564351
85	0xbd16bbb3	-0.036800098
86	0xbd3efc80	-0.04662752
87	0xbce82154	-0.028336205
88	0xbd8fa54d	-0.070139505
89	0xbc4f3266	-0.012646293
90	0x3d45328d	0.048143912
91	0xbd7ce514	-0.061741903
92	0xbd97b106	-0.074068114
93	0xbd92c5a0	-0.071666
94	0xbbd1fd37	-0.0064083594
95	0xbd5f4555	-0.05450948
96	0xbd8b5b90	-0.068045735
97	0x3c2643f4	0.010148037
98	0x3df9cf8b	0.12197789
99	0x3c3dcff1	0.011585222
100	0x3d87150e	0.06595813
101	0x3e11737a	0.14204207
102	0x3baa951f	0.005205765
103	0xbd8f1560	-0.06986499
104	0xbd4c061a	-0.049810506
105	0xbd510b18	-0.05103597
106	0x3e022be5	0.12712057
107	0xbe043543	-0.12910943
108	0xbc97d0ff	-0.018532274
109	0xbd0b0418	-0.03393945
110	0x3db59dde	0.088680014
111	0x3d6ec227	0.058290627
112	0xbd31a96d	-0.043374468
113	0x3c129f70	0.008949146
114	0xbc9e0358	-0.019288704
115	0x3e0559ed	0.13022585
116	0x3df39c7e	0.11895083
117	0x3cebd3ff	0.028787611
118	0x3e0cf335	0.13764651
119	0x3d41add3	0.047284912
120	0x3e057db2	0.1303623
121	0x3dd09925	0.1018546
122	0xbb40a33d	-0.0029394173
123	0xbcd9a328	-0.026567057
124	0x3d64aea5	0.055830617
125	0xbdd5e52e	-0.10444103
126	0x3d889ab0	0.06670129
127	0x3dde0c00	0.108421326
128	0xbd203ea5	-0.039122242
129	0x3d7f6dea	0.06236068
130	0xbc477b88	-0.012175448
131	0xbda3e9f3	-0.08003607
132	0xbe24c66a	-0.16091314
133	0x3d1935e6	0.037404917
134	0xbe0b8054	-0.13623172
135	0x3d9f74ea	0.077859715
136	0x3dc71a4c	0.097218126
137	0x3d592371	0.053012315
138	0xbe50e356	-0.20399222
139	0x3defc541	0.11707545
140	0x3e129cf0	0.1431768
141	0xbde69583	-0.11258986
142	0xbc00e3a1	-0.007866771
143	0xbd97881e	-0.07399009
144	0x3e16c10c	0.14722079
145	0x3dc929ec	0.09822449
146	0xbda5b4cf	-0.08091127
147	0xbe31a1a4	-0.17346817
148	0xbe4631eb	-0.1935498
149	0x3dd6db6b	0.104910694
150	0x3e2f83a7	0.17140065
151	0x3d635367	0.05549946
152	0xbe0ae49d	-0.13563772
153	0xbd50428d	-0.050844718
154	0x3e31bda8	0.17357504
155	0x3d05d8ed	0.03267758
156	0xbd518314	-0.051150396
157	0x3c79df60	0.015251011
158	0xbd363a6e	-0.044489317
159	0x3d87a122	0.066225305
160	0xbdbc26ce	-0.09187089
161	0x3e1bc49b	0.15211718
162	0xbd0f798a	-0.035028018
163	0x3db404bc	0.087899655
164	0x3c6d20de	0.014473168
165	0x3c822ad1	0.015889557
166	0xbd5458a9	-0.051842365
167	0x3df1ba20	0.11803079
168	0x3d602834	0.05472584
169	0x3e49afc1	0.19695951
170	0x3dde4161	0.10852314
171	0x3d8cf228	0.06882125
172	0x3e290ca3	0.16508727
173	0xbe0fed84	-0.14055449
174	0xbe20df7e	-0.15710256
175	0x3c9bdc68	0.019025996
176	0xbe28e7d5	-0.16494687
177	0xbd8ea6ed	-0.06965432
178	0xbdc194f7	-0.09452241
179	0xbb5512a5	-0.0032512334
180	0x3dedd5ce	0.11613046
181	0x3dda7fe0	0.106689215
182	0xbe0e51e7	-0.13898431
183	0x3c6d9ac6	0.014502233
184	0x3d8ce164	0.06878927
185	0x3c9c0ded	0.01904961
186	0x3d4eb7ba	0.050468184
187	0x3d6271f6	0.055284463
188	0x3e18e6a6	0.14931735
189	0xbe2f5b08	-0.1712457
190	0xbe0e1185	-0.1387387
191	0xbe0d3065	-0.13787992
192	0x3e026fdc	0.12737983
193	0x3e0ad202	0.13556674
194	0x3e1a1931	0.15048672
195	0xbd6e0e52	-0.058119126
196	0xbccfdc28	-0.025373533
197	0xbc0e599c	-0.008688357
198	0xbd801203	-0.062534355
199	0x3e2525ed	0.16127749
200	0x3d95f53d	0.07322166
201	0x3e09d572	0.13460329
202	0x3e0e5b67	0.13902055
203	0xbdc1cbf7	-0.09462731
204	0x3d31511e	0.04329025
205	0xbd2ae9d2	-0.041726895
206	0x3dfedec2	0.124448314
207	0xbd965253	-0.07339921
208	0x3dc09064	0.0940254
209	0xbd895fa5	-0.06707696
210	0x3d468cee	0.048474245
211	0xbd308c41	-0.043102507
212	0x3d926bcd	0.071494676
213	0x3d1cf0b3	0.038315486
214	0x3dd86cf5	0.10567657
215	0x3da2c51d	0.079477526
216	0x3d8aee38	0.06783718
217	0x3da86386	0.082221076
218	0x3d6e18e2	0.0581292
219	0x3db6881a	0.08912678
220	0xbd12bc1e	-0.035823934
221	0xbdb08a36	-0.08620112
222	0x3cb785f0	0.022402734
223	0x3a1e2ef7	0.000603422
224	0xbbd42226	-0.0064737974
225	0x3d69478a	0.05695299
226	0x3e65b508	0.22432339
227	0x3c0a3a92	0.008436816
228	0x3cf0e42e	0.02940568
229	0x3e251d1b	0.16124384
230	0xbdfb2644	-0.12263158
231	0xbd1a6572	-0.037694402
232	0xbdaf32ac	-0.08554587
233	0x3a855329	0.0010171878
234	0x3ddb1d63	0.106989644
235	0x3c9ee8b2	0.019398067
236	0x3d94b3c3	0.07260849
237	0x3d820af2	0.06349744
238	0xbd3c6a47	-0.04599979
239	0x3e2e8ef2	0.17046717
240	0x3c86cb5f	0.016454397
241	0xbd5b2a42	-0.053507097
242	0x3de725e8	0.11286527
243	0x3e1a6f19	0.15081443
244	0x3e3ff2e1	0.18744995
245	0xbc3709d9	-0.011171781
246	0x3df2b160	0.11850238
247	0xbd92525e	-0.071446165
248	0x3c79197c	0.01520383
249	0x3df2e9ea	0.11861022
250	0xbd34c942	-0.044137247
251	0xbbde6977	-0.0067874747
252	0x3e31f6a8	0.17379248
253	0xbd849455	-0.064736046
254	0xbdbfe0b3	-0.0936903
255	0x3dc6f8c9	0.09715421

fc1.weight f4 [32, 64]
0	0xbd08f067	-0.03343239
1	0x3da64ad2	0.081197396
2	0xbd7d4c07	-0.061840083
3	0xbdbf7f33	-0.09350433
4	0xbdcf5c10	-0.101249814
5	0xbd55be23	-0.05218328
6	0xbcc144f9	-0.023592459
7	0xbd1b7561	-0.037953738
8	0x3d9c82b8	0.0764212
9	0x3c8fd221	0.017556252
10	0x3c4fd57d	0.012685177
11	0xbd5816bb	-0.052756052
12	0x3cf4c08f	0.029876975
13	0xba4a3b22	-0.00077145
14	0xbcf1d1f7	-0.029519064
15	0x3db46dcc	0.088100046
16	0x3b96665a	0.004589838
17	0x3d97072d	0.073744155
18	0xbe0366de	-0.1283221
19	0xbdd30375	-0.10303394
20	0x3cc31018	0.023811385
21	0xbdd9087e	-0.10597323
22	0xbd44ee9b	-0.048079114
23	0xbdcd0b61	-0.10011936
24	0xbe25df26	-0.16198406
25	0x3da35d40	0.079767704
26	0xbd125feb	-0.035736006
27	0x3dcb7322	0.09934069
28	0xbd0fe71a	-0.035132505
29	0x3d0c54e5	0.03426065
30	0x3caf10c1	0.021370294
31	0xbdf2dc86	-0.11858468
32	0xbe093326	-0.13398418
33	0x3e142bcf	0.14469837
34	0x3d699822	0.05702985
35	0xbd126d4b	-0.03574876
36	0x3df346b5	0.11878721
37	0xbbcb1787	-0.006197873
38	0xbe0346a5	-0.12819918
39	0xbd8fa6e3	-0.07014253
40	0x3d870971	0.06593598
41	0x3e09b0e1	0.1344638
42	0xbd71e2cb	-0.059054177
43	0x3cf4a115	0.029861966
44	0x3d399e48	0.045316964
45	0x3e035f1e	0.12829253
46	0xbcce0245	-0.025147567
47	0xbe343fce	-0.17602465
48	0xbd28ad45	-0.041180868
49	0xbd0ea034	-0.03482075
50	0x3d3f9ae7	0.046778586
51	0xbddb7e78	-0.107174814
52	0x3e29e1ab	0.16589992
53	0x3dcb3b68	0.0992344
54	0xbd8212e6	-0.06351261
55	0xbdc05edd	-0.09393094
56	0x3b370f56	0.0027932725
57	0xbe02d45d	-0.12776323
58	0x3d9eed2a	0.07760079
59	0xbd5d04a9	-0.053959522
60	0xbc5fe5f2	-0.013665663
61	0xbda88953	-0.082293175
62	0x3d122ab2	0.03568525
63	0x3cc2f805	0.023799906
64	0xbdb26ac9	-0.08711774
65	0xbe0240f5	-0.12720092
66	0x3d8c8a79	0.06862349
67	0xbde185ba	-0.110118344
68	0x3d37cf35	0.044875342
69	0x3bd05025	0.00635721
70	0xbd91cd55	-0.07119242
71	0x3c83d6a3	0.016093558
72	0xbd169f19	-0.03677282
73	0x3dbedccf	0.0931946
74	0x3e15c98f	0.1462767
75	0x3d9c0deb	0.07619842
76	0x3d9dbd64	0.07702139
77	0x3dee1b3b	0.116262875
78	0x39268efa	0.00015884257
79	0xbdb72635	-0.08942834
80	0x3d4338fd	0.04766177
81	0x3d09338a	0.033496417
82	0xbda6a54a	-0.08136995
83	0xbca52271	-0.020158025
84	0x3da90004	0.08251956
85	0xbd923f95	-0.071410336
86	0x3d90d7a9	0.07072384
87	0x3d70f5ae	0.05882805
88	0xbd3472b6	-0.04405471
89	0x3ca4daa1	0.020123782
90	0x3ddee3b6	0.10883276
91	0xbde4d3c3	-0.11173203
92	0x3d9cb84d	0.0765234
93	0xbdf27cd1	-0.11840213
94	0x3d27a114	0.0409251
95	0x3d58cdc1	0.052930597
96	0xbd9cc01c	-0.076538295
97	0xbd3a4a53	-0.045481037
98	0x3c07fb7f	0.008299707
99	0x3b956cab	0.0045600734
100	0x3dc0819a	0.093997195
101	0x3d79729b	0.060900312
102	0x3d03c0d4	0.032166317
103	0xbd7706b9	-0.060309146
104	0xbdaea6d3	-0.08527913
105	0xbdc156c7	-0.094403796
106	0xbbb2e0bf	-0.0054589207
107	0xbd9c8956	-0.07643382
108	0x3a411c3c	0.0007366573
109	0x3ddc6a4e	0.107624635
110	0x3ccad62e	0.024760332
111	0xbd8cb174	-0.06869784
112	0xbdcf50c4	-0.10122827
113	0x3dddeb28	0.10835868
114	0xbdcbfbf8	-0.099601686
115	0x3de7663d	0.11298797
116	0xbc8bce19	-0.017066048
117	0x3dd7da1d	0.10539649
118	0xbd3f03a5	-0.046634335
119	0x3db5869f	0.088635676
120	0xbd1d8456	-0.038456284
121	0x3e037b8d	0.128401
122	0xbd9c1f53	-0.07623162
123	0xbd81c4ba	-0.06336351
124	0x3d718ab3	0.058970165
125	0xbe0543f6	-0.13014206
126	0x3e1037dd	0.1408381
127	0xbd8fb772	-0.07017411
128	0xbdcf181a	-0.10112019
129	0xbdbf0b69	-0.09328348
130	0xbd48f168	-0.049058348
131	0x3cd23127	0.025658203
132	0xbbcc0197	-0.0062257755
133	0xbdaa0b4b	-0.08302935
134	0x3d7fa978	0.062417477
135	0x3dbd4f14	0.092435986
136	0xbd8063ea	-0.06269057
137	0xbd311c4c	-0.043239877
138	0x3d6740f6	0.056458436
139	0x3c953a55	0.018216291
140	0x3cff78ee	0.031185593
141	0x3e13a16e	0.1441705
142	0xbce77024	-0.028251715
143	0xbda10fc9	-0.07864339
144	0x3d908d0a	0.07058151
145	0xbd68b85d	-0.056816448
146	0xbdbaf071	-0.09127892
147	0x3d8ffe7c	0.07030961
148	0xbd95d494	-0.07315937
149	0xbda1c4d5	-0.07898871
150	0xbd84d91d	-0.064867236
151	0x3ca69533	0.020334816
152	0xbdb414f5	-0.0879306
153	0xbdefaa05	-0.117023505
154	0xbc7ceb28	-0.015436925
155	0x3d88dc28	0.066826165
156	0xbc1c0b5e	-0.0095241945
157	0x3d6f53c5	0.0584295
158	0x3d9424f2	0.07233609
159	0xbdb5882a	-0.08863862
160	0xbd93460b	-0.07191094
161	0x3d37d44a	0.04488019
162	0xbdd5fb4f	-0.10448324
163	0x3da37581	0.079813965
164	0xbc146fa2	-0.009059818
165	0xbc2ef913	-0.010679501
166	0xbde43058	-0.11142033
167	0xbd183ef3	-0.037169408
168	0xbc875141	-0.016518237
169	0x3da67cfb	0.08129307
170	0xbd82947c	-0.063759774
171	0xbd274eeb	-0.040846746
172	0x3d78d939	0.060754035
173	0xbd45d518	-0.048298925
174	0x3dd6e305	0.10492519
175	0xbdc6c55f	-0.09705614
176	0xbd779b5d	-0.0604509
177	0xbd8ff338	-0.07028812
178	0xbd22bba5	-0.039729733
179	0x3deed424	0.11661556
180	0x3a141730	0.0005649207
181	0xbd789b60	-0.060695052
182	0xbc03c842	-0.008043351
183	0x3dbcfb52	0.09227623
184	0x3d84a029	0.064758606
185	0x3e266a34	0.16251451
186	0xbd9ef58b	-0.07761677
187	0xbd22e51c	-0.039769277
188	0x3d682297	0.056673612
189	0xbd75627f	-0.059908386
190	0xbd261e86	-0.040556453
191	0x3d962e64	0.07333067
192	0x3e026469	0.12733616
193	0x3b4f8134	0.0031662704
194	0x3de718e1	0.11284042
195	0xbcc0fb86	-0.023557436
196	0x3d777721	0.060416345
197	0xbd1c1b4c	-0.03811197
198	0x3da3c6a9	0.07996876
199	0xbcdc9204	-0.026925094
200	0xbe02aa9c	-0.12760395
201	0xbca79470	-0.020456523
202	0x3c9653c3	0.018350488
203	0xbe0ec727	-0.13943158
204	0xbcfff071	-0.031242581
205	0xbe3f5e2d	-0.18688269
206	0x3abc18f5	0.00143507
207	0x3dddb25e	0.108250365
208	0xbb7409cb	-0.0037237282
209	0x3dfad418	0.12247485
210	0xbc6c1fb2	-0.014411854
211	0x3a3a2182	0.000710033
212	0xbe1b33e0	-0.15156507
213	0xbe06ab28	-0.13151228
214	0x3e330991	0.17484118
215	0x3d039af1	0.032130186
216	0xbdc0c229	-0.09412033
217	0x3de8d79d	0.1136925
218	0x3d0125c6	0.031530164
219	0xbda0063a	-0.078136876
220	0xbc7defc2	-0.015499057
221	0xbd4dc9d7	-0.050241318
222	0x3dd6bd0e	0.10485278
223	0xbca01246	-0.019539963
224	0x3d1c3713	0.03813846
225	0x3e25466c	0.16140145
226	0x3dc6d900	0.09709358
227	0xbc2e6484	-0.010644082
228	0xbddd8d61	-0.108179815
229	0xbdacbdf0	-0.08434665
230	0xbd6c57d7	-0.057700958
231	0x3c5d0df3	0.013492095
232	0xbd6d497e	-0.057931416
233	0x3da1bd95	0.07897488
234	0x3d7aed33	0.061261367
235	0x3d5ddab5	0.054163653
236	0x3e1b6357	0.15174614
237	0xbdbbc337	-0.09168094
238	0x3df22c0c	0.118248075
239	0xbe3835a5	-0.17989214
240	0xbddf2342	-0.10895397
241	0x3dda716b	0.10666164
242	0x3cb92a12	0.022603069
243	0xbc67c9ef	-0.014147266
244	0xbcda7dbf	-0.026671289
245	0x3e24ab24	0.1608091
246	0x3c21567e	0.0098472815
247	0x3d2839e9	0.041070852
248	0xbe466ff1	-0.1937864
249	0xbdd40ecd	-0.103543855
250	0xbd8491b3	-0.064731024
251	0x3cce043a	0.0251485
252	0x3d90e0c4	0.07074121
253	0xbdd57e65	-0.104244985
254	0xbe1b8e5c	-0.15191025
255	0xbe2ad87c	-0.16684145

fc1.bias f4 [32]
0	0xbd5c3f8a	-0.053771533
1	0xbd9c07fd	-0.07618711
2	0x3da565b5	0.0807604
3	0x3e29ffa0	0.1660142
4	0xbdf57627	-0.119854264
5	0x3e12fc7f	0.14354132
6	0x3e2bab08	0.16764462
7	0xbdbd40ae	-0.09240852
8	0x3d946e5d	0.072476126
9	0x3e23d78d	0.16000195
10	0xbd34fa5c	-0.044184074
11	0xbb8d1bdf	-0.004306301
12	0x3d02f51e	0.031972043
13	0x3caf67a4	0.021411724
14	0xbc69585f	-0.014242261
15	0xbbdf5ece	-0.0068167215
16	0x3d17449c	0.036930665
17	0x3e2924f0	0.16517997
18	0xbd75a00d	-0.05996709
19	0x3e1e391e	0.15451476
20	0xbe06af1b	-0.13152735
21	0x3e180fe5	0.14849813
22	0x3de1b40a	0.11020668
23	0xbd9af920	-0.07567048
24	0xbc47a6a1	-0.0121857235
25	0x3e08e496	0.13368449
26	0xbd529343	-0.05140997
27	0xbd9e4913	-0.077287816
28	0x3baa1fb9	0.00519177
29	0x3d82832e	0.06372677
30	0x3d99e134	0.07513657
31	0x3df12d6d	0.117762424

fc2.weight f4 [1, 32]
0	0xbe30680a	-0.17227188
1	0x3dcc1afc	0.09966084
2	0x3c410831	0.011781738
3	0xbe064d73	-0.13115482
4	0x3d8aaa8a	0.06770809
5	0xbe5fcf10	-0.21856332
6	0xbe8ef4ad	-0.27921048
7	0x3dc88e6b	0.09792789
8	0xbe045ade	-0.12925288
9	0xbe544746	-0.20730314
10	0xbd56a366	-0.052401923
11	0x3e573299	0.21015395
12	0x3d538ab8	0.051645964
13	0x3df10a19	0.11769504
14	0xbdc1639f	-0.09442829
15	0xbe5017d1	-0.20321585
16	0x3e0c55bd	0.13704582
17	0xbe254052	-0.16137818
18	0x3e744ad0	0.23856664
19	0xbe40ee31	-0.18840863
20	0xbd912c18	-0.07088488
21	0xbde29c74	-0.11064997
22	0xbdec74ff	-0.11545753
23	0xbe277b45	-0.16355617
24	0xbdd25a70	-0.10271156
25	0xbe387016	-0.18011507
26	0x3c7af1a5	0.015316402
27	0x3e1fca28	0.1560446
28	0x3c7ea305	0.015541797
29	0xbe184f6b	-0.14874046
30	0xbe1ba2a9	-0.15198769
31	0x3e6da770	0.23208404
