model_checkpoint.pth (torch, 21313 bytes, 5 tensors)

fc1.weight f4 [64, 4]
00000000: 1029 a73d 1076 91be 60df b93e deca b4be
00000010: e2a3 b6be f194 cebe fbeb 83be 728d 1ebe
00000020: 9652 ebbe aed9 8d3e 480f 59be 82e8 c7be
00000030: c393 f53e 3ffb 38be 64b8 8d3e 0841 03bf
00000040: b874 c1be d2d6 9cbe f8bf 123e 8046 5d3c
00000050: f8b8 c2bd 39da f53e 2767 903e 9355 01be
00000060: 66dc 40be 355b ac3e 5dd9 f53e 5ecc 0cbe
00000070: daf4 473d b685 fe3c 1f02 a73e 29fe 9bbd
00000080: 5fb6 0d3e 0ee5 f63e 4e29 09bc 1ef4 593e
00000090: 2e39 8abe 74ab ac3e 3ee2 b6be 60fa 76bd
000000a0: f315 b53e ff2c d73c f064 bd3e 5432 8bbe
000000b0: ac09 033e e05a 7abe 80b7 20bd 802b 113d
000000c0: 2065 bebe fe59 663e 805c 9ebe 4bff 243e
000000d0: 9c68 29be 6224 d3be 384d 9f3d 80cb 7dbd
000000e0: eafd 853e 3ae2 1abe a03f 4b3c 4de1 1b3e
000000f0: 572d aebd 5d8e db3e f632 5e3d 29e3 2d3e
00000100: 5c97 403e 3033 743e 8e33 093e c329 e13e
00000110: a4b5 ddbe c01e be3e c0e9 dcbd 38bf cabe
00000120: e1f2 983e 53e8 a4be 94de 883e d87f c43e
00000130: 92ce 7fbe 38bc ea3e 2d0c 0fbe b53c a1bd
00000140: 7093 a63d 9c61 1d3e 00ba e9be 109c 67bd
00000150: 4e54 c33e 8bd3 b3be 51be 9d3e e7f8 a43e
00000160: 3135 cb3e 2de5 513e 36df 663d bc61 94bd
00000170: f8d1 223e d632 d33e 293b 7bbe 7238 6a3e
00000180: bcf5 bfbe 6cef 5b3e 56a8 c73e 9e27 e1be
00000190: 7d15 bb3e 3e0d debc 467b a13d 9395 113e
000001a0: 8f34 1fbe 0482 593d b5a7 863d 076f 613d
000001b0: 8bc8 e5be 266d ef3e a364 803e 15c4 443e
000001c0: 1220 853d f7d6 b43e 8f12 cd3e 63cb 8cbe
000001d0: 7e6c afbe a84e 7dbe 7f77 8d3e 371b acbe
000001e0: 9fd2 313d 14f5 32bd b45e 4c3d 4d3b f13d
000001f0: 7643 223e 7a73 b5bd a0fa adbe d05d 4d3e
00000200: 4e34 b93d 87c4 b63e a4ab 7f3c e93e ea3d
00000210: 4c86 8d3e 23fb 6d3e eea8 c43e 143c 8e3e
00000220: b11c ffbd 4178 9f3e 0ea3 6f3e 33fa 29be
00000230: f158 7f3e f3b7 f43d d846 8fbe 981d a63e
00000240: 0e17 ee3c af64 853d 7b3a a33d f8a0 7f3e
00000250: e225 d0be 7803 b93e 97b2 f73e 6d11 dfbc
00000260: 5984 33be 0a15 e33d a5f2 4e3e 132a ecbd
00000270: 5c59 ba3e 8de5 24be 72ad 903e 47a4 6abd
00000280: aa17 b4be 2c3e 97be a807 52be e62b f0be
00000290: ba55 41be 661d fcbe 1c27 86bd f9bb 89be
000002a0: c9d8 9b3e 0209 8bbe 87b6 d5be b6cc cbbe
000002b0: 292f e5be 4928 afbe 9130 51bd eb9d c8bd
000002c0: c2f6 81be 0dc1 c7be dc45 6abe 8fc5 2bbe
000002d0: db9a d73e cbbb 63be 1892 4abe e56d 1bbe
000002e0: 1a0e 59be c268 b63e 2eff c0bd 00d9 333e
000002f0: a060 f83e 6711 efbd 3f43 ecbc 492e debe
00000300: f0ad 53be 52f3 c73e 6c67 2b3e a8b0 63be
00000310: 890f d13e 3243 e9bc 99e7 473e 634c 3a3e
00000320: 4f26 db3d 2afd 59be 7870 773e 332d 54be
00000330: 4d8c c93b 7859 e93d 7b88 8fbe b19e d8bc
00000340: f6ad ac3e 8d7f e63e f5be 933e 56f7 3abd
00000350: 8cf9 abbe c820 b5bd 90a1 2cbe 6089 b2be
00000360: 2a97 f6be 5838 b5bd 6028 003d 80ae b0bb
00000370: e350 c6be e412 c1be b88d 77be 5d5b e53e
00000380: d694 89be bba1 75be 2c00 373e e8c2 3c3e
00000390: bccb 813e 106c 813e f795 cf3d 4608 db3e
000003a0: 539c bc3e 3ee5 b33e 5385 2c3e d846 54be
000003b0: 8f01 b93e 8299 e63e cbe0 c5bd 54b9 a03d
000003c0: 7f02 c23e f1d3 2bbd 5b26 bdbe 16f6 413e
000003d0: 240b fcbe 1c95 b43e c8bc d1bd d0ee a0be
000003e0: 318b e93e ea03 cdbd 2c23 6d3e b7b0 063d
000003f0: 483a bd3e c6b7 663e 9b7a f7be c453 12be
0.08162129 -0.28410387 0.36303234 -0.35311025 -0.35671908 -0.40348008 -0.25765976 -0.15483645
-0.45961446 0.2770514 -0.21197236 -0.39044577 0.47964296 -0.18064593 0.2767974 -0.51271105
-0.37784362 -0.30632645 0.14331043 0.013505578 -0.09507936 0.48018053 0.282037 -0.126303
-0.18834075 0.33663335 0.48017398 -0.13749835 0.048817493 0.031069618 0.32618806 -0.076168366
0.138391 0.4822163 -0.008371664 0.2128453 -0.2699675 0.33724558 -0.35719484 -0.06029737
0.35368308 0.026266573 0.36991072 -0.27186835 0.12796658 -0.24448729 -0.0392375 0.035441875
-0.37186527 0.22495267 -0.30929947 0.16113012 -0.16543812 -0.41238695 0.077784 -0.06196165
0.26170284 -0.15125361 0.012405306 0.15222664 -0.08504742 0.42882052 0.05424782 0.16981186
0.18807739 0.23847651 0.13398573 0.43977174 -0.43302643 0.37132835 -0.10786772 -0.39599013
0.29872802 -0.322085 0.26732314 0.38378787 -0.24981144 0.45846725 -0.13969488 -0.07872907
0.0813359 0.15369266 -0.4564972 -0.056545317 0.38150257 -0.35122332 0.30809262 0.32221147
0.3968902 0.2049758 0.056365214 -0.07245204 0.15900409 0.41249722 -0.24534287 0.22873095
-0.37492168 0.21478051 0.38995618 -0.43975538 0.36539832 -0.027105924 0.07884841 0.14217214
-0.15547393 0.05310251 0.06574956 0.055037525 -0.44879565 0.4676296 0.2507678 0.19215424
0.065002576 0.35320255 0.40053222 -0.27498922 -0.3426246 -0.24737036 0.2763023 -0.33614513
0.043413755 -0.043690756 0.049895003 0.11778889 0.15846047 -0.08859916 -0.33980274 0.20055318
0.090431795 0.35696813 0.015604887 0.114377804 0.27641523 0.23240332 0.38410133 0.2778021
-0.12456644 0.31146434 0.23402044 -0.1659935 0.24936272 0.11949148 -0.27983737 0.32444453
0.029063728 0.065133445 0.07970139 0.24963748 -0.40653902 0.3613546 0.4837844 -0.027229989
-0.17530955 0.11087997 0.20209749 -0.115314625 0.363963 -0.16103192 0.28257328 -0.057285573
-0.35174304 -0.2953962 -0.20510733 -0.46908492 -0.18880358 -0.4924118 -0.06550428 -0.26901224
0.3043883 -0.2715531 -0.4174082 -0.3980462 -0.44762543 -0.34210423 -0.051071707 -0.097957455
-0.25383574 -0.39014474 -0.22878212 -0.16774581 0.42110333 -0.22239606 -0.19782293 -0.1517864
-0.21196786 0.356268 -0.09423672 0.17563248 0.4851122 -0.11673241 -0.02884066 -0.43394688
-0.2067182 0.39052826 0.16738671 -0.22235358 0.40832165 -0.028474424 0.19521941 0.18193202
0.10700666 -0.2128798 0.24163997 -0.20720367 0.0061507584 0.11394018 -0.28033814 -0.026442857
0.33726472 0.4501919 0.28856626 -0.045646034 -0.33588827 -0.08844143 -0.16858506 -0.34870434
-0.48162204 -0.08848637 0.031288505 -0.005391896 -0.38733587 -0.37709725 -0.24175155 0.44796267
-0.26871365 -0.23987477 0.1787116 0.18433726 0.2535075 0.25277758 0.101360254 0.4277975
0.36838016 0.35135835 0.16847734 -0.2073015 0.36134002 0.45038992 -0.096620165 0.078478485
0.3789253 -0.04195017 -0.36943325 0.1894153 -0.4922725 0.3527001 -0.10241085 -0.314322
0.45614007 -0.10010512 0.23157948 0.032883372 0.36958528 0.22531042 -0.48335728 -0.14289767

fc1.bias f4 [64]
00000000: 9a0d a3be 4429 9e3e 0276 d53e 554d 073e
00000010: 289e 57be 9d86 6abe 8f97 cf3d 22dd 8b3e
00000020: d5b4 403d e631 e6be ebcf eabe e248 e1be
00000030: 7558 2c3e 1829 cebd da98 eebc 4384 663d
00000040: 66a4 b0be 1cfc 1abe 443e e7bd 3d66 5abc
00000050: 5234 cabe 9222 923e cf95 68bd f1c6 333e
00000060: d293 cfbe f94d 95be 3387 043e 55aa 9fbe
00000070: a095 9abe 10fb 673e c2f7 18bd 9cd6 783e
00000080: 894b f5bd 3d39 67be 6e4f e63e 5841 823c
00000090: 71a5 c83e d2b3 843e 5644 503e edb1 a9be
000000a0: 428f aabe 0f36 c73e ae39 a73e 8887 ac3e
000000b0: eaf4 6d3e cc8d 493e e893 07be c16b 253d
000000c0: 56d2 89be 2570 ab3c 5e1f 513e a822 793e
000000d0: 6d96 723e 80ee bcbc a856 14be a827 093e
000000e0: dd13 4ebd 0a55 963e 0859 eb3e 530f 49be
000000f0: 38da 7fbe 00ac a0bd fb79 153d 0c34 883d
-0.31846315 0.30890858 0.41691595 0.13213094 -0.21056426 -0.22902913 0.101363294 0.27317148
0.047047455 -0.44959944 -0.45861754 -0.44000918 0.16830619 -0.10066432 -0.02912562 0.05627848
-0.34500426 -0.15135235 -0.11291173 -0.01333004 -0.39493042 0.28542 -0.056783494 0.17556359
-0.40542465 -0.2916105 0.129422 -0.3118464 -0.3019228 0.22654366 -0.037345655 0.24300617
-0.11977298 -0.22580428 0.44982475 0.015900299 0.39188722 0.25918442 0.20338568 -0.3314356
-0.33312422 0.3890843 0.32661194 0.33697152 0.23237959 0.19682997 -0.13240016 0.040385965
-0.26918286 0.020927498 0.20422122 0.24329627 0.23690195 -0.023062944 -0.14486182 0.13394034
-0.05031191 0.29361755 0.45966363 -0.19634752 -0.24985588 -0.078453064 0.036493283 0.06650552

fc2.weight f4 [64, 64]
00000000: 561b b43d 121b bcbc 197a a23d f5cd e2bd
00000010: 2cfe ec3d a52d 673d f5e4 3c3a bc39 00be
00000020: 0ca0 f23b 4024 023b 7c1c 563d 9814 c93c
00000030: e265 803d a016 473d 108a 633d 3edf 85bd
00000040: 3672 c6bd aebf f3bd 1952 43bd d309 c6bd
00000050: 80c3 1a3b 8a1c ebbd 9292 d6bd 2370 313c
00000060: aa68 b2bd 7bcf 373d 51cd e1bc 4d32 c23d
00000070: 6122 5f3d 57a3 acbc 050b a23d 9cc1 d13d
00000080: 3921 773c 6236 e13c da79 26bd eae1 00be
00000090: 0064 873d 9b09 913d 148f a9bd c79f 9d3c
000000a0: 4065 46bd 90d3 9dbd 6405 be3d a5f8 12bd
000000b0: 25b2 12bd b767 7b3d 6a71 b0bc 3156 233d
000000c0: 96c4 b43d 60dc ff3c a6cb 293a f616 a13d
000000d0: 750c 9d3d 784b bf3d c0bc b03d 48e2 eebd
000000e0: 2dd3 e6bd 5369 a9bc 5993 4cbd 4c96 c63b
000000f0: 49e6 de3c e05d a73b 79e6 e9bc d964 b83d
00000100: b47c 00bd a03c 5e3d 406e bdbb c0e8 833d
00000110: 4282 c4bd b050 1cbc 8c32 42bd 20cc 563c
00000120: c421 e6bd 0009 e0ba e8d2 de3c 9a3c 98bd
00000130: a04d 09bd 6c47 6d3d 8067 0ebc 904f 8a3c
00000140: 7618 c5bd c080 33bb 98d9 67bd 1c6a 4f3d
00000150: 3421 30bd 348e 1bbd 9cc7 9e3d 60c1 fc3c
00000160: 4633 c0bd fe88 d2bd ec25 ddbd 84cd 88bd
00000170: 3c21 0ebd f495 573d d077 783c 4255 82bd
00000180: d8a2 033d ce6b f63d a2b0 8a3d 1a7d c3bd
00000190: 5a8d a8bd d47e 1d3d 8c2d 303d 58a3 ddbc
000001a0: 50b4 293d 4ac0 a23d 56df f83d d2ee a73d
000001b0: 8a32 ec3d 386d 1c3d e62f f23d 5c31 2a3d
000001c0: 9266 c43d 409e cd3d 2497 fe3d 56b5 e8bd
000001d0: c2bd dabd c85b cbbd c4a0 dfbd 4c64 03bd
000001e0: 6412 35bd d887 8abc bc17 143d c846 aa3c
000001f0: 80d6 47bb ac87 0b3d 1cea 11bd 9004 33bd
00000200: 00c0 e33b b62e bf3c 4270 7bbd cb76 ae3d
00000210: 2a16 dfbd ec69 bc3d 34d5 41bd 18bf 523d
00000220: 955e b63d a012 5dbd b2e3 da3d e4de df3d
00000230: 6e29 83bd b463 153d 29ec ccbd 135e 06be
00000240: 7265 bcbd f85e 0c3d 817f 61bd 25a3 fdbd
00000250: 40c9 213c aa08 7ebd ff39 91bd 09aa 09bc
00000260: 8811 103d 00b1 923d 4c05 b53c 842c 9fbd
00000270: 801b 76bb 896d 5f3d c5a0 f4bd 7518 a03d
00000280: 1828 ba3b 087c e0bd f821 5fbd b0af 90bc
00000290: b569 c13c 61ca c03d fe9a 393b 7ee5 9fbd
000002a0: 20a5 d63c 6cc4 073d 8a35 9b3c 68d0 aa3d
000002b0: 0135 a13d 61d3 afbd bec2 edbd 795b 1e3d
000002c0: 184b c83c 8911 71bd 60a7 513d 2aa3 ddbb
000002d0: 0608 3fbd 8853 1b3d a0a0 cfbd 9bd5 98bd
000002e0: f6b5 2aba e9f3 c2bd 7450 b63c f407 023b
000002f0: c0e6 14bd 5001 ce3d 8ca6 d0bd 1c04 82bc
00000300: 1871 da3c 79e5 c5bc 8179 973d 63c9 4b3d
00000310: 4c04 a43d 21cd 96bd 6955 a53d 846b 893d
00000320: e8fb f33d e67a f03d 6475 40bb aced 44bd
00000330: 40d1 66bd c015 5bbc 6e2a e0ba 4bdb e7bc
00000340: 4022 b7bd 28ce 2dbd 7392 8cbd cebb 65bd
00000350: b479 5f3d 2bc7 ae3d 5c2d a13d ed77 6e3c
00000360: 8220 c03d 53c2 163e c2ce cabd 49b8 87bd
00000370: 6b09 4d3d 7596 36bd e281 1d3e 8443 fdbb
00000380: 4c3a 13bd ed69 bfbd aeca ed3b 38eb ef3d
00000390: 8e0f c33d d070 d7bc 25ce 01be b53c 83bd
000003a0: c0ef e9bc 8a61 cc3c 58e1 163e d23b 903d
000003b0: e6d9 58bd 06db 37bd 5fff 02bd e5f5 cd3c
000003c0: 88c1 f83d 4de0 c63d 89de 4abd ee21 d0bd
000003d0: 310a 323d 9e8b c73d cc86 21bd 6ac1 d2bd
000003e0: 1212 b43b c331 aabd b00f 8dbd a438 153c
000003f0: 8416 113d 7894 f6bd 8eaf c0bd f987 3a3c
0.087942764 -0.022962127 0.079334445 -0.110744394 0.11571917 0.056440014 0.0007205748 -0.12522024
0.007404333 0.0019858032 0.05227326 0.024545953 0.062694326 0.04860556 0.05555159 -0.06536721
-0.09689753 -0.119017944 -0.047685716 -0.096698426 0.0023615062 -0.11480053 -0.10477175 0.010829958
-0.08711369 0.044875603 -0.027563723 0.0948225 0.054476146 -0.02107398 0.07912258 0.10242006
0.0150836045 0.027491752 -0.04064355 -0.1258618 0.0661087 0.0708191 -0.08279243 0.019241227
-0.048436403 -0.07706368 0.09278372 -0.035881657 -0.035814423 0.061378207 -0.021538455 0.03987712
0.08826558 0.031233013 0.00064771844 0.078657076 0.076683916 0.093405664 0.08629751 -0.116642535
-0.11270747 -0.020680105 -0.04994521 0.0060603973 0.027209418 0.0051076263 -0.02855228 0.0900361
-0.031368926 0.054257035 -0.005780965 0.06440878 -0.09595157 -0.009540722 -0.047411487 0.013110191
-0.11236909 -0.0017092526 0.027200177 -0.07433434 -0.033521295 0.05792944 -0.0086916685 0.016883641
-0.09623806 -0.0027389973 -0.056603998 0.050638303 -0.043000415 -0.037977412 0.07752916 0.030853927
-0.0938478 -0.102800354 -0.10798249 -0.06679824 -0.034699664 0.05263324 0.015165284 -0.06363918
0.03213772 0.12032281 0.06771971 -0.095453456 -0.08230086 0.03845103 0.043012187 -0.027055427
0.041431725 0.079468325 0.12151973 0.08199848 0.11533077 0.038190097 0.11825542 0.04155098
0.09589876 0.100399494 0.124311715 -0.11362712 -0.10680725 -0.09929615 -0.109193355 -0.032078072
-0.04420699 -0.016910478 0.036155447 0.020785704 -0.0030492842 0.034064934 -0.035623655 -0.043705523
0.0069503784 0.023337703 -0.061386354 0.08518752 -0.10892899 0.091998905 -0.047322467 0.051451772
0.08904759 -0.05397284 0.10687961 0.10931185 -0.064043865 0.036472037 -0.100059815 -0.13121824
-0.09199037 0.034270257 -0.055053238 -0.12384633 0.009874642 -0.06201998 -0.0709114 -0.008402356
0.03517297 0.07162666 0.022097252 -0.077721626 -0.0037553012 0.05454782 -0.11944727 0.07817165
0.005681049 -0.10961157 -0.054475754 -0.0176619 0.023609975 0.09413601 0.0028321142 -0.07807444
0.026201785 0.033146307 0.018946428 0.083405316 0.07871438 -0.08585239 -0.1160941 0.038661454
0.02444987 -0.058854613 0.051185012 -0.0067638354 -0.04663851 0.03792146 -0.10138059 -0.07462617
-0.00065120996 -0.095191784 0.02225516 0.0019841166 -0.036352873 0.10058844 -0.10188016 -0.0158711
0.026665255 -0.024157273 0.07396222 0.049752604 0.08008632 -0.07363344 0.08072931 0.0670996
0.11913282 0.11742191 -0.0029366845 -0.048078224 -0.0563519 -0.013371885 -0.0017102489 -0.02830281
-0.089420795 -0.042432934 -0.068638705 -0.056087308 0.054559425 0.08534082 0.0786998 0.01455496
0.093812004 0.14722566 -0.09902717 -0.066269465 0.05005781 -0.04457708 0.15381578 -0.0077289958
-0.035944268 -0.093463756 0.0072568273 0.11714786 0.09524451 -0.02629891 -0.12676294 -0.06408063
-0.028556705 0.024948854 0.147344 0.0704266 -0.05294218 -0.04488661 -0.031981822 0.025141666
0.12146288 0.09710751 -0.049528632 -0.101627216 0.04346675 0.09743427 -0.039435193 -0.10290797
0.005495318 -0.083102725 -0.06887758 0.009107742 0.035421863 -0.12040037 -0.094084844 0.0113849575

fc2.bias f4 [64]
00000000: ff52 fc3b 9640 84bd dfe3 8e3c 9b4b c23d
00000010: 406d 78bd b97e 26bd 617b d53c 3cab 193e
00000020: 1dde 04bd 0b13 c23d fa26 d1bd ee8c 9abd
00000030: e675 063e 383d c8bc 8c4c ee3d 5e4c d23b
00000040: f178 863d dd65 a8bc 1284 233b 5bd7 c23d
00000050: 6832 dc3c 42d5 823d 72bd 113d cc4a a9bd
00000060: 4487 32bd a8bf f33c ff22 ad3d 42e8 9ebd
00000070: 0c64 bcbd fea2 9b3d 2c06 a6bd 4599 183e
00000080: fdde 47bd a66b b8bd a1b9 ae3d 2be7 f83d
00000090: 07cd df3c 64d3 51bd c0dc c9bd 5028 0a3e
000000a0: 805e 85bb b843 153d ec8e 663c 2416 33bd
000000b0: a8e9 2abd daa0 cebd 90fa 103d 37d5 c2bc
000000c0: e5aa f0bd 6cab e4bd 77ea a7bd 817e cc3c
000000d0: 8952 b43d 2e39 a1bc 7f22 113e ec09 8b3d
000000e0: c705 863d b8dc d8bd 0a3d a93b cc40 0e3e
000000f0: 4047 d43b 8155 d9bb 2128 85bc ee7c 863d
0.0077003236 -0.06457631 0.017442642 0.09487077 -0.060651064 -0.040648196 0.026059808 0.15006727
-0.032438386 0.094762884 -0.10212512 -0.075464115 0.13130912 -0.024443254 0.11635694 0.006417795
0.065660365 -0.020556385 0.0024950546 0.09513732 0.026879504 0.06388332 0.03558106 -0.082662195
-0.04358603 0.029754475 0.084539406 -0.077591434 -0.0919877 0.07599448 -0.08106646 0.14902218
-0.048796643 -0.09004907 0.085315 0.12153467 0.027319444 -0.05122699 -0.09856558 0.1349194
-0.004070103 0.036441535 0.014072161 -0.043722287 -0.04172674 -0.10089274 0.035395205 -0.02378331
-0.117513455 -0.11165509 -0.081990175 0.024962666 0.08804805 -0.019680586 0.14173315 0.06789002
0.06544071 -0.10588974 0.005164747 0.13891906 0.00647822 -0.0066325073 -0.016254487 0.06566797

fc3.weight f4 [1, 64]
00000000: a9ed d93d dc59 4abd 7e49 f83c 2080 133d
00000010: c69b 963d e056 823d 4043 0c3e 8365 05be
00000020: 3ae2 6c3d c483 14bd dce2 dabd 1829 04bd
00000030: b122 f9bd 44c9 ce3d a7c6 123d c25a 56bd
00000040: a5f4 ff3c ef98 cabd 8f6d 843d 8402 b0bd
00000050: be57 abbd 5dbc bd3c 2575 96bd 10bc e83c
00000060: e8e9 f43d c8e9 85bd e562 653d 68bb bc3d
00000070: 764f 193e 8a65 423d 0575 c03d ee16 58bd
00000080: fef3 46bd 94e1 0fbd 6f4e ecbd 2f3c 29bd
00000090: 04c3 68bd 8890 903d 5697 99bc ddcc 8abd
000000a0: 5c02 57bd 48e3 d13d 2748 0ebd b0ed f8bc
000000b0: d1df 4e3d 8caa 203d c513 f1bd 466f a93d
000000c0: b636 bd3d f057 37bd 14f5 5cbd ce49 0abe
000000d0: 0d7b 7abd c654 d7bd 0ff7 b6bd 29d1 24bd
000000e0: ba56 b63d b867 b6bc 6061 d33c e26e 8ebd
000000f0: e013 a9bd cb78 9e3d b649 b93d e17b 143e
0.10641033 -0.049402103 0.030308481 0.03601086 0.0735393 0.06364226 0.13697529 -0.13027005
0.057832934 -0.036258474 -0.10687801 -0.032265753 -0.1216482 0.10096982 0.03583398 -0.052332647
0.031244585 -0.09892451 0.06466209 -0.0859423 -0.08366345 0.023161108 -0.07346562 0.028409988
0.119586766 -0.06538731 0.056002516 0.092154324 0.14971718 0.047460116 0.0939732 -0.052756242
-0.048572533 -0.035127237 -0.115383975 -0.04131716 -0.056826606 0.07058817 -0.01874892 -0.06777356
-0.052492484 0.102484286 -0.03473678 -0.030386776 0.050506417 0.039225146 -0.11771349 0.08273177
0.09238951 -0.044761598 -0.053944662 -0.13504717 -0.061152507 -0.10514216 -0.089338414 -0.040238533
0.089032605 -0.022266254 0.025803268 -0.06954743 -0.08255744 0.07737883 0.09047262 0.14500381
