news_classifier.pth (torch, 450817 bytes, 8 tensors)

embedding.weight f4 [671, 100]
0.41584542 -0.52802324 0.12287704 0.7123005 -0.49476546 1.2771171 -0.2745555 0.041460954
-0.7420478 0.10788423 1.2107335 0.18116307 -0.75392866 0.62740004 -1.8431282 -0.052908912
1.1311157 1.0266179 0.00096974237 1.5793673 -2.2690613 -1.4306374 -0.5425042 -0.4060545
-0.856685 2.2981133 -0.03285403 0.6317385 -0.1541647 -0.8216318 0.89120567 -1.9365683
0.38028565 -0.0002890041 0.05702728 -1.0937204 -0.58184665 -0.3179517 0.22057894 1.0350696
-0.35980958 1.2690454 -0.692667 -0.46494347 2.5120676 0.74955344 -0.25409222 -1.0998051
2.0735896 0.6370147 1.2482982 -0.87043494 -0.29156086 0.24912561 -0.24327958 -0.5174943
0.14105953 1.7510556 -1.3081508 0.34413716 -0.3946814 -0.60497785 0.82330024 0.9089081
-0.94005466 -0.05670761 0.4309624 0.3204845 -0.57974523 -1.6361136 -0.58801496 1.5359502
-1.6613526 -0.39575183 -0.90601873 -0.32098377 -0.58587384 -0.5830535 -0.30614024 -0.09738065
0.8990566 -0.7892881 0.14228588 -0.055997703 0.32057047 -1.1401817 1.099999 -1.7840786
0.26272494 0.8934351 1.6369894 0.14280999 0.49514785 0.8060625 -0.20208803 0.11933015
0.9776952 -0.4065149 -1.0014683 -0.65981907 0.18024644 0.7303474 -1.3235373 -0.068754755
0.39534023 -0.3684025 0.025369015 0.6473491 0.1793592 -1.9221667 -0.26167098 0.7333565
-0.418469 1.4207574 0.53598 -0.49414417 -0.6206855 -2.1932037 0.34819907 1.2607754
0.37963462 0.04805162 0.10098009 -0.35879746 -0.29253116 0.7602241 -2.4936593 -1.7060894
-0.5633861 -1.6604112 -1.7078999 0.09867574 -1.013874 -0.16599923 -0.7960895 -0.33142242
-0.5879144 -0.09673998 -1.2621306 1.8662769 -1.0890174 -1.5060511 -0.05282446 -0.81461644
-0.57686436 -1.017853 -1.8162003 -0.6185983 0.4572087 -0.8345309 0.18781216 -0.89347154
-0.29435512 -0.72256446 -0.93211925 1.7086452 -0.089476466 -0.7297442 -1.1171337 -0.5449365
0.16248389 0.2674312 0.14481136 0.5873167 -0.61229736 -0.12148369 1.5986847 0.5653457
0.24589276 -0.6303324 0.43106112 -0.44625536 -1.7212455 0.48237482 0.7916456 1.1518419
0.8812745 2.425319 0.18271981 -0.33356914 1.1999979 0.57392645 -1.1933583 -1.6470361
1.7233413 -0.44460294 0.79711413 1.3654583 -1.3637242 -1.5812969 -0.31051904 0.49257088
-0.89453524 1.4709234 -1.0268257 0.3357404 -0.24828368 0.46529862 -1.0552863 0.67249423
-0.12657836 0.63634944 0.027839178 0.31627935 0.5225239 -1.8665327 2.0860097 -0.5552671
-1.4438795 -0.85178745 -1.1537471 2.0815983 -1.1727604 -0.8198209 0.72979504 -0.051387437
0.2853572 0.21207936 1.3544071 0.313188 1.0537524 -0.7149829 -0.918036 0.0983031
1.2635976 0.4668356 0.82311004 0.3691892 -2.6855645 1.6124679 0.6956317 -0.32936972
0.709236 0.23744255 0.16612224 0.32298973 -0.2334444 -1.0528324 0.19187379 -0.30229995
0.6356972 -0.74486834 0.59566736 0.3724464 -2.234955 -0.67796665 -1.4985646 -1.507708
0.5704105 -2.2219784 1.5333261 -0.05856302 0.31585303 -1.1710289 -1.8851566 -0.054635476
00000000: b1e9 d43e 882c 07bf f5a6 fb3d 5359 363f
00000010: e651 fdbe 9378 a33f 8a92 8cbe f6d2 293d
00000020: d8f6 3dbf 68f2 dc3d 51f9 9a3f d082 393e
00000030: 7801 41bf 4a9d 203f a0eb ebbf 04b7 58bd
00000040: 66c8 903f 3768 833f 4f36 7e3a b528 ca3f
00000050: 4d38 11c0 201f b7bf 8ee1 0abf 60e6 cfbe
00000060: b54f 5bbf 4a14 1340 f391 06bd 9db9 213f
00000070: 5add 1dbe 7656 52bf 0e26 643f 78e1 f7bf
00000080: cdb4 c23e 7985 97b9 7095 693d 08ff 8bbf
00000090: e7f3 14bf 91ca a2be 72df 613e 297d 843f
000000a0: f638 b8be 1470 a23f a052 31bf 120d eebe
000000b0: b7c5 2040 bce2 3f3f 6018 82be 6ac6 8cbf
000000c0: b1b5 0440 6513 233f 3cc8 9f3f d3d4 5ebf
000000d0: 7747 95be c91a 7f3e 481e 79be 827a 04bf
000000e0: e971 103e 9722 e03f 7c71 a7bf bf32 b03e
000000f0: ae13 cabe d4df 1abf cec3 523f 34ae 683f
00000100: 6ca7 70bf 3d46 68bd 1ba7 dc3e 8b16 a43e
00000110: 2f6a 14bf 2c6c d1bf 2688 16bf 049a c43f
00000120: 34a7 d4bf fc9f cabe d8f0 67bf fc57 a4be
00000130: d4fb 15bf ff42 15bf 6abe 9cbe 826f c7bd
00000140: 9328 663f c90e 4abf 64b3 113e d95d 65bd
00000150: d021 a43e 79f1 91bf c4cc 8c3f b05c e4bf
00000160: e283 863e 2ab8 643f de88 d13f c83c 123e
00000170: 0584 fd3e 1d5a 4e3f 2af0 4ebe 5e63 f43d
00000180: 3c4a 7a3f b922 d0be 1d30 80bf e7e9 28bf
00000190: 8692 383e 0cf8 3a3f ac69 a9bf 4bcf 8cbd
000001a0: 096a ca3e 419f bcbe aed2 cf3c acb8 253f
000001b0: f0a9 373e 8f09 f6bf bdf9 85be 40bd 3b3f
000001c0: 9241 d6be 61db b53f fc35 093f 7700 fdbe
000001d0: 3fe5 1ebf 735d 0cc0 2647 b23e 1761 a13f
000001e0: 785f c23e c7d1 443d a6ce ce3d 4db4 b7be
000001f0: a5c6 95be 0c9e 423f 1d98 1fc0 2361 dabf
00000200: 123a 10bf 5b88 d4bf 779c dabf 8216 ca3d
00000210: a0c6 81bf b4fb 29be 85cc 4bbf 33b0 a9be
00000220: 8f81 16bf 9c1f c6bd 7f8d a1bf 29e2 ee3f
00000230: ec64 8bbf 48c6 c0bf 765e 58bd b48a 50bf
00000240: 62ad 13bf 0249 82bf 4079 e8bf 755c 1ebf
00000250: 4217 ea3e d1a3 55bf d551 403e 8dba 64bf
00000260: b7b5 96be fcf9 38bf 5e9f 6ebf e3b4 da3f
00000270: 703f b7bd 84d0 3abf 3dfe 8ebf f580 0bbf
00000280: 2d62 263e beec 883e 6e49 143e 635a 163f
00000290: 85bf 1cbf 71cc f8bd b3a1 cc3f 7fba 103f
000002a0: 50cb 7b3e 775d 21bf 0bb4 dc3e 957b e4be
000002b0: c651 dcbf d5f9 f63e 49a9 4a3f 8e6f 933f
000002c0: 359b 613f 6d38 1b40 e71a 3b3e 93c9 aabe
000002d0: 8899 993f d8ec 123f f7bf 98bf 14d2 d2bf
000002e0: 7396 dc3f ffa2 e3be ac0f 4c3f 56c7 ae3f
000002f0: 848e aebf f067 cabf 5afc 9ebe 4032 fc3e
00000300: 4300 65bf 3847 bc3f 066f 83bf 2ae6 ab3e
00000310: 143e 7ebe 9f3b ee3e 9f13 87bf 9528 2c3f
00000320: c29d 01be cce7 223f fd0e e43c 5eef a13e
00000330: 20c4 053f 8bea eebf 2f81 0540 fc25 0ebf
00000340: 0bd1 b8bf be0e 5abf fcad 93bf e838 0540
00000350: 031d 96bf c8df 51bf d9d3 3a3f a27b 52bd
00000360: 571a 923e 552b 593e 365d ad3f 2d5a a03e
00000370: 5ce1 863f 1f09 37bf 6804 6bbf 2353 c93d
00000380: 91bd a13f 1305 ef3e 57b7 523f 5e06 bd3e
00000390: 4ae0 2bc0 5965 ce3f eb14 323f 26a3 a8be
000003a0: 7e90 353f 2424 733e f31b 2a3e e95e a53e
000003b0: 0c0c 6fbe 36c3 86bf 907a 443e 0fc7 9abe
000003c0: 0dbd 223f b1af 3ebf a87d 183f 4bb1 be3e
000003d0: 8109 0fc0 398f 2dbf f7d0 bfbf 93fc c0bf
000003e0: 6c06 123f e534 0ec0 0844 c43f c7df 6fbd
000003f0: 7db7 a13e 46e4 95bf d04c f1bf 73c9 5fbd

lstm.weight_ih_l0 f4 [256, 100]
-0.011245682 -0.039096985 -0.11606505 0.08667382 0.046312213 0.18334806 -0.02201835 -0.008333064
0.07387554 -0.102960214 -0.07825836 0.050654177 0.0627964 -0.10732194 0.049881488 0.10076975
0.08114366 -0.1482426 0.047477074 -0.07213709 -0.15564069 -0.077198364 -0.09391136 -0.053015243
-0.06395686 -0.13874605 0.07718716 -0.13640499 0.089479394 0.080853686 0.046616223 -0.08347466
-0.023180729 0.061286062 -0.1479204 -0.042296242 -0.07672527 -0.076500796 -0.08525997 -0.022523474
-0.05972701 -0.16354664 -0.12596042 0.056254875 0.033575017 0.09925159 -0.010306329 -0.07816585
0.09355213 -0.01602752 0.058015943 -0.13552749 0.13313758 0.065881416 -0.038607236 0.06639216
-0.06264783 0.058931477 0.05127612 -0.09268101 -0.06070851 0.11756789 -0.03893062 -0.007999524
0.06856357 -0.0046242895 -0.08714604 -0.15063678 -0.052056238 -0.06336617 0.06590685 0.029322384
0.0301254 -0.09710442 0.122954026 0.10637405 -0.0070950952 0.08999205 -0.016467346 0.10043091
0.10075609 -0.024960825 0.056885038 0.056712728 0.046248842 0.100114614 0.06098016 -0.05500831
-0.13690035 -0.1275514 -0.014453418 0.110010184 0.08386615 -0.07262932 -0.033573065 0.04460545
0.053720303 0.021016805 -0.08615377 0.10893469 -0.04205062 -0.0793404 0.053007953 -0.11551455
0.12274864 -0.0038832838 -0.034989245 -0.17620748 -0.05710948 -0.12169804 0.050021898 0.006066117
-0.0704687 0.07290637 -0.00047978788 -0.008428545 0.16928464 -0.08873749 0.028564416 -0.04080494
0.03215307 0.044281214 -0.08513469 0.16756923 0.055114962 -0.09133817 0.056114994 0.079810955
0.06302764 -0.04899267 -0.0136177605 0.066405684 -0.13819471 -0.03641958 0.013405302 -0.04245559
0.006323613 0.104363814 -0.15075216 -0.1350057 -0.095503196 0.026856119 -0.0010361563 0.062704526
0.1032265 -0.050546713 0.13400832 0.029823294 0.08481016 -0.0071978313 -0.04639198 -0.02369587
0.006863767 -0.07971281 0.028345997 -0.05905059 0.019629337 0.10644282 -0.030376418 -0.12945886
-0.061506346 0.1023518 -0.031756558 0.07055408 0.10820667 -0.013275531 -0.025976527 -0.014935656
-0.07359785 -0.14880824 0.123140045 -0.113704234 0.07426882 -0.059352033 -0.053345975 0.009427385
0.039639328 -0.07717439 -0.061648704 0.07712589 0.057435233 0.024087034 0.016560761 -0.03431958
0.108587004 -0.058172934 0.07849406 -0.04862076 0.035041038 0.012828001 -0.055840585 -0.060376726
-0.07402637 -0.05044964 -0.08745491 0.034753464 0.06411458 -0.10702713 0.03990464 0.060493026
-0.02745544 -0.051087905 0.088277504 -0.067318104 0.14185876 0.104994535 0.08909042 0.051776253
-0.08071807 0.091643766 0.022288805 -0.057973646 -0.018430986 0.010599537 -0.022456026 0.026437977
0.08520665 0.11735432 -0.024223857 -0.09511348 -0.096691206 0.06762253 0.07728322 0.020431811
0.016525524 0.069642395 0.04611642 0.074906245 0.012202108 0.061319392 -0.038692344 0.031078754
0.06195274 0.06864648 0.19750936 0.05269189 0.16204186 0.08315329 0.050966416 0.0363617
0.099546656 0.046410132 0.1057253 -0.020787047 -0.041853506 -0.0043022567 0.11539164 0.0376016
-0.11575124 -0.05004608 -0.0796427 -0.034361217 -0.039941773 -0.07367253 0.062076688 0.07339355
00000000: cf3f 38bc 2924 20bd 83b3 edbd 0b82 b13d
00000010: e0b1 3d3d 98bf 3b3e d45f b4bc 6787 08bc
00000020: 0f4c 973d cedc d2bd eb45 a0bd c17a 4f3d
00000030: 669b 803d 9bcb dbbd 8850 4c3d 5f60 ce3d
00000040: a62e a63d e8cc 17be 5277 423d 9cbc 93bd
00000050: 4660 1fbe 2d1a 9ebd 9954 c0bd 8326 59bd
00000060: d0fb 82bd 7213 0ebe 4d14 9e3d c0ad 0bbe
00000070: f940 b73d 9e96 a53d a7f0 3e3d c3f4 aabd
00000080: 83e5 bdbc 1807 7b3d 7278 17be d33e 2dbd
00000090: 2322 9dbd 73ac 9cbd c79c aebd 2683 b8bc
000000a0: 4fa4 74bd c578 27be c5fb 00be 836b 663d
000000b0: f585 093d 6b44 cb3d e0db 28bc 6b15 a0bd
000000c0: 4298 bf3d 254c 83bc 20a2 6d3d b8c7 0abe
000000d0: 3855 083e d6ec 863d 9f22 1ebd 9df8 873d
000000e0: 814d 80bd 2262 713d e906 523d 8bcf bdbd
000000f0: 7da9 78bd 6fc7 f03d b775 1fbd 6f10 03bc
00000100: 0f6b 8c3d 5a87 97bb 9f79 b2bd 8740 1abe
00000110: ec38 55bd 1fc6 81bd 2cfa 863d 7f35 f03c
00000120: 8bc9 f63c afde c6bd 52cf fb3d a3da d93d
00000130: f97d e8bb c04d b83d 87e6 86bc b9ae cd3d
00000140: 3559 ce3d a57a ccbc 4900 693d 9b4b 683d
00000150: 6d6f 3d3d e408 cd3d 55c6 793d 6550 61bd
00000160: 9b2f 0cbe d69c 02be 07ce 6cbc 054d e13d
00000170: 04c2 ab3d aebe 94bd e983 09bd 34b4 363d
00000180: d209 5c3d 6f2b ac3c 6371 b0bd 2719 df3d
00000190: 453d 2cbd 387d a2bd de1e 593d e492 ecbd
000001a0: a463 fb3d b17e 7ebb e250 0fbd bc6f 34be
000001b0: a1eb 69bd d23c f9bd c3e3 4c3d 47c6 c63b
000001c0: e551 90bd ef4f 953d 0a8c fbb9 e117 0abc
000001d0: f458 2d3e 00bc b5bd ecff e93c 1523 27bd
000001e0: f0b2 033d 3860 353d 195b aebd 4597 2b3e
000001f0: 3ac0 613d 820f bbbd d6d8 653d ed73 a33d
00000200: a314 813d 8aac 48bd 071d 5fbc b4ff 873d
00000210: ea82 0dbe b32c 15bd e9a1 5b3c eae5 2dbd
00000220: 5036 cf3b b2bc d53d c65e 1abe ef3e 0abe
00000230: 2e97 c3bd 5d01 dc3c a3cf 87ba 3b6b 803d
00000240: 6a68 d33d 120a 4fbd 7a39 093e fb4f f43c
00000250: f3b0 ad3d c9db ebbb 8405 3ebd d71d c2bc
00000260: 73e9 e03b 7840 a3bd dd35 e83c 08df 71bd
00000270: b4cd a03c b1fe d93d f7d7 f8bc dd90 04be
00000280: 14ee 7bbd d29d d13d 2a13 02bd a87e 903d
00000290: 759b dd3d 9d81 59bc bacc d4bc afb4 74bc
000002a0: 78ba 96bd 3061 18be d930 fc3d c4dd e8bd
000002b0: 401a 983d 1e1b 73bd 4f81 5abd 5275 1a3c
000002c0: d95c 223d 9b0d 9ebd 5a83 7cbd 2ef4 9d3d
000002d0: 3541 6b3d 2c52 c53c 6faa 873c b092 0cbd
000002e0: dd62 de3d be46 6ebd 7ec1 a03d 9026 47bd
000002f0: 3187 0f3d 892c 523c 19b9 64bd 964d 77bd
00000300: 239b 97bd 48a4 4ebd 8f1b b3bd a659 0e3d
00000310: 814e 833d 0a31 dbbd 0c73 233d 89c7 773d
00000320: 3bea e0bc 8d41 51bd d6ca b43d 13de 89bd
00000330: 6c43 113e 6007 d73d 0a75 b63d 5613 543d
00000340: 844f a5bd baaf bb3d 0397 b63c c675 6dbd
00000350: 94fc 96bc aea9 2d3c b3f5 b7bc 7594 d83c
00000360: d380 ae3d 7657 f03d 1c71 c6bc dbca c2bd
00000370: 0a06 c6bd ae7d 8a3d aa46 9e3d 9d60 a73c
00000380: 8960 873c aca0 8e3d 92e4 3c3d 7268 993d
00000390: 5aeb 473c 0b2a 7b3d dd7b 1ebd df98 fe3c
000003a0: 28c2 7d3d 8796 8c3d e53f 4a3e 74d3 573d
000003b0: 4dee 253e 464c aa3d 29c2 503d 02f0 143d
000003c0: 1edf cb3d 8d18 3e3d 8286 d83d 9949 aabc
000003d0: 956e 2bbd f2f9 8cbb 7452 ec3d 2304 1a3d
000003e0: fc0e edbd 1efd 4cbd b61b a3bd 59be 0cbd
000003f0: fc99 23bd a0e1 96bd 2044 7e3d 5c4f 963d

lstm.weight_hh_l0 f4 [256, 64]
-0.06884751 0.018911876 -0.0017389146 0.056772664 -0.087907314 0.19417717 0.15437545 0.055647537
0.076789066 -0.084639765 0.06829931 0.00078005315 -0.05760996 0.12014434 -0.048444543 0.033437315
0.005489174 0.104779 0.040730473 0.02697383 -0.09908748 0.08680991 0.13714702 -0.103366725
-0.0580329 -0.016878327 -0.022486825 0.06977517 0.17097093 0.025183551 0.05316279 0.11254236
-0.09960508 0.16556893 0.068607494 -0.09597396 -0.05062872 0.029237572 -0.0013518595 0.12142267
-0.037198275 -0.032372095 -0.11599918 0.18086636 -0.057642315 0.016314188 -0.06701685 0.06692129
-0.07560419 0.028873388 -0.07313502 -0.032393936 -0.04556737 0.12251531 0.029011741 0.056957543
-0.013329991 -0.050063893 0.16427404 -0.09665067 0.061432824 0.13232629 0.077612005 0.13458249
0.060420245 0.06889012 0.056313504 0.039902195 -0.11619602 0.013633192 0.08087857 0.13670056
0.08569734 0.044186894 0.04786999 0.10965796 -0.05491028 0.13275687 0.10882685 -0.1462652
0.062215514 -0.108540826 -0.025970085 -0.119246624 -0.06467766 -0.024670627 0.13927807 0.03820475
-0.077240445 0.110816486 0.16703975 0.05029501 -0.058234878 0.05477826 0.032287326 -0.079979114
0.05218767 0.089382745 -0.088868745 -0.12072778 0.05732194 -0.06620781 0.04295923 0.029888358
0.041986383 0.03595541 0.0814901 0.14523578 0.06719996 0.16015369 0.0043699723 -0.09468789
0.07329663 0.030467788 0.1358202 -0.04799935 -0.10139474 0.031276707 0.10347422 0.037120767
-0.0028000192 0.056163576 -0.14097297 -0.050294526 -0.08380398 0.13507724 0.06773125 0.025954692
0.055329468 -0.07655213 -0.080568366 -0.05897899 -0.1366482 -0.0018485786 0.0070765465 0.0239135
-0.08243561 0.044044834 -0.08609248 0.09559432 0.07722361 0.031830687 0.054339413 0.028073862
-2.3647217e-05 -0.17214246 -0.1556453 0.05324853 -0.055141624 0.05208193 -0.0077498234 0.07507329
-0.07037688 0.07565548 0.087726325 0.019666087 -0.09907063 0.08906042 0.027337361 0.05552513
0.035189863 -0.04268666 0.17520091 -0.008571655 -0.042151004 -0.08059131 0.010605259 0.11624975
0.03387895 0.15003508 -0.08017988 0.121672064 0.1365685 -0.14281946 0.11567779 0.07739959
-0.10554944 -0.032837335 -0.072933584 0.0602105 0.12740962 0.011046051 -0.110317506 -0.096634984
0.072508916 -0.06306943 -0.10421035 -0.008514519 -0.074203506 0.0418939 -0.11029406 -0.12717871
0.06921289 0.13490425 0.08799153 -0.076380804 0.036926594 0.0616042 -0.035128612 -0.10264766
-0.11437665 0.09637173 -0.09884732 -0.07068839 0.077722505 -0.06704936 -0.008674225 -0.030425662
0.11976951 0.10834594 0.06600901 -0.12582824 0.054337777 -0.057691533 0.0019378028 -0.02542985
0.041609485 0.13566214 -0.05401407 -0.06904893 0.06688893 0.06727133 0.11294431 0.013503436
-0.07931909 -0.00059037807 0.13934301 0.03224145 0.00031545857 0.027126774 -0.12813741 0.05773405
0.09937389 -0.060155965 -0.005000091 0.18713549 0.007634634 0.07206334 0.013625842 0.15259464
0.05318621 0.095572054 0.06769761 -0.16344309 0.10366601 0.07896236 -0.06989626 0.06642099
0.0052015064 -0.11996277 -0.08102816 -0.06461253 -0.006684675 0.07314617 0.0413677 -0.010886141
00000000: ecff 8cbd 14ed 9a3c 4bec e3ba 748a 683d
00000010: c008 b4bd 61d6 463e 9914 1e3e acee 633d
00000020: 9643 9d3d 9d57 adbd 82e0 8b3d 7b7c 4c3a
00000030: 6cf8 6bbd 3c0e f63d c96d 46bd 91f5 083d
00000040: 87de b33b 5f96 d63d ffd4 263d 39f8 dc3c
00000050: 60ee cabd 65c9 b13d 4570 0c3e efb1 d3bd
00000060: e8b3 6dbd 6b44 8abc 4a36 b8bc 49e6 8e3d
00000070: 0113 2f3e bc4d ce3c 3ac1 593d 9c7c e63d
00000080: c0fd cbbd e78a 293e 1682 8c3d ff8d c4bd
00000090: 1060 4fbd a283 ef3c e130 b1ba 73ac f83d
000000a0: 385d 18bd 9a98 04bd fa90 edbd 0835 393e
000000b0: 591a 6cbd 55a5 853c 2140 89bd 070e 893d
000000c0: 5fd6 9abd e287 ec3c d0c7 95bd 81af 04bd
000000d0: daa4 3abd 4fe9 fa3d 08aa ed3c 504c 693d
000000e0: 0966 5abc cc0f 4dbd 7437 283e c9f0 c5bd
000000f0: fca0 7b3d 8b80 073e 0bf3 9e3d fecf 093e
00000100: 387b 773d 4316 8d3d fda8 663d 7c70 233d
00000110: 2ef8 edbd c05d 5f3c aaa3 a53d 3bfb 0b3e
00000120: 1682 af3d 51fd 343d 5313 443d 5a94 e03d
00000130: 9ae9 60bd 6bf1 073e 9de0 de3d 8bc6 15be
00000140: b2d5 7e3d a74a debd 37bf d4bc 9337 f4bd
00000150: b975 84bd 0e1a cabc e99e 0e3e 957c 1c3d
00000160: 3d30 9ebd c1f3 e23d 780c 2b3e 2402 4e3d
00000170: b287 6ebd 2b5f 603d b73f 043d 17cc a3bd
00000180: bdc2 553d 4d0e b73d d100 b6bd 2040 f7bd
00000190: 69ca 6a3d f697 87bd 04f6 2f3d 6ed8 f43c
000001a0: eaf9 2b3d fb45 133d 48e4 a63d b0b8 143e
000001b0: 22a0 893d 54ff 233e fc31 8f3b b9eb c1bd
000001c0: 8b1c 963d 9597 f93c 7314 0b3e f79a 44bd
000001d0: 0ca8 cfbd 011c 003d 4bea d33d f20b 183d
000001e0: 8780 37bb c70b 663d 385b 10be a201 4ebd
000001f0: 6ca1 abbd b051 0a3e aeb6 8a3d ef9e d43c
00000200: 27a1 623d 5dc7 9cbd 0701 a5bd f493 71bd
00000210: 81ed 0bbe 014c f2ba 60e2 e73b 3fe6 c33c
00000220: 00d4 a8bd 5b68 343d 4151 b0bd f4c6 c33d
00000230: 6927 9e3d e560 023d 0193 5e3d 28fb e53c
00000240: 035e c6b7 1d46 30be 7b61 1fbe 211b 5a3d
00000250: 2fdc 61bd dd53 553d 3bf2 fdbb 06c0 993d
00000260: c121 90bd 43f1 9a3d dca9 b33d c61a a13c
00000270: 8be5 cabd 4f65 b63d 9af2 df3c 526e 633d
00000280: 3f23 103d 35d8 2ebd de67 333e 2070 0cbc
00000290: 88a6 2cbd 0f0d a5bd aec1 2d3c 5914 ee3d
000002a0: a7c4 0a3d cca2 193e 5935 a4bd 342f f93d
000002b0: 9dd8 0b3e 443f 12be 7ae8 ec3d ad83 9e3d
000002c0: 4e2a d8bd 7180 06bd 345e 95bd 499f 763d
000002d0: ab77 023e 7ffa 343c 25ee e1bd 90e8 c5bd
000002e0: 8e7f 943d 8c2a 81bd 3c6c d5bd 7b80 0bbc
000002f0: 02f8 97bd f098 2b3d dae1 e1bd 233b 02be
00000300: 7dbf 8d3d 5724 0a3e e734 b43d 8a6d 9cbd
00000310: 5740 173d b054 7c3d 05e3 0fbd f038 d2bd
00000320: 4e3e eabd 8b5e c53d 7770 cabd 13c5 90bd
00000330: fa2c 9f3d 2d51 89bd 561e 0ebc 3d3f f9bc
00000340: b849 f53d 7ae4 dd3d bb2f 873d 1ed9 00be
00000350: 4a91 5e3d f54d 6cbd dffd fd3a 4352 d0bc
00000360: b56e 2a3d 04eb 0a3e dc3d 5dbd 8769 8dbd
00000370: 10fd 883d 8dc5 893d 594f e73d 843d 5d3c
00000380: 0c72 a2bd 9ac3 1aba efaf 0e3e 9c0f 043d
00000390: 2264 a539 f838 de3c 7436 03be 8a7a 6c3d
000003a0: 8a84 cb3d 1a66 76bd ced7 a3bb 72a0 3f3e
000003b0: f42b fa3b f295 933d ec3e 5f3c c541 1c3e
000003c0: c9d9 593d 48bb c33d 0ba5 8a3d a05d 27be
000003d0: d84e d43d 05b7 a13d c525 8fbd ba07 883d
000003e0: 6671 aa3b 0aaf f5bd 18f2 a5bd 9353 84bd
000003f0: 1e0b dbbb a9cd 953d 2d71 293d c95b 32bc

lstm.bias_ih_l0 f4 [256]
0.101869725 0.07368779 0.17434151 0.022661258 -0.046519157 0.18040696 0.033316247 0.0037696748
0.03543319 0.055203244 0.089391716 -0.06522062 0.12641999 0.12301663 -0.028555008 0.018526386
-0.009047329 0.12805548 0.03792886 0.03589166 0.093162686 0.15657972 0.03250915 0.17188469
0.017719757 0.007167346 0.05265201 0.13169539 0.048285175 0.12484492 0.06919824 0.041912787
0.113271914 0.16127749 0.15624861 0.08977262 0.01876468 -0.0020752768 -0.05855434 0.08444428
0.05339395 0.09689611 0.18063776 -0.058084358 0.092235 0.12009532 0.105965026 0.05741607
0.12070645 -0.022010215 0.016499398 -0.04163473 0.13183196 -0.0174136 0.087080106 0.14201361
-0.042991288 0.15649667 0.024126757 0.057995252 0.16226946 -0.0013505339 -0.034000628 0.121077634
-0.045998406 -0.11180584 0.049369108 -0.0040008365 0.17858426 0.11564983 0.11241553 0.02493209
0.072010405 -0.07259339 0.1290978 -0.045369796 -0.042489674 0.1732025 -0.016678913 0.14202157
0.008835516 0.15128574 -0.045665883 -0.04361881 0.056573022 0.12185571 -0.1083384 -0.058841024
0.042539813 -0.01086579 0.049904846 -0.091576666 -0.036578447 0.12801391 -0.03761056 0.06734734
0.15184906 0.055040922 0.0063896403 -0.02345612 -0.011924803 0.07665979 -0.1119527 0.0058122133
0.104513034 0.10204224 0.009040173 0.0009150971 0.016162274 0.03278646 -0.02075915 0.021878108
0.14820652 0.10597089 0.03616067 0.055525333 0.011941376 -0.07436686 0.047484547 0.054117437
-0.036996637 -0.07463974 -0.055349287 0.12100188 -0.03909164 -0.024082758 -0.0656046 0.16562936
0.0057389014 0.05874319 0.16237515 0.0013251158 -0.20284519 0.19867988 0.07209889 -0.057500865
0.065839514 -0.0065489514 -0.12019397 -0.08969892 -0.039229967 -0.06921278 0.20287384 0.055468574
0.032496274 -0.010171834 -0.071412034 -0.015426547 -0.15064225 -0.020482771 0.17208022 0.11957253
-0.027115691 0.12439054 0.1440267 -0.042359356 -0.11823825 0.010607224 0.02953123 -0.014336356
-0.13851884 0.1999649 0.07056496 0.12839179 0.02066952 -0.035834726 0.07747363 -0.056556184
0.004161093 0.03995952 -0.019969527 0.18659824 -0.039648186 -0.06603155 0.020891743 -0.15169255
-0.036089886 0.12656663 -0.0968353 -0.061375685 0.15461758 0.16995995 -0.1524237 -0.059456117
-0.12619828 -0.1894984 0.021607604 0.15699585 0.11875767 -0.08621906 -0.13495025 -0.100414
0.008119434 -0.08824576 -0.03403672 -0.07311811 0.19372952 -0.025702603 0.06702218 0.12256302
0.122960575 0.0821011 0.20915462 0.15017341 0.02149478 0.17211406 0.053333938 0.14844833
0.04674811 0.05027948 0.09088494 0.0017473488 -0.005794097 0.027449781 0.066282675 0.03706066
0.048295412 0.150059 -0.055183105 0.15465535 0.13437353 0.2093414 0.058602747 -0.047702394
0.12341853 0.016837228 0.12584198 0.021627031 0.11577153 0.018374955 0.10896064 0.14196423
0.0895406 0.05690132 0.10657921 0.18165234 -0.047559254 -0.054723833 0.11037078 0.18575217
0.051852375 0.029448308 0.0822785 0.17723149 0.09290694 0.013061384 0.021168208 0.013882994
0.18052152 0.17951022 0.06928426 -0.023984747 -0.029301299 0.16095455 0.08573345 0.11909157
00000000: 13a1 d03d a0e9 963d 9586 323e 1aa4 b93c
00000010: df8a 3ebd 9abc 383e 9e76 083d a60c 773b
00000020: 6522 113d cc1c 623d 0113 b73d 6392 85bd
00000030: 3e74 013e 25f0 fb3d 31ec e9bc a6c4 973c
00000040: 403b 14bc fa20 033e 4b5b 1b3d 2203 133d
00000050: 14cc be3d 6f56 203e 5128 053d 8a02 303e
00000060: 0629 913c 0edc ea3b a2a9 573d 28db 063e
00000070: adc6 453d b2ae ff3d cfb7 8d3d beac 2b3d
00000080: 1bfb e73d ed25 253e a3ff 1f3e b5da b73d
00000090: 63b8 993c 5e01 08bb add6 6fbd 1ff1 ac3d
000000a0: 9db3 5a3d 7871 c63d 1bf9 383e dde9 6dbd
000000b0: b4e5 bc3d 89f4 f53d 3104 d93d 1d2d 6b3d
000000c0: f134 f73d c44e b4bc bf29 873c 2e89 2abd
000000d0: f5fe 063e f7a6 8ebc 0e57 b23d 046c 113e
000000e0: a217 30bd aa40 203e 7aa5 c53c 6e8c 6d3d
000000f0: f729 263e 6604 b1ba 3e44 0bbd 8df7 f73d
00000100: d368 3cbd 76fa e4bd 4337 4a3d 7319 83bb
00000110: cbde 363e d1d9 ec3d 1d3a e63d 623e cc3c
00000120: 317a 933d d8ab 94bd 3732 043e aed5 39bd
00000130: a709 2ebd ff5b 313e 37a2 88bc 1a6e 113e
00000140: d7c2 103c a6ea 1a3e 260c 3bbd a3a9 32bd
00000150: 1db9 673d 7d8f f93d 86e0 ddbd 4903 71bd
00000160: 3a3e 2e3d 6d06 32bc 0669 4c3d 8c8c bbbd
00000170: 48d3 15bd 1416 033e 880d 1abd 67ed 893d
00000180: 527e 1b3e 9772 613d 3060 d13b 0d27 c0bc
00000190: 4060 43bc cfff 9c3d 7547 e5bd 6174 be3b
000001a0: ee0a d63d 86fb d03d 3c1d 143c 20e3 6f3a
000001b0: bf66 843c 184b 063d 180f aabc b839 b33c
000001c0: 73c3 173e 4407 d93d 361d 143d 886e 633d
000001d0: c3a5 433c a74d 98bd 287f 423d 3faa 5d3d
000001e0: c989 17bd b8dc 98bd efb5 62bd d5cf f73d
000001f0: 8e1e 20bd 3449 c5bc b45b 86bd be9a 293e
00000200: 650d bc3b b39c 703d ac45 263e 82af ad3a
00000210: a6b6 4fbe bd72 4b3e 95a8 933d 0786 6bbd
00000220: ded6 863d 9698 d6bb 4228 f6bd 11b4 b7bd
00000230: 9aaf 20bd 6ebf 8dbd 29be 4f3e 0433 633d
00000240: d01a 053d c4a7 26bc 7940 92bd a1bf 7cbc
00000250: f641 1abe 7ccb a7bc cc35 303e 71e2 f43d
00000260: ba21 debc 78c0 fe3d bc7b 133e 0181 2dbd
00000270: e526 f2bd ecc9 2d3c 7aeb f13c 09e3 6abc
00000280: e2d7 0dbe 99c3 4c3e 5d84 903d 2379 033e
00000290: 2053 a93c 6fc7 12bd 7faa 9e3d 75a7 67bd
000002a0: c759 883b 98ac 233d 2297 a3bc 9c13 3f3e
000002b0: 2366 22bd 8d3b 87bd 2925 ab3c 4b55 1bbe
000002c0: fdd2 13bd af9a 013e 9651 c6bd 1265 7bbd
000002d0: 1254 1e3e fb09 2e3e f514 1cbe 4288 73bd
000002e0: 1f3a 01be de0b 42be 6e02 b13c 85c3 203e
000002f0: 3937 f33d 9e93 b0bd 6630 0abe dba5 cdbd
00000300: 6007 053c 31ba b4bd 166a 0bbd f3be 95bd
00000310: 0861 463e 448e d2bc ed42 893d 5202 fb3d
00000320: c1d2 fb3d 9f24 a83d a12c 563e 0fc7 193e
00000330: d215 b03c ab3e 303e b074 5a3d d702 183e
00000340: f27a 3f3d dbf1 4d3d e221 ba3d 4c07 e53a
00000350: 69dc bdbb 5dde e03c 36bf 873d ebcc 173d
00000360: 69d1 453d 11a9 193e ae07 62bd f95d 1e3e
00000370: 3799 093e 985d 563e 6f09 703d 9663 43bd
00000380: dbc2 fc3d 3aee 893c b8dc 003e 2c2b b13c
00000390: a019 ed3d 1387 963c c226 df3d 125f 113e
000003a0: 1061 b73d 5c11 693d 3346 da3d 1203 3a3e
000003b0: 7ecd 42bd 1926 60bd 130a e23d d135 3e3e
000003c0: 2863 543d 943d f13c a181 a83d 2c7c 353e
000003d0: fe45 be3d 6aff 553c f368 ad3c 7f75 633c
000003e0: a2da 383e 87d1 373e e8e4 8d3d a97b c4bc
000003f0: 4709 f0bc 45d1 243e 0595 af3d 48e6 f33d

lstm.bias_hh_l0 f4 [256]
-0.042771403 -0.026402978 0.16302618 0.015712991 -0.044259556 0.08545225 0.03790952 0.1110881
-0.053317595 0.07038575 0.0703759 0.17589666 0.13698544 0.11549371 -0.02193354 -0.026602536
0.1086664 -0.08285477 -0.010915921 0.033426635 -0.06137647 0.14116053 0.07983437 0.061028887
-0.01322226 0.12944171 0.10802866 0.051738776 0.051040016 0.17804788 -0.014169309 -0.105209015
0.14969069 0.028781436 0.241022 0.06227152 -0.0530231 -0.017311513 0.025219442 0.0028376267
0.053202625 0.019497987 0.08785865 -0.040784337 0.13631131 0.11372429 -0.038990658 -0.014356315
0.096460335 -0.035405055 0.17525822 0.05470672 0.07061444 0.06104331 0.034805335 0.07764287
-0.061025433 0.09731367 0.02272471 0.07197314 -0.043903966 0.16450077 0.0065538245 0.09931301
0.014189428 0.102996364 0.08148829 -0.067159556 0.04038627 -0.06826892 0.0056109237 0.09040511
0.060746 -0.043834224 0.12736449 -0.016835518 -0.028954074 0.02122071 -0.043384705 -0.011577096
-0.044530723 0.033288967 0.10278741 0.010941664 0.15353954 -0.020355651 -0.050174497 -0.014120988
-0.07940545 0.039009582 0.05448107 -0.060671292 -0.058131617 -0.058103528 0.009318525 -0.049490493
-0.03690738 0.013500505 0.13600051 0.018766845 0.069258586 0.1466367 0.025417428 -0.044834137
-0.035863046 -0.04857772 0.15795761 -0.06302269 -0.010439701 0.0079879435 0.1128882 0.06595398
-0.017795967 0.0015977782 -0.01146479 0.12217753 0.11873513 0.03298309 0.14085087 0.056250144
0.132341 0.117038056 0.02606795 -0.012079115 0.062105477 -0.058708634 0.059095573 0.1379579
-0.022326361 0.055616237 -0.010056494 -0.09049258 -0.19692595 0.045520727 -0.13339639 0.10707171
0.1126852 0.05418699 -0.22023298 0.09745784 0.14921758 -0.11913521 -0.005161438 -0.060412936
0.15030682 0.10223922 -0.1002681 -0.18147936 -0.1995662 0.09843342 0.1809392 0.06858108
-0.13937694 -0.012409454 0.18252069 0.029745491 -0.051988024 0.018232875 -0.03580977 0.040804964
-0.12799934 0.16453508 -0.037451174 0.09698728 0.0108949505 0.0103539415 -0.07535827 0.1294992
0.049699623 0.21740103 0.13947469 0.10106631 0.18058111 -0.11876502 -0.1764683 0.0082796365
-0.17129591 -0.0750485 -0.10535626 0.0002833395 0.12639743 0.11117296 -0.16318482 -0.012615276
0.067869626 0.014474246 0.07110833 0.0614838 0.16011806 -0.19794199 -0.13898936 -0.1449521
0.18429789 0.1277392 0.15822351 -0.04658144 -0.0010193376 0.013164956 -0.034676045 0.23991898
0.09875637 0.16791832 0.14611383 -0.08501679 0.071276106 -0.02802763 0.1501791 -0.035616755
0.119086236 -0.06359062 0.06460204 -0.022830134 0.076544546 0.07681303 0.12822036 0.10250204
0.083652414 0.16751625 0.06579456 0.10000292 -0.012837136 -0.03377842 0.05797365 0.016708631
0.019385109 0.07792649 0.25984746 0.02345556 0.05234186 0.1840836 -0.09572308 0.002063012
-0.06103957 0.015138174 0.117257096 0.08369228 0.08929531 0.09077165 -0.025939742 0.20640971
0.03919385 -0.05435613 0.15612064 0.17308609 0.2120142 0.024436185 0.13454351 -0.051097177
0.05037514 0.13843015 0.019225465 0.0023601067 0.18834503 0.00094388967 -0.09562436 0.1306299
00000000: 1131 2fbd 0f4b d8bc 56f0 263e 88b8 803c
00000010: 8249 35bd 9701 af3d 0347 1b3d 2882 e33d
00000020: 8d63 5abd 6726 903d 3d21 903d 411e 343e
00000030: e945 0c3e f787 ec3d f8ad b3bc 90ed d9bc
00000040: 7d8c de3d c3af a9bd b1d8 32bc 5eea 083d
00000050: e565 7bbd 638c 103e 3480 a33d 6df9 793d
00000060: 2ea2 58bc 5e8c 043e 213e dd3d 0aec 533d
00000070: 560f 513d 2f52 363e 6426 68bc d377 d7bd
00000080: 8448 193e 0cc7 eb3c 79ce 763e 6c10 7f3d
00000090: c02e 59bd e0d0 8dbc 0199 ce3c 7af7 393b
000000a0: ffea 593d 3eba 9f3c 3cef b33d 7a0d 27bd
000000b0: 3195 0b3e 48e8 e83d abb4 1fbd c036 6bbc
000000c0: ff8c c53d e404 11bd e476 333e 2714 603d
000000d0: 4e9e 903d 8d08 7a3d 0a90 0e3d 3a03 9f3d
000000e0: cef5 79bd 644c c73d 2c29 ba3c a766 933d
000000f0: a5d4 33bd e472 283e 77c1 d63b 9f64 cb3d
00000100: c67a 683c c2ef d23d 55e3 a63d f38a 89bd
00000110: 136c 253d 93d0 8bbd d7db b73b 5026 b93d
00000120: ccd0 783d 848b 33bd d66b 023e a4ea 89bc
00000130: 1831 edbc 0ed7 ad3c 29b4 31bd dcad 3dbc
00000140: d965 36bd 035a 083d 3582 d23d aa44 333c
00000150: 7839 1d3e e5c0 a6bc c683 4dbd b75b 67bc
00000160: 539f a2bd 83c8 1f3d 8b27 5f3d 7682 78bd
00000170: 6b1b 6ebd f7fd 6dbd baac 183c 8bb6 4abd
00000180: 312c 17bd 3931 5d3c b843 0b3e edbc 993c
00000190: 72d7 8d3d ee27 163e 3638 d03c 00a4 37bd
000001a0: 21e5 12bd 6ef9 46bd a4bf 213e 0a12 81bd
000001b0: 480b 2bbc dddf 023c ee31 e73d e112 873d
000001c0: d9c8 91bc 8a6c d13a d1d6 3bbc 3638 fa3d
000001d0: 672b f33d 4719 073d 363b 103e 8d66 663d
000001e0: 6684 073e a6b1 ef3d 748c d53c 7be7 45bc
000001f0: 5062 7e3d 7778 70bd 330e 723d d644 0d3e
00000200: c6e5 b6bc dacd 633d fec3 24bc 2c54 b9bd
00000210: f5a6 49be f173 3a3d 1099 08be 6a48 db3d
00000220: 80c7 e63d 2df3 5d3d c184 61be fa97 c73d
00000230: 7ecc 183e 29fd f3bd 4821 a9bb 8e73 77bd
00000240: 08ea 193e cc62 d13d 5d59 cdbd bad5 39be
00000250: 155b 4cbe 7697 c93d 2048 393e 3d74 8c3d
00000260: d4b8 0ebe 0651 4bbc b4e6 3a3e d1ac f33c
00000270: 65f1 54bd 1c5d 953c 44ad 12bd 1b23 273d
00000280: 4212 03be e27b 283e 6766 19bd 44a1 c63d
00000290: bc80 323c 94a3 293c 7055 9abd 709b 043e
000002a0: d591 4b3d 609e 5e3e 74d2 0e3e dbfb ce3d
000002b0: 41ea 383e 133b f3bd 1bb4 34be 50a7 073c
000002c0: 3268 2fbe 07b3 99bd 06c5 d7bd 2f8d 9439
000002d0: 546e 013e a6ae e33d ec19 27be 4db0 4ebc
000002e0: 3bff 8a3d 6325 6d3c 3ea1 913d 70d6 7b3d
000002f0: fdf5 233e 4eb1 4abe 3a53 0ebe 536e 14be
00000300: 96b8 3c3e 11ce 023e 5805 223e 2ecc 3ebd
00000310: 4b9b 85ba d4b1 573c 7808 0ebd 52ad 753e
00000320: c840 ca3d c8f2 2b3e dd9e 153e 481d aebd
00000330: 35f9 913d 339a e5bc 8dc8 193e e0e2 11bd
00000340: 7ce3 f33d cd3b 82bd 134e 843d 4306 bbbc
00000350: 63c3 9c3d 2650 9d3d 334c 033e 97ec d13d
00000360: f551 ab3d 6189 2b3e 4cbf 863d 55ce cc3d
00000370: da52 52bc 3e5b 0abd c775 6d3d 8ae0 883c
00000380: 85cd 9e3c ec97 9f3d ba0a 853e e025 c03c
00000390: 6b64 563d 6980 3c3e 760a c4bd 9933 073b
000003a0: a104 7abd 1b06 783c 7d24 f03d dc66 ab3d
000003b0: 76e0 b63d 7de6 b93d 957f d4bc 115d 533e
000003c0: bb89 203d 89a4 5ebd 17de 1f3e 7b3d 313e
000003d0: 401a 593e 652e c83c c6c5 093e 464b 51bd
000003e0: 2a56 4e3d a2c0 0d3e b97e 9d3c 05ac 1a3b
000003f0: 85dd 403e 5d6f 773a b4d6 c3bd d8c3 053e

fc1.weight f4 [32, 64]
-0.016180228 0.098181635 -0.006054593 -0.17302628 -0.14273414 0.026397808 -0.058568656 -0.119954646
0.06646504 -0.043379717 -0.05747843 -0.06245492 0.080016926 -0.061072968 0.029720869 0.16449311
0.034270044 0.11438043 -0.17958112 -0.14400394 -0.035031524 -0.12628455 0.01761439 -0.09709746
-0.2153036 0.08150353 -0.0031565144 0.06306948 -0.06258894 0.0781538 0.040900562 -0.13185763
-0.187513 0.2023175 0.11702636 0.045857184 0.12620139 -0.100155234 -0.17398049 -0.07782115
0.09669681 0.21509707 0.010554217 0.07580408 0.12608711 0.06509389 -0.065018356 -0.2289575
-0.104604654 -0.009033657 -0.024395823 -0.15104954 0.24666017 0.17624424 -0.1649713 -0.10923664
-0.043018974 -0.1836827 0.15049027 0.0022987921 0.05026625 -0.17633064 -0.008237843 -0.038380932
-0.08814581 -0.12955157 0.06655258 -0.10979131 0.044806216 0.0045409165 -0.068381146 0.020269614
-0.03471715 0.09410846 0.1482693 0.07645391 0.07564525 0.11868819 -0.0024718423 -0.09293214
0.045837 0.03274116 -0.07857254 -0.020091167 0.083997436 -0.06898012 0.06778795 0.061649133
-0.04187661 0.021921689 0.11046752 -0.10980733 0.0791775 -0.12014953 0.040472824 0.055181175
-0.07689229 -0.046904344 0.006300464 0.0018890159 0.091545254 0.064124085 0.0328328 -0.058613636
-0.087745585 -0.09469042 -0.006060068 -0.07617978 -0.00020629946 0.10919079 0.025766829 -0.06483234
-0.09958966 0.105778344 -0.09596063 0.11394952 -0.018177966 0.10221376 -0.044922873 0.086793154
-0.037673913 0.1308021 -0.07556487 -0.06349022 0.058248628 -0.12907006 0.14124078 -0.06884185
-0.14308117 -0.10476437 -0.0539614 0.034849573 -0.04490971 -0.08506074 0.10437433 0.12658985
-0.021149259 -1.945842e-05 0.054383844 0.02819875 0.007614779 0.15992923 -0.061370052 -0.114067845
0.03143597 -0.07163324 -0.07069026 0.04436071 -0.06677991 -0.037806615 -0.08952 0.057317358
-0.038689278 -0.08310836 0.015911324 0.08127825 0.03785823 0.038735524 0.06532593 -0.072632864
-0.09873404 0.043836415 -0.13942543 0.053314026 -0.044824313 0.032333367 -0.10464882 -0.0010920706
-0.060223468 0.07159755 -0.06688148 -0.012196934 0.046597216 -0.021979615 0.12779327 -0.060506143
-0.01758874 -0.09461928 -0.0059184255 0.1582297 -0.02499021 -0.09743203 -0.003945072 0.05017248
0.10060943 0.19593412 -0.05406792 -0.04082817 0.05701741 -0.052313626 -0.04160199 0.11439955
0.1357971 0.0003811922 0.12945367 -0.03886854 0.051445592 -0.021665934 0.07068215 -0.050895516
-0.14026308 -0.037918672 -0.0012095242 -0.13861513 -0.017083159 -0.2097866 0.021206925 0.13048948
0.015453106 0.14549097 -0.016893843 -0.016491862 -0.17064837 -0.15096946 0.20495367 0.036725424
-0.11852981 0.105931565 0.038406797 -0.082747094 -0.014147671 -0.026488349 0.0999483 -0.024795678
0.015575084 0.18220307 0.12217576 0.009443886 -0.10776926 -0.10996327 -0.074712105 0.008415816
-0.045202665 0.096651495 0.07490163 0.055956524 0.16362153 -0.1126472 0.10243459 -0.19579898
-0.120667174 0.11054657 0.0047151004 -0.038908385 -0.009299069 0.1948476 -0.013938192 0.041880038
-0.2154993 -0.13201015 -0.038482707 0.039291017 0.07637699 -0.13240166 -0.15837686 -0.18586527
00000000: 668c 84bc 7413 c93d 9b65 c6bb cd2d 31be
00000010: e628 12be 3740 d83c b0e5 6fbd c8aa f5bd
00000020: d31e 883d eeae 31bd 816e 6bbd bbd0 7fbd
00000030: eadf a33d a627 7abd 2e79 f33c e270 283e
00000040: bf5e 0c3d 4940 ea3d 1de4 37be c575 13be
00000050: 377d 0fbd bd50 01be 0e4c 903c 08db c6bd
00000060: 8c78 5cbe 53eb a63d 86dd 4ebb 922a 813d
00000070: a12e 80bd 190f a03d 5987 273d b005 07be
00000080: 6803 40be 522c 4f3e 84ab ef3d bed4 3b3d
00000090: f03a 013e 301e cdbd f127 32be b260 9fbd
000000a0: fa08 c63d 6842 5c3e 98eb 2c3c 2b3f 9b3d
000000b0: fb1c 013e f24f 853d 5828 85bd d673 6abe
000000c0: f73a d6bd e701 14bc c0d9 c7bc bbac 1abe
000000d0: 7c94 7c3e 5f79 343e 3dee 28be 76b7 dfbd
000000e0: aa34 30bd 5117 3cbe 1f1a 1a3e 55a7 163b
000000f0: fce3 4d3d 0590 34be 05f8 06bc 5335 1dbd
00000100: ca85 b4bd 2ba9 04be b84c 883d 44da e0bd
00000110: b986 373d f8cb 943b 6a0b 8cbd 760c a63c
00000120: 9233 0ebd f0bb c03d e8d3 173e de93 9c3d
00000130: e6eb 9a3d cb12 f33d a2fe 21bb 3553 bebd
00000140: 94bf 3b3d 981b 063d a4ea a0bd 3b96 a4bc
00000150: d906 ac3d 7345 8dbd 69d4 8a3d cd83 7c3d
00000160: cf86 2bbd 1d95 b33c cc3c e23d aae2 e0bd
00000170: d027 a23d f510 f6bd d5c6 253d a805 623d
00000180: b479 9dbd c51e 40bd 1f74 ce3b db98 f73a
00000190: 147c bb3d 7d53 833d b07b 063d da14 70bd
000001a0: f5b3 b3bd 0ded c1bd 8993 c6bb 2504 9cbd
000001b0: 1752 58b9 6c9f df3d f514 d33c d1c6 84bd
000001c0: aaf5 cbbd 51a2 d83d 0287 c4bd 5e5e e93d
000001d0: f5e9 94bc 7355 d13d 0c01 38bd 9cc0 b13d
000001e0: f64f 1abd fcf0 053e c1c1 9abd 2907 82bd
000001f0: 1d96 6e3d f12a 04be 6ca1 103e f5fc 8cbd
00000200: df83 12be b48e d6bd a106 5dbd 6dbe 0e3d
00000210: 3ef3 37bd 5334 aebd 35c2 d53d c5a0 013e
00000220: 3641 adbc a43a a3b7 98c1 5e3d 1101 e73c
00000230: 6585 f93b 7dc4 233e 2a5f 7bbd 679c e9bd
00000240: 01c3 003d 73b4 92bd 0ec6 90bd 93b3 353d
00000250: e8c3 88bd 1cdb 1abd 4356 b7bd 9bc5 6a3d
00000260: a678 1ebd b734 aabd 7758 823c 3675 a63d
00000270: 3b11 1b3d 24a9 1e3d 9ac9 853d 8ac0 94bd
00000280: 1335 cabd d08d 333d 8ac5 0ebe cf5f 5a3d
00000290: b399 37bd fe6f 043d 1f52 d6bd cf23 8fba
000002a0: e2ac 76bd bca1 923d 28f9 88bd a6d5 47bc
000002b0: b9dc 3e3d 980e b4bc 3ddc 023e 4ad5 77bd
000002c0: 4316 90bc c1c7 c1bd 5aef c1bb f706 223e
000002d0: 45b8 ccbc 728a c7bd aa45 81bb a981 4d3d
000002e0: 510c ce3d f4a2 483e 5376 5dbd 703b 27bd
000002f0: 168b 693d d046 56bd d966 2abd 504a ea3d
00000300: 650e 0b3e c0da c739 818f 043e 9e34 1fbd
00000310: 9db8 523d c27c b1bc cec1 903d d177 50bd
00000320: 20a1 0fbe 9c50 1bbd e688 9eba 20f1 0dbe
00000330: fbf1 8bbc 4cd2 56be 25ba ad3c 099f 053e
00000340: 062f 7d3c 96fb 143e f564 8abc f119 87bc
00000350: 72be 2ebe bd97 1abe 60df 513e 666d 163d
00000360: c2bf f2bd a6f2 d83d 7250 1d3d 4f77 a9bd
00000370: a2cb 67bc 18fe d8bc b2b1 cc3d 4e20 cbbc
00000380: a32e 7f3c 7193 3a3e 4937 fa3d 87ba 1a3c
00000390: 21b6 dcbd 6c34 e1bd a902 99bd 7ee2 093c
000003a0: 6e26 39bd 38f1 c53d 0766 993d ab32 653d
000003b0: 678c 273e 93b3 e6bd 3ac9 d13d 877f 48be
000003c0: 5a20 f7bd 3d66 e23d 2181 9a3b 665e 1fbd
000003d0: 1f5b 18bc 2186 473e 045d 64bc 678a 2b3d
000003e0: d9ab 5cbe ab2d 07be 0ba0 1dbd 9eef 203d
000003f0: 8a6b 9c3d 4d94 07be 8b2d 22be 7753 3ebe

fc1.bias f4 [32]
-0.0071297907 -0.07647695 0.0889004 0.18090829 -0.12130467 0.15879008 0.18714337 -0.09629686
0.091598354 0.17048977 0.01351181 0.023428723 0.04976854 0.048503954 0.01209612 0.013100416
0.060977925 0.19004789 -0.03909998 0.16668417 -0.13098331 0.18303873 0.12794593 -0.051868405
0.012909457 0.16314618 -0.03766657 -0.03631444 0.08873873 0.073161915 0.100878105 0.1306585
00000000: 05a1 e9bb f29f 9cbd 6a11 b63d 0640 393e
00000010: 956e f8bd de99 223e 83a2 3f3e 4a37 c5bd
00000020: eb97 bb3d df94 2e3e a460 5d3c 98ed bf3c
00000030: 19da 4b3d 15ac 463d ce2e 463c 21a3 563c
00000040: fdc3 793d ea9b 423e 4d27 20bd 41af 2a3e
00000050: 7d20 06be 816e 3b3e 4204 033e f773 54bd
00000060: 3082 533c cb0f 273e 4348 1abd 73be 14bd
00000070: a7bc b53d ead5 953d 2e99 ce3d 58cb 053e

fc2.weight f4 [1, 32]
-0.3324651 0.09936483 0.051049013 -0.15689084 0.06692937 -0.24833375 -0.33621797 0.097094215
-0.15936394 -0.2292889 -0.19540685 0.3082293 0.12754992 0.1978616 -0.13529998 -0.2506067
0.19860551 -0.21891314 0.3052167 -0.20934583 -0.07403301 -0.1545 -0.14224388 -0.21393251
-0.15004033 -0.24637158 0.05907113 0.24125813 0.123355545 -0.16980936 -0.22647923 0.28422678
00000000: de38 aabe ca7f cb3d c518 513d fea7 20be
00000010: 4412 893d 344b 7ebe c324 acbe 55d9 c63d
00000020: 4d30 23be b6ca 6abe bc18 48be 3bd0 9d3e
00000030: 729c 023e 3b9c 4a3e 148c 0abe 854f 80be
00000040: 3e5f 4b3e c42a 60be 5d45 9c3e c15e 56be
00000050: 9e9e 97bd 3f35 1ebe 61a8 11be 2011 5bbe
00000060: 2ca4 19be d548 7cbe 92f4 713d 5f0c 773e
00000070: d5a1 fc3d 81e2 2dbe 2cea 67be 2c86 913e
